hw22/293Iters/best_modelx.pth (torch, 452346 bytes, 17 tensors)

conv1.weight f4 [16, 4, 3, 3]
0	0xbd882e71	-0.06649483
1	0xbe1df775	-0.15426429
2	0xbd130bb2	-0.035899825
3	0xbb78bdb9	-0.003795488
4	0xbdeedc6c	-0.11663136
5	0x3d95c327	0.07312613
6	0xbd679f67	-0.056548502
7	0x3e0ef2e4	0.13959843
8	0xbdc33ea2	-0.09533431
9	0xbdff83d6	-0.124763176
10	0xbe162b77	-0.14665018
11	0x3dd38b8c	0.10329351
12	0xbdd6b4f6	-0.10483734
13	0x3e11f7b1	0.14254643
14	0x3d761597	0.060079183
15	0xbda31426	-0.079628274
16	0x3d46e465	0.048557658
17	0x3e1f412b	0.15552203
18	0xbd9515b6	-0.07279532
19	0x3e10bde0	0.14134932
20	0x3d11bbad	0.035579372
21	0x3d642ceb	0.0557069
22	0xb663db4a	-3.395328e-06
23	0x3d24ad04	0.040204063
24	0xbc3ac313	-0.011399048
25	0xbdff5298	-0.124669254
26	0x3cfc8bb0	0.030828327
27	0x92c35cf3	-1.2329144e-27
28	0xb4bb3f39	-3.4877465e-07
29	0x2ff0f10e	4.3827025e-10
30	0x90fe7f66	-1.00381623e-28
31	0xa862c38e	-1.2587924e-14
32	0x399cea04	0.00029928994
33	0x32e19604	2.6261667e-08
34	0x2dd9ade9	2.4747275e-11
35	0x37b76d20	2.1866115e-05
36	0x3e04086d	0.12893839
37	0xbe133add	-0.14377923
38	0xbde2229d	-0.11041758
39	0x3e17adc4	0.1481238
40	0xbcae41ec	-0.021271668
41	0xbcd10c7a	-0.025518645
42	0x3ce5ac82	0.02803636
43	0xbe012c23	-0.12614493
44	0xbd335095	-0.04377802
45	0x3da524fe	0.08063696
46	0xbd89d926	-0.06730871
47	0xbdb6a983	-0.089190505
48	0xbd41a325	-0.047274727
49	0x3d4702aa	0.048586525
50	0xbe0733cd	-0.13203354
51	0x3acf6a1b	0.0015824469
52	0x3d7ae5a2	0.06125415
53	0xbdae7e91	-0.085202344
54	0x3e005c71	0.12535264
55	0xbd8b7b63	-0.068106435
56	0x3dada6f1	0.08479107
57	0x3dc8b2f5	0.09799758
58	0x3ab8c5b5	0.0014097007
59	0xbd8ecb77	-0.069724016
60	0x3c74d558	0.014943443
61	0xbe02431a	-0.1272091
62	0x3dbeb94b	0.093126856
63	0x278bffde	3.885766e-15
64	0xa9295492	-3.759889e-14
65	0xb9733ede	-0.00023197706
66	0x39c1da3b	0.00036974423
67	0x9d690156	-3.0837984e-21
68	0xb3dd4d24	-1.0305146e-07
69	0xba64d7b9	-0.0008729655
70	0x3a69e4b0	0.0008922322
71	0xa7ff762c	-7.090484e-15
72	0x3b9ce498	0.0047879927
73	0x3e5e3de4	0.21703297
74	0xbe55d1ee	-0.20880863
75	0xbd6d931f	-0.058001634
76	0xbdad4466	-0.084603116
77	0xbd8c66a5	-0.068555154
78	0x3debfe0d	0.11523066
79	0xbd4e97e5	-0.050437827
80	0xbd75a987	-0.059976127
81	0xbc5c604c	-0.013450693
82	0x3d9f1c70	0.07769096
83	0xbe345a34	-0.17612535
84	0xbcf993ae	-0.030465927
85	0x3de200f6	0.110353395
86	0xbcdb65e6	-0.026781987
87	0xbde915d6	-0.11381118
88	0xbd54130b	-0.051775973
89	0xbd6dc295	-0.058046896
90	0x3d0e33ab	0.034717243
91	0xbd943771	-0.07237137
92	0xbd0e5c6d	-0.034756113
93	0xbdcb7bb5	-0.099357046
94	0xba740971	-0.0009309268
95	0xbdbb88e0	-0.09156966
96	0x3b2fd14f	0.0026827639
97	0xbddfb935	-0.10923997
98	0x3cf3f5b4	0.029780246
99	0x3702cf41	7.796859e-06
100	0x1d8ef1a2	3.783693e-21
101	0xb69ac05d	-4.6119517e-06
102	0x177b94f8	8.12905e-25
103	0xba3910f3	-0.00070597156
104	0x3aadf261	0.0013271087
105	0x39183928	0.00014517142
106	0xb864ca56	-5.4547876e-05
107	0xa924ac6b	-3.6564864e-14
108	0x3e415e34	0.18883592
109	0xbd964f11	-0.073392995
110	0xbc43240f	-0.0119104525
111	0x3e2b42df	0.16724728
112	0x3e03f228	0.12885344
113	0xb9dbc9b6	-0.0004192122
114	0xbc96f710	-0.018428355
115	0x3d832cc8	0.06405026
116	0x3bec0f0b	0.0072039417
117	0xbd405eb4	-0.046965316
118	0xbd065e0d	-0.032804538
119	0xbdbf5e50	-0.093441606
120	0x3e212219	0.15735663
121	0x3d9fd3cc	0.07804069
122	0xbd2fbf1b	-0.04290686
123	0xbdbcfeb7	-0.092282705
124	0xbc428a45	-0.011873786
125	0xbcc32575	-0.023821572
126	0xbce671ea	-0.02813049
127	0x3e11db8e	0.1424391
128	0xbdadde9f	-0.08489727
129	0xbd0a53f3	-0.033771466
130	0x366f4f5c	3.5659968e-06
131	0x3dec4075	0.11535732
132	0xbdf3c75c	-0.11903259
133	0x3c977fad	0.018493498
134	0xbc3ef1ac	-0.011654299
135	0x9c2136f7	-5.334147e-22
136	0x2fa587fd	3.010995e-10
137	0x26c3ae19	1.3578032e-15
138	0x39d57372	0.0004071254
139	0xb630e89a	-2.6361436e-06
140	0x952ffa8b	-3.5538612e-26
141	0xbafa24d0	-0.0019084457
142	0x3654e3c1	3.1723032e-06
143	0x397a88c9	0.00023892814
144	0x3e1f2175	0.15540107
145	0xbd491071	-0.049087945
146	0x3d9c4a61	0.07631374
147	0x3d785b05	0.060633678
148	0x3e2894e9	0.16463055
149	0x3dba1c14	0.09087387
150	0xbe149b61	-0.14512397
151	0x3e0165ba	0.12636462
152	0xbce5f3ec	-0.028070413
153	0x3e0634f6	0.1310614
154	0x3da079e6	0.0783575
155	0x3e29826a	0.16553655
156	0x3da08f1f	0.07839798
157	0x3d50208c	0.05081229
158	0x3e402bbb	0.18766682
159	0xbda5e2e4	-0.080999166
160	0x3d9fc98b	0.07802113
161	0x3d510588	0.051030666
162	0xbdf2fe2f	-0.11864888
163	0xbd961059	-0.07327337
164	0xbd597934	-0.053094104
165	0x3e234cb7	0.15947233
166	0x37afa79f	2.093968e-05
167	0xbe38fb28	-0.18064559
168	0xbe0e6a2e	-0.13907692
169	0x3e023d5a	0.12718716
170	0xbc227a5f	-0.009916871
171	0x11280504	1.3254409e-28
172	0x38758acc	5.8541817e-05
173	0x3a218388	0.0006161262
174	0x337252f5	5.6420465e-08
175	0x301e1928	5.7515814e-10
176	0xba067503	-0.00051291304
177	0xb8ea7a9c	-0.00011180827
178	0x393f5712	0.00018247616
179	0x38584850	5.156576e-05
180	0xbcaec282	-0.021332983
181	0x3d9ef2bf	0.07761144
182	0x3dec6b62	0.11543919
183	0x3de4ea53	0.11177506
184	0x3e11f0b9	0.14251985
185	0xbbeee66f	-0.0072906534
186	0xbdc9a44d	-0.09845791
187	0xbc2329d4	-0.009958703
188	0xbc70f534	-0.0147068985
189	0xbdf812be	-0.1211295
190	0x3d120bc4	0.03565575
191	0xbda4870c	-0.08033571
192	0xbda0e99e	-0.07857059
193	0x3e286b6f	0.16447233
194	0xbdd19890	-0.10234177
195	0xbd995b60	-0.074881315
196	0xbe0979de	-0.13425395
197	0xbca44ab4	-0.020055152
198	0x3c82779d	0.015926177
199	0xbd8b6e87	-0.06808191
200	0x3cc43278	0.023949847
201	0xbd2d5dc5	-0.042325754
202	0x392d3356	0.0001651769
203	0x3b9d275f	0.004795953
204	0xbda7905c	-0.08181831
205	0xbd9df74e	-0.07713185
206	0x3df31e9f	0.11871075
207	0x1b3ca11f	1.5603057e-22
208	0x3b1effe2	0.0024261405
209	0x1e04d748	7.032541e-21
210	0x31b13d6b	5.1583604e-09
211	0x3a58b6b4	0.0008266971
212	0x1b439bfb	1.6180422e-22
213	0x115df26a	1.7508526e-28
214	0xbaaeabb3	-0.0013326317
215	0x12ad1c99	1.0924885e-27
216	0x3c7d89f8	0.015474789
217	0x3d7ebe12	0.062192984
218	0x3cf7b1ae	0.030236091
219	0x3bf168a1	0.007367209
220	0x3e1d507f	0.15362738
221	0x3e3247cf	0.17410205
222	0x3e138686	0.14406785
223	0xbb83def2	-0.00402438
224	0xbd96c3f2	-0.07361592
225	0x3dfb985c	0.122849196
226	0x3dc80bd1	0.09767879
227	0xbd1966cd	-0.037451554
228	0x3dbdd400	0.092689514
229	0x3d61225c	0.05496441
230	0x3de3f971	0.111315615
231	0x3e2e312c	0.17010945
232	0x3dec1283	0.11526968
233	0xbdebf610	-0.11521542
234	0xbe1e7376	-0.15473732
235	0xbdf14ac0	-0.117818356
236	0x3e1b9d18	0.15196645
237	0xbd47e2f0	-0.04880041
238	0x38877ee7	6.460939e-05
239	0xbe26ffee	-0.16308567
240	0xbdd21244	-0.1025739
241	0xbdd5049c	-0.1040127
242	0xbd2d7436	-0.042347156
243	0x3adea1ae	0.001698544
244	0x371baa5a	9.278383e-06
245	0xb8b2b2ff	-8.521042e-05
246	0x92ed91c8	-1.4992741e-27
247	0x080b0ac4	4.1841446e-34
248	0x95e3ab2f	-9.195465e-26
249	0x38098ebd	3.279628e-05
250	0x3a17e60b	0.0005794472
251	0x26ce4e91	1.4315417e-15
252	0x3e12b20f	0.14325736
253	0x3db61661	0.08890987
254	0x3cfae205	0.030625353
255	0x3df41843	0.1191869

conv1.bias f4 [16]
0	0xb793388c	-1.7550097e-05
1	0x396511cc	0.00021845772
2	0x380e4825	3.3922628e-05
3	0xb74f5cce	-1.2359769e-05
4	0x398601ac	0.00025559717
5	0x39214a88	0.00015381922
6	0xb907f6d2	-0.00012966551
7	0xb8d4bdea	-0.00010144322
8	0xb98b9797	-0.0002662509
9	0xb857aab3	-5.141897e-05
10	0xb8792e90	-5.940959e-05
11	0xba936851	-0.0011246299
12	0xb7d4ba07	-2.5358995e-05
13	0xbb1914cd	-0.0023358345
14	0x37a06ee9	1.9125133e-05
15	0x39a1b4f0	0.00030843122

bn1.weight f4 [16]
0	0x3f7f148d	0.99640733
1	0x3f814617	1.0099515
2	0x3f795298	0.97391653
3	0x3f8514e1	1.0396997
4	0x3f84c6df	1.0373191
5	0x3f803a86	1.001786
6	0x3f81a52f	1.0128535
7	0x3f8965ce	1.0734193
8	0x3f7869a4	0.97036195
9	0x3f7c27ae	0.98498046
10	0x3f773136	0.96559465
11	0x3f7ae5c2	0.9800683
12	0x3f74d68b	0.95639867
13	0x3f7f2a5e	0.9967402
14	0x3f741e39	0.95358616
15	0x3f810180	1.0078583

bn1.bias f4 [16]
0	0x3bc88b11	0.0061200936
1	0x3c9e70ab	0.019340834
2	0xbc6a32cf	-0.01429434
3	0x3ceb741d	0.02874189
4	0xbc79596b	-0.015219073
5	0xbbd2651f	-0.006420746
6	0xbcf65d1b	-0.030073693
7	0xbce99bb1	-0.028516622
8	0xbc0a7eeb	-0.008453111
9	0xb944963d	-0.00018747985
10	0xbbe7eb86	-0.007077637
11	0xbcb11590	-0.021616727
12	0xbd494eb7	-0.049147334
13	0xbc30ab09	-0.010782965
14	0xbcbfbe27	-0.023406101
15	0xbbb36e85	-0.0054758214

bn1.running_mean f4 [16]
0	0x3b50a622	0.0031837304
1	0xbce75f26	-0.028243612
2	0xbebdcafe	-0.37068933
3	0x3e33d1ca	0.17560497
4	0x3e0079ab	0.12546413
5	0xbd91e85e	-0.07124399
6	0xbe11c4c8	-0.14235222
7	0xbe835349	-0.2564948
8	0xbc2370de	-0.00997564
9	0x3c9e60b5	0.019333223
10	0x3d75f7b5	0.060050685
11	0xbeb1daa1	-0.34737113
12	0xbedc7c53	-0.43063602
13	0x3e323146	0.17401609
14	0x3c563b0a	0.013075599
15	0xbe95bf5c	-0.29247558

bn1.running_var f4 [16]
0	0x3cf02fdc	0.029319696
1	0x3d577db3	0.05261011
2	0x3d13d83f	0.0360949
3	0x3ccb5872	0.024822447
4	0x3cdce55d	0.026964838
5	0x3d0481bd	0.03235029
6	0x3cc8ca27	0.024510456
7	0x3c81851d	0.015810544
8	0x3d0b9462	0.034077056
9	0x3c8b16a0	0.016978562
10	0x3cf213c3	0.029550439
11	0x3d3e2fee	0.046432428
12	0x3d80c8a8	0.06288272
13	0x3d4baae3	0.049723517
14	0x3c61a956	0.013773283
15	0x3d290634	0.04126568

conv2.weight f4 [32, 16, 3, 3]
0	0xbd081d07	-0.033230808
1	0xbd94305f	-0.072357886
2	0x3d792fa7	0.06083646
3	0xbc91ae12	-0.017783199
4	0x3d9ddc3e	0.077080235
5	0x3a0c6bf7	0.0005356664
6	0xbd6deb57	-0.058085766
7	0x3d41fe24	0.047361508
8	0xbd406f7b	-0.046981316
9	0x3d220e83	0.03956462
10	0xbd697a2c	-0.057001278
11	0x3c28dddb	0.010306801
12	0xbb401d5c	-0.0029314375
13	0x3d158318	0.036501974
14	0xbd2a271a	-0.041541196
15	0xbd86238b	-0.06549748
16	0x3cda1cf9	0.026625143
17	0x3d3adb62	0.045619376
18	0xbd0c5bdf	-0.034267303
19	0xbb3681a9	-0.002784828
20	0xbd010da8	-0.031507164
21	0xbd920c69	-0.07131273
22	0xbd4ec3c7	-0.050479677
23	0xbd98fab5	-0.074696936
24	0x3b671b01	0.0035263898
25	0x3d46bd31	0.04852027
26	0x3d520f4a	0.051284112
27	0x3d8aacc8	0.06771237
28	0xbddf0b24	-0.10890797
29	0xbd62f917	-0.05541333
30	0x3d97b93f	0.0740838
31	0x3d74c4c6	0.05975797
32	0xbdc078d9	-0.0939805
33	0x3dd593ea	0.10428603
34	0x3dc610c0	0.096711636
35	0xbc340753	-0.010988074
36	0x3d27e155	0.040986378
37	0xbd13f2c8	-0.036120206
38	0xbd2f18cc	-0.042748258
39	0xbcd7b9a5	-0.02633364
40	0xbdc2e6c9	-0.09516675
41	0x3c986990	0.018605024
42	0x3c2b9cd1	0.0104744
43	0x3d384b55	0.044993717
44	0xbd21c94c	-0.039498612
45	0xbca979b9	-0.020687925
46	0x3d415414	0.047199324
47	0x3d71eaa1	0.05906165
48	0x3d98abcf	0.07454645
49	0xbc1401d3	-0.009033638
50	0x3dccf823	0.10008266
51	0x3da96df1	0.08272923
52	0xbd8d5656	-0.06901233
53	0x3da3efa7	0.080046944
54	0x3d59c309	0.053164516
55	0xbd1e5d09	-0.038662944
56	0x3bbcefc0	0.005765885
57	0xbd869272	-0.06570901
58	0xbd306482	-0.0430646
59	0xbba42489	-0.005009238
60	0xbcb7dbf4	-0.022443749
61	0x3d0f0d63	0.034924876
62	0x3d1a2f2d	0.037642647
63	0x3d99154b	0.074747644
64	0x3da03474	0.07822505
65	0x3d62bb55	0.055354435
66	0xbd5d9430	-0.0540964
67	0x3cbdef8c	0.023185514
68	0xbc8a5eb4	-0.016890861
69	0x3b065598	0.0020497795
70	0x3d76b914	0.060235098
71	0xbd4dcfa1	-0.05024684
72	0x3d55a3eb	0.052158277
73	0xba6f6e7f	-0.00091335917
74	0x3d576b87	0.05259278
75	0xbcb008c2	-0.021488551
76	0xbc0e03e2	-0.008667918
77	0xbd45ef0b	-0.048323672
78	0xbbded670	-0.0068004653
79	0x3d85d5c0	0.0653491
80	0x3ceba8af	0.028766958
81	0x3d601ff0	0.054717958
82	0xba3aefe6	-0.00071310846
83	0x3d56b371	0.052417222
84	0x3adca29b	0.0016833128
85	0xbd8eaacd	-0.069661714
86	0xbc1b5b0d	-0.009482157
87	0x3da30d04	0.07961467
88	0xbd8d097c	-0.068865746
89	0xbcfdd27d	-0.030984158
90	0x3c76ab30	0.015055463
91	0x3d0c106c	0.03419535
92	0x3d9e6b24	0.07735279
93	0x3d945c16	0.072441265
94	0x3d59df9f	0.053191777
95	0x3d7bdd59	0.06149039
96	0x3d8146dd	0.06312344
97	0x3d68f797	0.056876745
98	0x3ca4c4a4	0.020113297
99	0xbcdb4261	-0.02676505
100	0x3de2f7f1	0.11082447
101	0x3dd2ad04	0.10286906
102	0x3c529142	0.012852015
103	0x3cacf075	0.021110753
104	0x3c471f26	0.012153422
105	0xbd05ff87	-0.032714393
106	0x3c40dbf6	0.011771193
107	0x3dab9735	0.0837845
108	0xbce28a82	-0.027653936
109	0xbd251def	-0.04031175
110	0xbc8fdb64	-0.017560668
111	0xbcc7b793	-0.024379527
112	0x3db20469	0.086922474
113	0x3d722a60	0.059122443
114	0x3d9e530f	0.07730686
115	0xbdaa5984	-0.08317855
116	0x3d116b32	0.03550262
117	0xbc76f5d1	-0.015073256
118	0x3d030140	0.031983614
119	0xbcbd4298	-0.023103043
120	0x3b9c4b8d	0.0047697485
121	0x3cc09cfd	0.023512358
122	0xbc41795a	-0.011808718
123	0xbd33c693	-0.043890547
124	0xba95350a	-0.0011383605
125	0xbd148887	-0.036263015
126	0xbc2d54fd	-0.010579345
127	0xbc41e431	-0.01183419
128	0xbcdc32ae	-0.026879635
129	0x3d786ed7	0.06065258
130	0xbccdaef6	-0.025107842
131	0x3aae0870	0.0013277661
132	0xbd8fae8a	-0.070157126
133	0x3d8740f7	0.06604188
134	0xbcb04f18	-0.02152209
135	0x3d9294bf	0.07157277
136	0xbcc3b6d6	-0.023890894
137	0xbd3ce493	-0.046116423
138	0xbd62e90a	-0.055398025
139	0x3d8aac9c	0.06771204
140	0xbd1c907e	-0.038223736
141	0xbd7b088b	-0.061287444
142	0xbdbec871	-0.09315575
143	0xbd253f25	-0.040343422
144	0xbd6f9307	-0.058489826
145	0x3d1d3f50	0.038390458
146	0x3d3e136d	0.046405245
147	0x3d47b9f9	0.04876134
148	0xbcd65f94	-0.026168622
149	0x3d2ee877	0.042702165
150	0xbcae3a09	-0.021267908
151	0x3d2f6cbc	0.042828307
152	0x3da02629	0.078197785
153	0xbc28f846	-0.010313099
154	0xbd7d49ab	-0.061837833
155	0x3d4b8740	0.04968953
156	0x3c070da7	0.008243001
157	0x3dd41ab9	0.103566594
158	0x3d5194d2	0.051167317
159	0xbcbdc595	-0.023165504
160	0xbd096c18	-0.03355035
161	0xbdce75d5	-0.100810684
162	0xbd7c36c6	-0.061575674
163	0x3cb24134	0.021759607
164	0xbc1134e7	-0.008862711
165	0xbd12ba2a	-0.03582207
166	0xbc80292e	-0.015644636
167	0xbd7168bc	-0.058937773
168	0x3d607c5b	0.054806095
169	0xbd2246dc	-0.039618358
170	0x3cbb8630	0.022891134
171	0x3bec7694	0.007216284
172	0x3dae6f14	0.0851728
173	0xbd54f6b1	-0.051993076
174	0x3d289c83	0.041164886
175	0x3d090567	0.033452418
176	0xbc203ca0	-0.009780079
177	0xbd30f96f	-0.04320663
178	0x3d83b09b	0.06430169
179	0xbc4c78b6	-0.012479952
180	0x3d87f613	0.06638732
181	0xbdb5bc4b	-0.08873805
182	0xbd90d4bd	-0.070718266
183	0xbc11f484	-0.008908395
184	0x3ad81556	0.0016485851
185	0x3d103c39	0.035213683
186	0xbdb0cc75	-0.08632747
187	0xbc6cf2ff	-0.014462232
188	0xbcde6ff5	-0.027152995
189	0x3cb0add9	0.021567272
190	0xbd671b84	-0.056422725
191	0x3d1cc7bd	0.038276423
192	0x3c859033	0.016304111
193	0xbce90b12	-0.028447662
194	0x3dc2c39b	0.09509965
195	0xbd47e631	-0.048803512
196	0xbd457b16	-0.048213087
197	0x3c4985a8	0.012299933
198	0x3cded51f	0.027201233
199	0x3d03cae3	0.03217591
200	0xbd21c457	-0.039493885
201	0x3bdaf5d1	0.0066821356
202	0xbd0e3d89	-0.034726653
203	0xbc224a25	-0.009905373
204	0xbc525e47	-0.01283986
205	0xbb8c20b4	-0.0042763595
206	0xbb8c8ca5	-0.004289227
207	0xbdb4cb14	-0.088277966
208	0xbda84586	-0.082163855
209	0x3d928365	0.07153968
210	0xbc1427ba	-0.009042675
211	0x3dfc39dc	0.12315723
212	0xbca35fd6	-0.01994316
213	0xbd07cae1	-0.033152465
214	0x3cf5e0e5	0.030014465
215	0x3d2b4ecd	0.041823197
216	0xbcaefebd	-0.021361703
217	0xbc956896	-0.018238347
218	0x3c9b9993	0.018994128
219	0x3c44dfef	0.012016281
220	0x3de86a60	0.113484144
221	0xbc8a5d4c	-0.01689019
222	0x3c4fc2c4	0.012680713
223	0x3d778ca5	0.060436863
224	0xbb450b88	-0.0030066688
225	0xbdd2cf6d	-0.102934696
226	0xbbc2a024	-0.0059395004
227	0xbd8d2cc3	-0.06893303
228	0xbd00b738	-0.03142473
229	0x3c0e3dac	0.008681696
230	0x3b5188d2	0.003197242
231	0x3c2580f2	0.010101544
232	0x3b563c6d	0.0032689825
233	0xba788b3b	-0.0009481196
234	0xbd54b57f	-0.0519309
235	0x3d419014	0.047256544
236	0xbdb0e6d8	-0.0863778
237	0xbd66bacd	-0.05633049
238	0xbcfcbd61	-0.030852022
239	0x3d2e16cb	0.042502206
240	0x3d171ad2	0.036890812
241	0xbc9b8ab3	-0.018987035
242	0x3b86e676	0.0041168286
243	0xbc05c03c	-0.008163508
244	0xbd2a285e	-0.041542403
245	0x3da4652b	0.08027109
246	0xbcb0627e	-0.02153134
247	0xbbc21786	-0.0059232144
248	0xbc278fa4	-0.010227118
249	0x3d5e9ab0	0.05434674
250	0xbdaad73c	-0.08341834
251	0xbdbc07e3	-0.09181192
252	0x3b6b55f1	0.003590938
253	0xbcf484f2	-0.02984855
254	0xbc5a883f	-0.013338148
255	0xbd4a9758	-0.04946074

conv2.bias f4 [32]
0	0xb7301e1c	-1.0497428e-05
1	0x3797886a	1.8064125e-05
2	0xb71fc9f1	-9.524157e-06
3	0xb5d1bc1f	-1.5626464e-06
4	0x38e08d9e	0.000107075306
5	0x39194908	0.00014618423
6	0x3795ba91	1.784906e-05
7	0x36ffb002	7.620082e-06
8	0xb6d85d65	-6.448174e-06
9	0x35bfacdf	1.4280921e-06
10	0x3753aebe	1.2617265e-05
11	0xb7a6268d	-1.9806694e-05
12	0xb602e4bd	-1.9504653e-06
13	0x36dad28e	6.521418e-06
14	0x379d1e9f	1.8730118e-05
15	0x364f2597	3.0867284e-06
16	0xb8864a92	-6.403508e-05
17	0xb6ef96fe	-7.140333e-06
18	0x3772aad2	1.4464096e-05
19	0xb7c99ddb	-2.4034574e-05
20	0x3682cfa9	3.8984767e-06
21	0xb75b7180	-1.30798435e-05
22	0xb788bd28	-1.6300546e-05
23	0x37a55fa7	1.9714074e-05
24	0xb7697bad	-1.3916678e-05
25	0xb69f6d2c	-4.7512785e-06
26	0x36a5629c	4.928863e-06
27	0xb6ea3996	-6.9804473e-06
28	0x36f2c71f	7.2353428e-06
29	0x37d0843b	2.4857107e-05
30	0xb6b44741	-5.372713e-06
31	0xb6844cc0	-3.9428414e-06

bn2.weight f4 [32]
0	0x3f8e7487	1.1129311
1	0x3f9488cd	1.1604248
2	0x3f94bd28	1.1620226
3	0x3f8d3bee	1.1033914
4	0x3f8cb65b	1.099315
5	0x3f8c61d0	1.096735
6	0x3f918d27	1.1371201
7	0x3f8e5fd1	1.1122991
8	0x3f8e466f	1.1115245
9	0x3f8f03ed	1.1173073
10	0x3f8f108b	1.1176924
11	0x3f956347	1.1670922
12	0x3f8a5a76	1.0808856
13	0x3f9064a5	1.1280714
14	0x3f89fbfa	1.0780022
15	0x3f9330fa	1.1499321
16	0x3f948938	1.1604376
17	0x3f8f4193	1.1191887
18	0x3f88993e	1.0671766
19	0x3f8f8af6	1.1214283
20	0x3f8e22e7	1.1104401
21	0x3f8b6475	1.0890032
22	0x3f915a27	1.1355637
23	0x3f89057d	1.07048
24	0x3f8a7b28	1.0818834
25	0x3f8adb3a	1.0848153
26	0x3f8b29a8	1.0872087
27	0x3f8ed669	1.1159183
28	0x3f90cafc	1.1311946
29	0x3f919293	1.1372856
30	0x3f896171	1.0732862
31	0x3f8ed52a	1.1158803

bn2.bias f4 [32]
0	0x3d156331	0.03647155
1	0x3d366c0c	0.044536635
2	0x3d8fee41	0.07027865
3	0x3d47f140	0.04881406
4	0x3d44419f	0.047914144
5	0x3d12e764	0.035865203
6	0x3d9358d9	0.07194681
7	0x3d21c766	0.0394968
8	0x3cbcf257	0.023064775
9	0x3c81ebcc	0.015859507
10	0x3d60f35b	0.05491958
11	0x3d38ecac	0.045147583
12	0x3ca0f8a6	0.019649815
13	0x3d292e3b	0.041303854
14	0x3c9911fa	0.01868533
15	0x3d49962b	0.049215477
16	0x3d21fc43	0.039547216
17	0x3d1a460c	0.03766446
18	0x3c49bb71	0.012312756
19	0x3d979622	0.074016824
20	0x3d624ba3	0.055247914
21	0x3d151ba1	0.036403302
22	0x3d9716ed	0.073774196
23	0x3c830897	0.015995307
24	0x3ce371a5	0.02776415
25	0x3d69d914	0.057091787
26	0x3cf1e1d8	0.029526636
27	0x3d7d6275	0.061861474
28	0x3d3f22f6	0.0466642
29	0x3d80ad3b	0.06283041
30	0x3cc15c30	0.023603529
31	0x3d67205e	0.056427352

bn2.running_mean f4 [32]
0	0x3e7fb323	0.24970679
1	0x3dad3876	0.08458035
2	0xbd544335	-0.051821906
3	0xbe859c27	-0.26095697
4	0xbe32ac8a	-0.17448631
5	0x3c11f14c	0.008907627
6	0xbde6e173	-0.1127347
7	0x3c1b4b90	0.009478465
8	0xbe0ffed3	-0.14062051
9	0xbe3bf773	-0.18356113
10	0xbe8c994a	-0.274607
11	0x3cdfd4f8	0.027323231
12	0x3e3608a0	0.17776728
13	0xbe312d9e	-0.17302558
14	0xbd117d47	-0.035519864
15	0xbd52ae8b	-0.05143599
16	0x3d761272	0.060076185
17	0x3ce8d4c1	0.028421761
18	0x3eee4689	0.4653819
19	0x3df24c29	0.11830933
20	0x3dcdb540	0.10044336
21	0x3d23d983	0.040002357
22	0x3d8fb5aa	0.070170715
23	0x3e13fe11	0.14452387
24	0x3e92e5ef	0.2869105
25	0xbcf91876	-0.030407172
26	0x3e5ff88a	0.21872154
27	0xbea75688	-0.32683206
28	0x3e48d364	0.19611889
29	0xbe3e519f	-0.18585823
30	0x3e43c9ea	0.19119993
31	0x3e3ef1e1	0.18646957

bn2.running_var f4 [32]
0	0x3e166518	0.14687002
1	0x3da2b1af	0.07944047
2	0x3db5aac0	0.088704586
3	0x3d66628d	0.05624633
4	0x3d677951	0.05651218
5	0x3da728d5	0.08162085
6	0x3da254a6	0.07926302
7	0x3db46838	0.08808941
8	0x3d83bcf4	0.06432524
9	0x3dc2e85c	0.09516975
10	0x3d834b12	0.06410803
11	0x3d9ed0bb	0.07754656
12	0x3dd42987	0.10359483
13	0x3daf3aa9	0.085561104
14	0x3d4f1bf5	0.05056377
15	0x3dd922c6	0.10602336
16	0x3e09663c	0.13417906
17	0x3d60334b	0.054736417
18	0x3e03f123	0.12884955
19	0x3dc93b83	0.09825804
20	0x3daba5bc	0.08381221
21	0x3db606e1	0.08888031
22	0x3e2fcdff	0.17168425
23	0x3de36a32	0.111042395
24	0x3d7f7ef7	0.062376942
25	0x3d9a3f50	0.07531607
26	0x3de143a7	0.10999232
27	0x3db841d0	0.08996928
28	0x3d9a8816	0.075454876
29	0x3d82538e	0.06363593
30	0x3dd04b08	0.10170561
31	0x3daa05ad	0.08301864

fc1.weight f4 [128, 800]
0	0x3d4c25ee	0.04984086
1	0x3b311bf6	0.0027024723
2	0xbd951290	-0.07278931
3	0xbb4bd05e	-0.0031099538
4	0xbd1d75b7	-0.03844234
5	0x3da35b77	0.0797643
6	0x3d2068b4	0.039162353
7	0x3ccfabe2	0.025350515
8	0xbcd37cd3	-0.025816357
9	0x3c044564	0.008073185
10	0xbd299010	-0.041397154
11	0xbd3c62e3	-0.045992743
12	0xbd782a0d	-0.060586978
13	0xbd45f1bc	-0.04832624
14	0x3ad80a20	0.001648251
15	0xbc1ce72c	-0.0095766
16	0xbd5151df	-0.05110347
17	0x3c5458cb	0.012960623
18	0xbb250321	-0.0025178867
19	0x3a914706	0.0011083789
20	0x3cb91b1f	0.02259594
21	0x3d5c0c36	0.053722583
22	0x3d82df58	0.06390256
23	0x3d43bcbc	0.047787413
24	0xbb94a985	-0.00453681
25	0x3bc4761f	0.0059955264
26	0xbc07010f	-0.0082399985
27	0x3ba65718	0.0050763004
28	0x3d54e9da	0.05198083
29	0xbcb8232c	-0.022477709
30	0x3cc9cf24	0.024634905
31	0xbd99c281	-0.07507802
32	0xbca7e21a	-0.020493556
33	0xbd852471	-0.06501091
34	0xbc655cf5	-0.013999213
35	0x3c98639d	0.018602187
36	0x3cfe2298	0.031022355
37	0x3d3ebf53	0.04656918
38	0xbd42e0c0	-0.04757762
39	0x3d89ffff	0.067382805
40	0x3d1090b9	0.03529427
41	0x3ceefdc6	0.029173743
42	0xbc6db15b	-0.014507617
43	0x3caeafa8	0.021323994
44	0x3cfecb40	0.031102777
45	0xbc8fe4ae	-0.017565098
46	0x3ca787d0	0.020450503
47	0xbc8fe80d	-0.017566705
48	0x3d2b1272	0.041765638
49	0x3c86339f	0.016382037
50	0x3c42ff9d	0.011901763
51	0x3b5d77d0	0.0033793338
52	0xbc1e7c44	-0.009673182
53	0x3cb651f4	0.022255875
54	0xbd8ebdbc	-0.06969783
55	0xbafa1bc2	-0.0019081759
56	0xbd4dedf5	-0.05027576
57	0xbd4894f8	-0.048970193
58	0x3afef865	0.001945269
59	0xbc8f5f36	-0.017501455
60	0xbd04fb05	-0.032465953
61	0xbcf9beb6	-0.030486446
62	0xbd39d269	-0.04536668
63	0xbd8174b4	-0.063210875
64	0xbc06cc0e	-0.008227361
65	0xbd89a7fa	-0.06721492
66	0xbd8fd1dc	-0.070224494
67	0x3d261d58	0.040555328
68	0x3d88fb0a	0.06688507
69	0x3d4cca4d	0.049997617
70	0x3d94e520	0.072702646
71	0x3d97750a	0.0739537
72	0xbcbdceda	-0.023169924
73	0x3bf99c5f	0.007617518
74	0x3cfc440d	0.030794168
75	0xbc143f71	-0.009048329
76	0x3d56e492	0.052464075
77	0xbc95ec63	-0.018301195
78	0x3c907632	0.017634485
79	0xbac81bf1	-0.0015267116
80	0x3cdc63bc	0.026903026
81	0x3d2bfdde	0.041990153
82	0xbd436a54	-0.047708824
83	0x3b606a1a	0.003424293
84	0x3c3f99c0	0.011694372
85	0x3bddfebe	0.0067747524
86	0x3c9c2fa9	0.019065695
87	0x3d120141	0.035645727
88	0xbc03ca57	-0.008043847
89	0xbd34c7a1	-0.044135693
90	0x3c38b4e2	0.011273595
91	0xbc3488ba	-0.011018926
92	0xbc2aa36d	-0.01041494
93	0x3c912f58	0.01772277
94	0x3d24c06b	0.040222567
95	0x3cf271f9	0.029595362
96	0xbcc57d08	-0.024107471
97	0xbd0dcf85	-0.034621734
98	0x3b4d8335	0.0031358723
99	0xbce5c3d4	-0.02804748
100	0xbc03c24d	-0.00804193
101	0xbc2872be	-0.010281263
102	0x3ba02b33	0.0048879622
103	0xbc94385f	-0.018093286
104	0xbbad1417	-0.005281936
105	0xbdaa5b36	-0.08318178
106	0x3d1a7efe	0.037718765
107	0x3d8b4c8b	0.06801709
108	0xbcaded4e	-0.02123132
109	0x3bf83806	0.007575038
110	0x3d7f8cf6	0.06239029
111	0x3d1d2aa7	0.038370755
112	0x3d695349	0.056964193
113	0x3d72595a	0.059167244
114	0xbd511b7b	-0.051051598
115	0xbbb04ecd	-0.0053804875
116	0x3c233c41	0.009963096
117	0x39c692db	0.0003787492
118	0x3d1c7165	0.03819408
119	0xbbffe97f	-0.0078098173
120	0x3cce6efa	0.025199402
121	0x3c948aee	0.018132653
122	0x3d3d00af	0.04614323
123	0xbc2c5813	-0.010519045
124	0x3d1319d0	0.03591329
125	0x3c8b7589	0.017023819
126	0xbc5407fb	-0.012941356
127	0xbc3a18a8	-0.011358418
128	0xbcb05fcf	-0.02153006
129	0xbd614d89	-0.055005584
130	0x3d910926	0.07081823
131	0x3d8e9913	0.0696279
132	0xbd7339f8	-0.059381455
133	0x3d58b9cc	0.052911565
134	0xbcdb5a38	-0.026776418
135	0xbc9e86c3	-0.019351369
136	0xbd05fa1c	-0.032709226
137	0x3c3646ea	0.011125306
138	0xbc40f753	-0.011777717
139	0xbcb326b8	-0.021869048
140	0xbd058ecd	-0.03260689
141	0xbc8f6fe7	-0.017509414
142	0x3c1b96d5	0.00949641
143	0x3d0dd597	0.034627523
144	0xbd36a782	-0.04459334
145	0x3d013f4b	0.0315545
146	0xbc1c8879	-0.009554022
147	0xbd93b6ac	-0.07212576
148	0x3ce700c2	0.028198604
149	0x3cdae70d	0.026721502
150	0xbb56462b	-0.0032695632
151	0xbb098a22	-0.0020986875
152	0xbcc2bfc0	-0.023773074
153	0xbc7acd50	-0.015307739
154	0x3cc87b83	0.024472957
155	0xbd307b8c	-0.043086573
156	0x3cd1019e	0.025513466
157	0xbc3e5c29	-0.011618652
158	0x3c50cd59	0.012744271
159	0xbbf2301a	-0.007390988
160	0x3cc4af77	0.02400945
161	0xbba657d8	-0.0050763898
162	0x3d2cdaef	0.04220098
163	0x3cc046e2	0.0234713
164	0x3c9a935e	0.018869098
165	0xbc43c4ec	-0.011948805
166	0x3aba273a	0.0014202364
167	0xbb8e545a	-0.0043435516
168	0x3c460d40	0.01208812
169	0xbbf8a33d	-0.007587819
170	0x3cf90071	0.030395718
171	0xbca84ac7	-0.02054347
172	0x3b7b6506	0.0038359775
173	0xbba5f0c0	-0.0050641
174	0x3d36984e	0.044578843
175	0x3cf1d779	0.02952169
176	0x3d5e7970	0.05431503
177	0x3d2482ac	0.04016368
178	0xbb824b84	-0.0039762873
179	0x3c9a7e5d	0.018859083
180	0x3d07b206	0.03312876
181	0xbcbc9182	-0.023018602
182	0xbd0e780b	-0.03478245
183	0xbcbca053	-0.023025667
184	0x3c058304	0.008148912
185	0x3d69e4fa	0.057103135
186	0x3c2d25ef	0.010568126
187	0x3d4fa3e7	0.05069342
188	0x3b82aa71	0.0039876034
189	0x3cf1bff5	0.029510478
190	0xbc029fd5	-0.007972677
191	0x3c936796	0.01799373
192	0xbd175a4b	-0.036951344
193	0x3d2cbb88	0.04217103
194	0x3c0cf543	0.008603397
195	0xbce5fd6d	-0.028074944
196	0xbd06fc49	-0.03295544
197	0x3d18af63	0.037276637
198	0xbc994b56	-0.01871268
199	0xbb80e7ed	-0.0039338977
200	0x3d440f38	0.047866076
201	0x3cc3f30e	0.023919608
202	0xbd984498	-0.07434958
203	0xbca09913	-0.019604241
204	0xbc1b1223	-0.009464773
205	0xbcf17ac2	-0.02947748
206	0x3d315d5c	0.043301925
207	0xbd29aa73	-0.04142232
208	0x3c12e41a	0.008965516
209	0xbccb0a1b	-0.024785092
210	0x3cecc423	0.028902119
211	0xbd626527	-0.055272248
212	0x3cf3c3cf	0.029756455
213	0x3c476107	0.012169129
214	0x3b5d83e0	0.0033800527
215	0x3c7cdc20	0.015433341
216	0xbbaae2df	-0.0052150334
217	0x3c622a07	0.013803965
218	0xbc3046fc	-0.0107591115
219	0x3cc650a3	0.024208372
220	0xbcff0a3c	-0.03113281
221	0xbcb80310	-0.022462398
222	0xbd0b0428	-0.03393951
223	0xbc6f93f7	-0.01462268
224	0xbc873fce	-0.016509917
225	0x3d9d0dd2	0.07668652
226	0xbcb9b287	-0.022668136
227	0xbb002fa0	-0.0019559637
228	0xbc00dcff	-0.00786519
229	0x3bc75010	0.0060825422
230	0x3b87e3b7	0.004147019
231	0xb8ae324b	-8.306334e-05
232	0xbcc83de8	-0.024443582
233	0xbc2e364e	-0.010633064
234	0x3ca04400	0.019563675
235	0xbb422b62	-0.002962791
236	0x3ce51a46	0.02796663
237	0xbd26378c	-0.040580317
238	0xba5a4c50	-0.00083274115
239	0xbc993e21	-0.018706383
240	0x3cf6b307	0.030114664
241	0x3b8f05e3	0.0043647154
242	0x3d0be491	0.034153525
243	0xbc3330b7	-0.0109369075
244	0xbcf21e04	-0.029555328
245	0x3b981114	0.0046407077
246	0x3cf75ce3	0.030195659
247	0x3ca345b7	0.019930704
248	0x3bf16ad7	0.0073674726
249	0x3c63c54f	0.0139020225
250	0x3c045f58	0.008079372
251	0xbd5b966f	-0.05361026
252	0x3d44b045	0.048019666
253	0x3ce0bd26	0.027433943
254	0xbc68b784	-0.01420391
255	0xbcddb654	-0.02706448

fc1.bias f4 [128]
0	0xbc7c95a9	-0.015416541
1	0xbcde7da6	-0.027159523
2	0xbcf2a92c	-0.029621683
3	0x3bc632b3	0.0060485243
4	0x3c78da69	0.015188792
5	0xb9e099a6	-0.00042839086
6	0x3cca1c0d	0.024671579
7	0x3ba3cf6e	0.004999093
8	0xbc18ca39	-0.009325557
9	0xbca45a83	-0.02006269
10	0xbd00d5f3	-0.031454038
11	0xbd062989	-0.032754455
12	0x3c70acee	0.014689667
13	0x3ca9e2bc	0.020737998
14	0xbca026a9	-0.019549685
15	0x3b1ae40b	0.002363446
16	0xbc81f3b1	-0.015863271
17	0xbcf9ad1c	-0.030478053
18	0x3b81af56	0.0039576693
19	0x3ccc5b51	0.024945887
20	0x3ccdf223	0.025139874
21	0x3c169f99	0.0091933245
22	0x3ce529e3	0.027974075
23	0xbb9f7e14	-0.0048673246
24	0x3cd8536d	0.026406968
25	0xbb66716b	-0.0035162817
26	0x3cf54a0e	0.029942539
27	0xbcba7380	-0.022760153
28	0xbcd5a00a	-0.02607729
29	0x3b358d4d	0.002770263
30	0xbce1a1dc	-0.027543
31	0x3cce7eeb	0.025207004
32	0x3cb76eae	0.022391643
33	0xbccdff78	-0.025146231
34	0x3c8a6bd8	0.016897127
35	0x3ce660e4	0.028122373
36	0x3d04c214	0.03241165
37	0xbce29955	-0.027661005
38	0xbd11adc4	-0.035566106
39	0xbcf04256	-0.029328506
40	0xbc7738fe	-0.015089272
41	0x3d06f118	0.03294477
42	0x3c3c145b	0.0114794625
43	0xbc898995	-0.016789237
44	0xbca921af	-0.020645944
45	0xbb6115d6	-0.003434529
46	0xbccb22cf	-0.024796871
47	0xbd0d8bfc	-0.034557328
48	0x3c9b3755	0.018947283
49	0x3ccc35a4	0.024927922
50	0xbb854c86	-0.00406796
51	0xbc246cac	-0.010035675
52	0x3cc48937	0.02399121
53	0xbceb84b3	-0.0287498
54	0xbc3008a0	-0.010744244
55	0xbc9d7c3e	-0.019224282
56	0xbc127d91	-0.00894107
57	0x3d0998a0	0.03359282
58	0xbcbdd433	-0.023172474
59	0xb94ea0fe	-0.00019705665
60	0xba283831	-0.00064170646
61	0xbd0fd398	-0.0351139
62	0xbc52f7dd	-0.012876478
63	0xbc437a0a	-0.011930952
64	0x3b74f501	0.003737748
65	0xbcc61a73	-0.024182534
66	0x3c7d1bba	0.015448505
67	0x3c9caf1d	0.01912647
68	0x3c99e4f7	0.018785937
69	0xbcbb2b56	-0.022847813
70	0xbc4d645d	-0.0125361355
71	0x3d081cc4	0.033230558
72	0x3be4ef60	0.0069865435
73	0x3c45e4bc	0.01207846
74	0xbbed0558	-0.007233303
75	0x3c70981d	0.014684704
76	0x3d02a1a0	0.03189242
77	0xbc3dddeb	-0.011588554
78	0x3c8f093e	0.017460462
79	0xbcbbd2b6	-0.022927623
80	0xbd147af7	-0.03625008
81	0x3b542687	0.0032371597
82	0x3c7e49b9	0.015520507
83	0xbc41832a	-0.011811057
84	0xbca26039	-0.019821273
85	0x3b47bf2f	0.0030478945
86	0x3cfb9378	0.030709967
87	0x3cdc4860	0.02688998
88	0xbbf7e3a3	-0.007564978
89	0xbc301239	-0.010746532
90	0x3c93756c	0.018000327
91	0x3c822454	0.015886463
92	0x3bc9e2f5	0.0061610886
93	0xbc714e34	-0.014728118
94	0xbca8339b	-0.02053242
95	0xbccd2077	-0.025039895
96	0x3cf4d610	0.02988723
97	0xbc9a7a21	-0.018857064
98	0x3ca17d1b	0.019712975
99	0xbbb8d8ce	-0.0056410795
100	0x3cdcc86f	0.026951043
101	0x3c82ccc4	0.01596678
102	0x3c509a2f	0.012732073
103	0xbd058127	-0.032593872
104	0x3b36cd49	0.0027893356
105	0xb96f00d5	-0.00022793126
106	0xbce6c3fb	-0.028169623
107	0x3cc1723e	0.023614045
108	0x3cead28a	0.028664846
109	0x3c0cdb8d	0.008597267
110	0x3c85f90c	0.016354106
111	0x3ca153a6	0.019693207
112	0xbc812b0d	-0.015767599
113	0xbcae0689	-0.02124335
114	0xbbecb1dc	-0.007223351
115	0x3c682c30	0.014170691
116	0xbbf30b0d	-0.007417089
117	0xbcb31775	-0.021861771
118	0xbc204cfe	-0.009783981
119	0xbc65940e	-0.01401235
120	0xbc5ad7c9	-0.013357111
121	0xbca1b5cc	-0.019740008
122	0x3cb9f0d2	0.02269784
123	0x3c46e342	0.012139143
124	0x3cfe39df	0.031033454
125	0x3d03411f	0.032044526
126	0x3c5fb361	0.013653607
127	0xbca1854d	-0.019716883

fc_p.weight f4 [26, 128]
0	0x3db6dade	0.08928464
1	0xbe19c4ab	-0.15016429
2	0x3dee2d50	0.116297364
3	0x3bda7512	0.006666788
4	0x3dc45ed3	0.09588399
5	0x3d07fb6a	0.03319875
6	0x3da9ca6c	0.08290562
7	0x3c4834a6	0.012219584
8	0x3d6cd855	0.057823498
9	0xb30b847d	-3.2483957e-08
10	0xbe079024	-0.13238579
11	0x3d350ed6	0.0442036
12	0xbd0a34d8	-0.033741802
13	0x3d93669e	0.07197307
14	0x3d8d5512	0.069009915
15	0xbd12b133	-0.03581352
16	0xbd2e95f3	-0.04262347
17	0xbd6aa0ef	-0.057282384
18	0x3d30ccff	0.04316425
19	0xbe3aa8be	-0.18228433
20	0x3bbe54c4	0.0058084447
21	0x3df3cc50	0.11904204
22	0xbe21f9a5	-0.15817888
23	0xbc4046ab	-0.011735599
24	0x3d202e5d	0.039106715
25	0x3d8c9406	0.06864171
26	0xbe4ce428	-0.2000891
27	0xbdfab5b7	-0.122416906
28	0x3d9566dd	0.0729501
29	0x3c8cdcf7	0.017195208
30	0x3d88a177	0.06671422
31	0xbb75cbbf	-0.0037505475
32	0x3dd19615	0.10233704
33	0x3d97985c	0.07402107
34	0x3db3968e	0.087689504
35	0xbb3cadef	-0.0028790196
36	0x3dee37e9	0.11631758
37	0xbd15a012	-0.036529608
38	0xbd95d4b4	-0.073159605
39	0x3d2f90d9	0.042862747
40	0xbcb372e3	-0.021905368
41	0xba37f476	-0.00070173235
42	0xbe2e7315	-0.17036088
43	0x371b18b7	9.244474e-06
44	0x3ca1f580	0.019770384
45	0xbe2456ed	-0.16048785
46	0xbdfa4637	-0.12220424
47	0xbd333fb7	-0.043761935
48	0x3d3ea097	0.04653987
49	0x3dffbfa9	0.12487728
50	0xbcd20e1a	-0.02564149
51	0xbc1ad2d3	-0.0094496785
52	0xbe2fbd97	-0.17162167
53	0xbe6f4d6d	-0.2336938
54	0x3b63064e	0.003464121
55	0x3d895eae	0.06707512
56	0xbd484b81	-0.04890013
57	0x3d6ec9da	0.05829797
58	0x3ba7274f	0.0051011215
59	0xbe213212	-0.15741757
60	0x3d2b8f05	0.04188444
61	0x3c2fa3a4	0.010720167
62	0xbbd2dd00	-0.0064350367
63	0x3d9a0d7d	0.07522104
64	0x3d0784af	0.03308552
65	0x3d312abb	0.04325364
66	0x3bd094a9	0.006365378
67	0xb8f20057	-0.000115395225
68	0xbdcc916d	-0.09988675
69	0xbd7072db	-0.058703285
70	0x3cc866b2	0.024463031
71	0x3ce33504	0.02773524
72	0xbd23fa43	-0.04003359
73	0xbe0dcca3	-0.13847594
74	0xbddbeef9	-0.1073894
75	0x3cfabde5	0.030608127
76	0x3dd79623	0.10526683
77	0xbe2848da	-0.1643404
78	0x3dd4e04e	0.10394345
79	0x3bd7f90e	0.006590969
80	0xbd8e94d7	-0.06961983
81	0xbd97c706	-0.074110076
82	0xbdd697a7	-0.10478144
83	0xbd778637	-0.06043073
84	0x3c7d99b3	0.015478539
85	0x3da33fea	0.07971175
86	0x3b9ddae8	0.0048173554
87	0x3ddb3188	0.10702807
88	0x3b51b51d	0.003199882
89	0xbe0dfd29	-0.13866104
90	0x3d880633	0.066418074
91	0xbd3d2337	-0.04617616
92	0x3cf5aa35	0.029988388
93	0xbe2635e1	-0.1623149
94	0xbe3055b1	-0.17220189
95	0x3d30264f	0.043005284
96	0xbd9a5539	-0.07535786
97	0x3da68dff	0.08132552
98	0x3d7017cc	0.058616444
99	0x3caceb44	0.021108277
100	0xbe1ab847	-0.15109359
101	0xbd442170	-0.04788345
102	0x3e14c6ae	0.14528915
103	0x3d10be60	0.035337806
104	0xbde821b7	-0.113345556
105	0xbcd6e5b9	-0.026232587
106	0xbd642163	-0.055695903
107	0xbe08ceec	-0.13360184
108	0xbe16f7aa	-0.14742914
109	0x3d292b4a	0.04130105
110	0x3c812bed	0.015768016
111	0xbd4b7ef3	-0.049681615
112	0x3d19efc0	0.03758216
113	0xbe25991b	-0.16171686
114	0x3d9f2d96	0.07772367
115	0xbd132469	-0.035923395
116	0xbd928e98	-0.07156104
117	0xbaaf4c77	-0.0013374229
118	0xbdaf8d5a	-0.085718825
119	0xbd6af289	-0.057360206
120	0x3de16666	0.11005859
121	0x3d9b20ab	0.0757459
122	0xbca49e99	-0.020095157
123	0xbd2d205e	-0.042267196
124	0x3df15a8b	0.11784848
125	0xbdde76aa	-0.10862477
126	0xbd8331d2	-0.06405987
127	0x3e035b95	0.12827905
128	0x3d271020	0.040786862
129	0xbd962762	-0.073317304
130	0x3e0c16b6	0.13680539
131	0x3d37fa76	0.044916593
132	0xbc2b0410	-0.01043798
133	0xba776ad9	-0.0009438224
134	0xbcaab873	-0.020839905
135	0x3dd3cd96	0.10341947
136	0x3852519e	5.0143914e-05
137	0x19fe4fc7	2.6295206e-23
138	0xbdcbfba9	-0.0996011
139	0xbca107d6	-0.019657057
140	0xbc78a184	-0.015175227
141	0xbd7dd221	-0.061967973
142	0xbd05134b	-0.032489102
143	0xbb250110	-0.0025177635
144	0xbd098a30	-0.03357905
145	0xbd97ad5a	-0.07406111
146	0xbd6f6cd4	-0.058453396
147	0xbe169c9b	-0.14708178
148	0x3e02c892	0.12771824
149	0x3d3b9b31	0.0458023
150	0xbe054332	-0.13013914
151	0xbdc2d75e	-0.09513734
152	0x3bb54e70	0.005533032
153	0xbe320c17	-0.17387424
154	0x3b1c0503	0.0023806698
155	0xbdc0036c	-0.09375653
156	0xbe018da6	-0.12651691
157	0x3d2a8d16	0.041638456
158	0x3d80f337	0.062963895
159	0x3ca7a8aa	0.020466167
160	0x3de68ad9	0.11256952
161	0xbda8f998	-0.08250731
162	0xbe10b337	-0.14130865
163	0xbda60220	-0.08105874
164	0x3d9cb313	0.07651343
165	0x3cd091aa	0.025460083
166	0xbd9efdef	-0.07763278
167	0xbdcfb207	-0.10141378
168	0xbd618375	-0.055057008
169	0x3d4f0474	0.050541356
170	0x3dc09f61	0.09405399
171	0x31c4e575	5.730437e-09
172	0x3dfbf2f6	0.123022005
173	0xbe16993b	-0.1470689
174	0xbe5049f5	-0.20340712
175	0xbd0f7c1e	-0.035030477
176	0x3d98ebb1	0.074668296
177	0x3d1ec8a4	0.038765565
178	0x3d6c0e39	0.05763075
179	0xbbe72605	-0.007054093
180	0xbdfc0c4e	-0.123070344
181	0x3d4e286c	0.050331518
182	0xbccd76ce	-0.025081065
183	0x3e056288	0.13025868
184	0x33b4ff3a	8.4283286e-08
185	0xbdbb9ee7	-0.091611676
186	0x3ba9504e	0.005167044
187	0xbe051a6d	-0.12998362
188	0xbe133270	-0.14374709
189	0x3d0006af	0.031256374
190	0x3ae108e2	0.0017168785
191	0x3ccd35e2	0.025050107
192	0xbcb0f6d9	-0.021602081
193	0x3d3512ae	0.044207267
194	0x3bf99538	0.007616665
195	0xbe416b0e	-0.18888494
196	0xbdbc1582	-0.0918379
197	0x3dd65baa	0.10466702
198	0x3d17da65	0.03707351
199	0x3d70a732	0.0587532
200	0xbd462891	-0.04837853
201	0xbd483e6b	-0.04888765
202	0x3d8f31e6	0.06991939
203	0x3d1dbf01	0.038512234
204	0xbd4f5a7d	-0.050623406
205	0xbe2db394	-0.16963035
206	0x3e1048ac	0.14090222
207	0xbdb24f15	-0.0870649
208	0xbd5a6747	-0.05332115
209	0x3d903e17	0.07043093
210	0x3db19026	0.08670072
211	0x3dccea11	0.10005582
212	0x3c895ff3	0.016769385
213	0xbd8b1a00	-0.067920685
214	0xbd9f39ff	-0.07774734
215	0xbdc02793	-0.09382548
216	0x3c668059	0.014068686
217	0x3d0e93a8	0.034808785
218	0x3d0dd746	0.03462913
219	0xbdc966de	-0.098340735
220	0xbd70820e	-0.05871778
221	0xbd9ce1c4	-0.07660249
222	0x3da47e9d	0.08031962
223	0x3d287a83	0.04113246
224	0xbca5b140	-0.020226121
225	0xbc91c9c0	-0.017796397
226	0xbe69b8b7	-0.2282437
227	0x3d5b809d	0.053589452
228	0xbdc7b2df	-0.09750914
229	0x3d2d51fd	0.04231452
230	0xbe1cb482	-0.15303233
231	0x3dda1d91	0.106501706
232	0x3dbc2c97	0.09188192
233	0x3d865438	0.06559032
234	0x3d99134d	0.074743845
235	0xbe2431fc	-0.16034693
236	0x3c9713ed	0.018442119
237	0x3be5213c	0.0069924872
238	0x3d8b4c94	0.068017155
239	0x3d4f3afe	0.05059337
240	0xbe397058	-0.18109262
241	0x3c84124d	0.016122008
242	0x3dc2dfc9	0.0951534
243	0xbcf3d3e4	-0.029764123
244	0x3d67e6fe	0.056616776
245	0xbba303f8	-0.0049748383
246	0xbe00fc14	-0.1259616
247	0xbdce4928	-0.10072547
248	0x3d8b5f13	0.06805243
249	0x3daee640	0.085400105
250	0x3d13456b	0.035954874
251	0x399fb14b	0.00030458937
252	0xbd899ef8	-0.06719774
253	0x3ad14852	0.0015966988
254	0xbd0d57d7	-0.0345076
255	0xbd8e5757	-0.069502525

fc_p.bias f4 [26]
0	0xb984fab4	-0.0002536379
1	0x3d09185b	0.033470493
2	0x3cb416c7	0.021983517
3	0xbc829a60	-0.015942752
4	0x3ce8601f	0.028366147
5	0x3cec4b6c	0.028844558
6	0x3d2eeed9	0.04270825
7	0x3c378107	0.011200196
8	0x3cee44c3	0.029085523
9	0xbd1ef3a3	-0.03880657
10	0x3ce2ba8e	0.027676847
11	0xbd6bf4a0	-0.05760634
12	0xbd5f7956	-0.054559074
13	0x3c4b63b4	0.012413908
14	0xbd8e42e8	-0.06946355
15	0x3d69a63d	0.057043303
16	0xbcdc67f9	-0.026905047
17	0xbbaafc88	-0.0052180924
18	0x3dc4685f	0.0959022
19	0x3d9253e7	0.07144909
20	0xbdb4231d	-0.0879576
21	0x3d957d04	0.072992355
22	0x3d80252a	0.062570885
23	0x3d9178a1	0.07103086
24	0x3c6fb493	0.014630455
25	0xbdf71105	-0.12063793

fc_v.weight f4 [1, 128]
0	0x38b8d8bf	8.814176e-05
1	0x3cad0b42	0.021123532
2	0xbce54643	-0.027987605
3	0x3d941f30	0.07232511
4	0x3b38b6d4	0.0028185146
5	0xbd1c2814	-0.03812416
6	0xbd65d715	-0.05611332
7	0x3b4b0409	0.0030977747
8	0x3c29630c	0.010338556
9	0x3bcd09be	0.006257265
10	0x3c62edf2	0.013850676
11	0x3b65999b	0.0035034183
12	0x3d27cb89	0.04096559
13	0xbd36f30c	-0.04466538
14	0xbd13cb2f	-0.036082443
15	0x3d3a53a6	0.04548993
16	0x3cc6af3f	0.024253486
17	0x3c111165	0.008854245
18	0xbc7efe54	-0.015563566
19	0xbb93ec0b	-0.0045142225
20	0xbd1a1f73	-0.03762765
21	0xbd3517d8	-0.044212192
22	0x3d513e6f	0.051084932
23	0x3d3d2106	0.04617407
24	0xbb2e28b6	-0.0026574559
25	0xbb54fbc7	-0.0032498704
26	0x3d0b3349	0.033984456
27	0xbb3aeabd	-0.0028521263
28	0x3b007e38	0.0019606482
29	0xbd077ead	-0.03307979
30	0xbce96dc7	-0.028494729
31	0xbd4ece08	-0.050489455
32	0x3c02ba94	0.007979054
33	0xbd0099b7	-0.031396594
34	0x3d01996f	0.031640466
35	0x3d4c8f63	0.04994143
36	0xbc60b714	-0.013715524
37	0x3d8239fe	0.063587174
38	0x3c51df28	0.012809552
39	0x3b95c627	0.0045707407
40	0xbdaac0ab	-0.0833753
41	0x3afb5856	0.0019176106
42	0x3ba8def8	0.005153533
43	0x3d108456	0.035282455
44	0x3d711279	0.058855508
45	0x3b89311e	0.0041867634
46	0xb98609d6	-0.000255658
47	0x3db50f90	0.08840859
48	0xbbc4609a	-0.005992961
49	0xbd6aecf6	-0.05735489
50	0xbd45546b	-0.04817621
51	0x3ce95b2e	0.02848586
52	0x3cb9d47e	0.022684332
53	0x3cd97a40	0.026547551
54	0xbd27a227	-0.040926125
55	0xbb8ade6f	-0.004237942
56	0xba8ea749	-0.0010883595
57	0xbc9dc97d	-0.019261116
58	0x3ac77f34	0.0015220405
59	0xbbe12b14	-0.0068715904
60	0xbc232830	-0.009958312
61	0xbd8963be	-0.067084774
62	0x3d63965e	0.055563323
63	0xbd92ab4c	-0.071615785
64	0x3db44e32	0.08803977
65	0xbca135b7	-0.019678934
66	0x3db75580	0.08951855
67	0xbb82b184	-0.0039884467
68	0xbbb78529	-0.0056005907
69	0xbd8855d1	-0.06656993
70	0xbd77a522	-0.060460217
71	0xbd89c25e	-0.06726526
72	0xbd31b1e4	-0.04338254
73	0x3cba8e52	0.022772942
74	0xbd6c1bda	-0.05764375
75	0x3d700ec8	0.058607846
76	0xbbd437e3	-0.006476389
77	0xbc8c9568	-0.017161086
78	0x3c025fd6	0.007957419
79	0x3da0de07	0.07854848
80	0x3c919822	0.017772738
81	0x3b04bcaa	0.0020254054
82	0xbca5980e	-0.020214107
83	0xbd85dcb0	-0.065362334
84	0xbb8586d5	-0.004074911
85	0x3c878fc8	0.016548052
86	0xbca35f74	-0.019942977
87	0xbc63e325	-0.013909136
88	0x3cb4e28e	0.022080686
89	0xbcbe767e	-0.02324986
90	0x3cf52b7a	0.029927958
91	0x3cd94828	0.026523665
92	0xbc7784d1	-0.0151073495
93	0x3d2714d8	0.040791363
94	0xbd22ed33	-0.039776992
95	0xbbbbcfba	-0.00573155
96	0x3bfbe759	0.007687491
97	0x3d23650d	0.03989129
98	0x3c43d5f8	0.01195287
99	0xbcaeb396	-0.021325868
100	0xbcf8e2bd	-0.030381555
101	0x3d8329ab	0.06404432
102	0xbd38e5cf	-0.045141038
103	0x3b8f6794	0.004376361
104	0x3d548127	0.05188098
105	0xbd2a0628	-0.041509777
106	0x3c8a6bf9	0.016897188
107	0xbd28fe99	-0.04125843
108	0x3d2d0e6d	0.042250086
109	0x3c993825	0.01870353
110	0x3b707d25	0.0036695686
111	0x3badb15c	0.005300684
112	0xbca1bf40	-0.019744515
113	0xbd3612a3	-0.044451367
114	0xbca7a6cd	-0.020465279
115	0xbbcff84d	-0.0063467384
116	0x3d6f5604	0.05843164
117	0xbc2ad0a0	-0.010425717
118	0xbc4da665	-0.012551879
119	0x3d274e31	0.040846054
120	0xbd751ff2	-0.05984492
121	0xbd097d22	-0.0335666
122	0x3d975124	0.07388523
123	0x3cb173e9	0.021661716
124	0x3c9acf5d	0.018897707
125	0x3c402cab	0.0117294
126	0x3c822f57	0.015891714
127	0xbc9fb7f5	-0.019496897
