hw22/293Iters/modelx_287.pth (torch, 452322 bytes, 17 tensors)

conv1.weight f4 [16, 4, 3, 3]
-0.06639638 -0.15417498 -0.034700584 -0.006337276 -0.119955264 0.074027166 -0.056054853 0.14051327
-0.09369001 -0.1256027 -0.14861774 0.1033107 -0.10234809 0.14475033 0.057431135 -0.08004628
0.045001592 0.1524545 -0.07165651 0.14124998 0.03600488 0.056830507 -2.75205e-05 0.042352863
-0.009252633 -0.121698156 0.034030914 -4.6740134e-28 -5.292062e-07 8.4988877e-10 2.6878981e-28 -5.001911e-14
0.0003612435 4.3794046e-08 5.285797e-11 2.8733844e-05 0.12661819 -0.14774585 -0.11381105 0.1464691
-0.022076808 -0.028302303 0.022604682 -0.124345005 -0.045378584 0.08053211 -0.068636626 -0.08929158
-0.046583608 0.049087524 -0.1289502 0.0012214268 0.0610608 -0.08810009 0.123429425 -0.0697526
0.08374016 0.09676296 0.0016291004 -0.06992739 0.011630436 -0.13046384 0.09066528 -5.2065828e-15
-1.2045048e-13 -0.00028226015 0.00044332768 1.1899462e-20 -1.634274e-07 -0.0010192071 0.0010410051 -3.0476215e-14
0.0041054618 0.21630023 -0.21234071 -0.058646888 -0.085670374 -0.066974886 0.112917 -0.05110223
-0.05798573 -0.011064916 0.07774578 -0.17687026 -0.031022854 0.11148358 -0.024127854 -0.11180822
-0.049549367 -0.057334557 0.036149483 -0.07307379 -0.03667018 -0.09764555 0.0002647352 -0.09290787
0.003072825 -0.11007002 0.027844364 1.0608861e-05 -2.4606163e-20 -6.389308e-06 -2.3063266e-25 -0.0008296291
0.0015298063 0.00017929815 -6.9543465e-05 -1.2003438e-13 0.18798485 -0.077468835 -0.012468231 0.16844882
0.12711233 3.4962684e-06 -0.01720903 0.06780844 0.004814077 -0.043738145 -0.028433084 -0.09378065
0.15908886 0.07768923 -0.04188006 -0.0931761 -0.011598333 -0.025464104 -0.028969454 0.13888265
-0.08877016 -0.032002177 3.9662074e-05 0.11409086 -0.11722268 0.019732764 -0.0117143 1.0095915e-21
5.9178124e-10 7.269429e-15 0.00048667908 -3.7235052e-06 2.5592719e-25 -0.0021760364 4.452082e-06 0.00029044616
0.15388283 -0.050383255 0.07669709 0.061409157 0.16625501 0.09155105 -0.14566125 0.12641524
-0.029213505 0.13103992 0.08040352 0.16624558 0.077302024 0.04794804 0.1873005 -0.081984594
0.07459789 0.04727186 -0.120020255 -0.073584534 -0.05295434 0.15930104 1.825669e-05 -0.17873408
-0.13869675 0.1282517 -0.008259347 1.1842035e-28 7.446281e-05 0.000727094 9.1472316e-08 1.1044526e-09
-0.0006087407 -0.00013925649 0.00022373037 6.5862914e-05 -0.021421865 0.075731464 0.1154781 0.11285647
0.14266196 -0.00783114 -0.09841296 -0.0093453135 -0.016688926 -0.1186208 0.0391143 -0.078906946
-0.08265855 0.16388604 -0.1015351 -0.07530916 -0.13472627 -0.019220082 0.015801778 -0.0681487
0.023964839 -0.042351343 -0.00020343218 0.00411711 -0.082337506 -0.07804792 0.11725048 -2.1741552e-22
0.002746626 -3.7735857e-20 9.137164e-09 0.00096679927 -2.1947024e-22 5.844639e-29 -0.0015359798 1.1813116e-27
0.015796086 0.062282015 0.030109078 0.007205742 0.1554858 0.17736115 0.14269516 -0.0040850686
-0.07212512 0.12507951 0.101196714 -0.03484128 0.09077214 0.056969363 0.10884332 0.1685047
0.11299159 -0.11771341 -0.1522246 -0.11556789 0.15318283 -0.048368137 0.00018295989 -0.164085
-0.101717815 -0.103472106 -0.043026786 0.0019434729 1.255012e-05 -0.000107066124 -6.796631e-28 2.9868675e-34
4.0915782e-25 4.2519332e-05 0.0006851087 7.610173e-15 0.14390662 0.088531524 0.033729002 0.11877489
00000000: d3fa 87bd 0ce0 1dbe 3322 0ebd eda8 cfbb
00000010: 1bab f5bd 8e9b 973d c699 65bd b6e2 0f3e
00000020: 8ce0 bfbd ff9d 00be 402f 18be 8f94 d33d
00000030: e09b d1bd 6e39 143e e93c 6b3d 4eef a3bd
00000040: 9753 383d 081d 1c3e a6c0 92bd d6a3 103e
00000050: da79 133d 1bc7 683d d3db e6b7 327a 2d3d
00000060: 5b98 17bc e23c f9bd 0064 0b3d 1a20 1492
00000070: c60e 0eb5 9b9d 6930 a45d aa11 1c44 61a9
00000080: 4865 bd39 1018 3c33 c978 682e 7609 f137
00000090: 33a8 013e b04a 17be c515 e9bd fffb 153e
000000a0: 6cda b4bc 3bda e7bc 742d b93c 98a8 febd
000000b0: e5de 39bd 05ee a43d 5c91 8cbd 81de b6bd
000000c0: 74ce 3ebd 0010 493d 850b 04be 4818 a03a
000000d0: e41a 7a3d d26d b4bd 91c8 fc3d 73da 8ebd
000000e0: f67f ab3d a92b c63d 8a87 d53a 1736 8fbd
000000f0: 968d 3e3c 5098 05be b8ae b93d 4096 bba7
00000100: 7d9d 07aa 51fc 93b9 6f6e e839 44c6 601e
00000110: 957a 2fb4 ea96 85ba 5672 883a af40 09a9
00000120: 1c87 863b cf7d 5d3e d86f 59be b837 70bd
00000130: f373 afbd 212a 89bd 0741 e73d 9250 51bd
00000140: 7282 6dbd 9f49 35bc 2e39 9f3d 7a1d 35be
00000150: a423 febc 8151 e43d c7a7 c5bc b5fb e4bd
00000160: 47f4 4abd a4d7 6abd 7b11 143d b6a7 95bd
00000170: 7833 16bd 64fa c7bd 28cc 8a39 7b46 bebd
00000180: 7361 493b 646c e1bd dd19 e43c b6fc 3137
00000190: 0d66 e89e bd63 d6b6 34c1 8e96 777b 59ba
000001a0: c883 c83a fb01 3c39 ddd7 91b8 8e25 07aa
000001b0: 1a7f 403e fba7 9ebd 8d47 4cbc d97d 2c3e
000001c0: bc29 023e 6fa1 6a36 f4f9 8cbc 27df 8a3d
000001d0: 68bf 9d3b c526 33bd 80ec e8bc 1210 c0bd
000001e0: 31e8 223e 881b 9f3d 6d8a 2bbd 1cd3 bebd
000001f0: ef06 3ebc 199a d0bc 5951 edbc 4137 0e3e
00000200: 21cd b5bd b714 03bd d45a 2638 78a8 e93d
00000210: 7212 f0bd 9ba6 a13c 56ed 3fbc ae90 981c
00000220: e7aa 2230 53f4 0228 f628 ff39 55e1 79b6
00000230: 4869 9e16 d59b 0ebb 1863 9536 0647 9839
00000240: 7693 1d3e ac5e 4ebd 5d13 9d3d 2b88 7b3d
00000250: c13e 2a3e 1e7f bb3d 3928 15be ff72 013e
00000260: 2951 efbc 542f 063e 9aaa a43d 483c 2a3e
00000270: 8650 9e3d 2a65 443d b4cb 3f3e 8ae7 a7bd
00000280: c7c6 983d 23a0 413d 2ecd f5bd 7db3 96bd
00000290: a6e6 58bd d01f 233e f125 9937 1106 37be
000002a0: 8506 0ebe 6a54 033e 3652 07bc 9a1d 1611
000002b0: eb28 9c38 749a 3e3a 706f c433 79cb 9730
000002c0: e693 1fba 6105 12b9 2a99 6a39 e21f 8a38
000002d0: e87c afbc 1919 9b3d c87f ec3d 4b21 e73d
000002e0: fa15 123e 2f4e 00bc bc8c c9bd 161d 19bc
000002f0: 37b7 88bc 76ef f2bd 5136 203d f799 a1bd
00000300: e348 a9bd bed1 273e a2f1 cfbd b03b 9abd
00000310: aff5 09be 6f73 9dbc bb72 813c 8c91 8bbd
00000320: e951 c43c 9a78 2dbd 6950 55b9 d2e8 863b
00000330: 91a0 a8bd 96d7 9fbd 0521 f03d 6c6b 839b
00000340: bd00 343b da33 329f acf9 1c32 cd70 7d3a
00000350: 60a9 849b e02d 9410 ee52 c9ba b12f bb12
00000360: cb66 813c 6d1b 7f3d 50a7 f63c 251e ec3b
00000370: ab37 1f3e 299e 353e ae1e 123e 0adc 85bb
00000380: 56b6 93bd d814 003e 3940 cf3d bbb5 0ebd
00000390: bee6 b93d b558 693d 3fe9 de3d 7f8c 2c3e
000003a0: 2268 e73d ba13 f1bd c4e0 1bbe dcae ecbd
000003b0: f6db 1c3e ab1d 46bd ecd8 3f39 e605 28be
000003c0: 6e51 d0bd 2fe9 d3bd db3c 30bd 21bc fe3a
000003d0: 5b8e 5237 b088 e0b8 d264 5792 eb82 c607
000003e0: a541 fd16 c956 3238 de98 333a ba17 0928
000003f0: 425c 133e 0450 b53d 6c27 0a3d 4040 f33d

conv1.bias f4 [16]
-3.086162e-05 0.00027012578 -7.272679e-06 -1.4876056e-05 1.1798542e-05 0.00017143924 0.00019807805 -0.00012174271
-0.00031357174 -4.8030648e-05 -5.6007317e-05 -0.0013029097 1.1389547e-05 -0.0026468765 -3.2711345e-05 0.00033964682
00000000: 6a71 01b8 ab9f 8d39 d607 f4b6 2d94 79b7
00000010: 5af2 4537 5fc4 3339 2cb3 4f39 1f50 ffb8
00000020: e366 a4b9 8474 49b8 66e9 6ab8 65c6 aaba
00000030: bb15 3f37 3877 2dbb 8a33 09b8 a012 b239

bn1.weight f4 [16]
0.9932065 1.0065806 0.97130466 1.0408788 1.0391289 1.0023774 1.0126143 1.0727329
0.9718475 0.9855229 0.9681021 0.98200214 0.95615166 0.9960092 0.9517375 1.008408
00000000: c842 7e3f a2d7 803f 6ca7 783f 843b 853f
00000010: 2d02 853f e74d 803f 589d 813f 504f 893f
00000020: ffca 783f 3b4b 7c3f 8ad5 773f 7e64 7b3f
00000030: 5bc6 743f 75fa 7e3f 12a5 733f 8313 813f

bn1.bias f4 [16]
0.0034445303 0.013875711 -0.014551034 0.030137848 -0.0124636255 -0.0060628406 -0.029248945 -0.02737708
-0.0074713673 -0.0011462361 -0.0052413098 -0.02162938 -0.048394237 -0.011325413 -0.024915857 -0.0039554625
00000000: a1bd 613b f356 633c 7667 6ebc a6e3 f63c
00000010: 3c34 4cbc cbaa c6bb 7c9b efbc e645 e0bc
00000020: 5fd2 f4bb 4d3d 96ba 4bbf abbb 1930 b1bc
00000030: 0939 46bd 3a8e 39bc 571c ccbc d39c 81bb

bn1.running_mean f4 [16]
0.034260202 -0.026252612 -0.36575657 0.13926142 0.12142066 -0.09035422 -0.17176118 -0.23410161
-0.028250001 0.02011757 0.027840883 -0.40903625 -0.43396747 0.21448615 0.023814894 -0.24688943
00000000: 6d54 0c3d b80f d7bc 7244 bbbe 8c9a 0e3e
00000010: 65ab f83d a20b b9bd 2ae2 2fbe 55b8 6fbe
00000020: 8c6c e7bc 9acd a43c 9012 e43c 336d d1be
00000030: fc30 debe 42a2 5b3e 7417 c33c 95d0 7cbe

bn1.running_var f4 [16]
0.0383928 0.03473658 0.031977974 0.017834375 0.029561747 0.03181067 0.030168168 0.014558945
0.04396612 0.018766014 0.02210065 0.07140397 0.06508274 0.052324053 0.0121928565 0.048745476
00000000: c541 1d3d f247 0e3d 56fb 023d 6519 923c
00000010: 7a2b f23c e84b 023d 3c23 f73c a488 6e3c
00000020: d115 343d 2fbb 993c 6c0c b53c 3f3c 923d
00000030: 194a 853d bf51 563d 8cc4 473c 56a9 473d

conv2.weight f4 [32, 16, 3, 3]
-0.031555336 -0.07116966 0.061237413 -0.019386062 0.07583848 -0.00085875066 -0.05764879 0.047002718
-0.04839406 0.03825823 -0.06027542 0.007523096 -0.0029443705 0.03409548 -0.044758596 -0.06537525
0.026001219 0.043421555 -0.033739902 -0.0021815205 -0.033069663 -0.070463434 -0.05139383 -0.07458739
0.0043190033 0.04991898 0.052081466 0.06641051 -0.10819112 -0.05533012 0.07311279 0.060246084
-0.09329421 0.10595925 0.097259104 -0.012541615 0.04079012 -0.036038946 -0.043385983 -0.024942528
-0.092405766 0.020131513 0.012031745 0.047772724 -0.038956694 -0.020162085 0.045654602 0.058807492
0.07705171 -0.010231119 0.10007647 0.083301745 -0.06981343 0.08145916 0.054582264 -0.037963342
0.0072089266 -0.06362359 -0.040461123 -0.0049187085 -0.02018372 0.035820235 0.03991629 0.07500957
0.07808757 0.054686595 -0.053664483 0.021582117 -0.02042273 0.0058003003 0.06109666 -0.051149003
0.049004532 -0.0009887146 0.05099819 -0.022171466 -0.0065496033 -0.050192945 -0.0052275327 0.0682845
0.031272177 0.05360012 -0.000811265 0.049021408 0.0013678273 -0.068652496 -0.008893655 0.08002013
-0.06642668 -0.030761577 0.01601629 0.034552786 0.076108545 0.07310993 0.05507315 0.06202998
0.06458707 0.058832053 0.022209045 -0.024308885 0.111543 0.10339446 0.014008333 0.020902988
0.0136057185 -0.029420564 0.014814149 0.084578425 -0.025995646 -0.040604223 -0.017414972 -0.025830321
0.08448474 0.05645868 0.07932988 -0.081346564 0.034869507 -0.013441176 0.030337587 -0.024659434
0.005464177 0.022783669 -0.012567505 -0.044345718 0.0021643443 -0.036148306 -0.012441524 -0.012370786
-0.027241709 0.06176573 -0.026143063 -0.0013665792 -0.06876894 0.065697595 -0.022848822 0.07310036
-0.022530567 -0.04542005 -0.05311183 0.0676282 -0.038166344 -0.057449143 -0.09454239 -0.04209604
-0.058458295 0.037841488 0.04412354 0.04716141 -0.026985997 0.04278969 -0.022696186 0.041964266
0.073909774 -0.01336787 -0.060932662 0.048884265 0.005757515 0.10420129 0.04923402 -0.022883974
-0.033817552 -0.10197729 -0.0638435 0.021744346 -0.00843263 -0.034409605 -0.0154383425 -0.057060797
0.055453174 -0.041993666 0.026188003 0.005436311 0.08432513 -0.05225907 0.04074581 0.036461167
-0.0109125655 -0.039940678 0.06812512 -0.014003742 0.06768374 -0.09062233 -0.06996972 -0.0063735796
0.0017706689 0.035147563 -0.08494988 -0.011115602 -0.027619952 0.020671055 -0.058005843 0.038195554
0.015471996 -0.026370823 0.09398644 -0.048392404 -0.051271696 0.009986103 0.026454912 0.03189128
-0.03895 0.007873047 -0.03316034 -0.009563695 -0.0120395105 -0.004962719 -0.003844084 -0.09195061
-0.080684766 0.07127554 -0.009852079 0.122650415 -0.019823434 -0.032833934 0.030997133 0.042502075
-0.02205416 -0.01912025 0.019755412 0.0121631045 0.114625625 -0.018282386 0.012803444 0.06230051
-0.0026981973 -0.104827516 -0.0057934048 -0.067438744 -0.031500343 0.010983812 0.0026347786 0.007676904
0.00027675767 -0.0012144353 -0.052456733 0.046983544 -0.086382456 -0.05570293 -0.0304916 0.040344883
0.036291633 -0.017544014 0.0066338577 -0.009863093 -0.04129652 0.080332816 -0.021475315 -0.005767646
-0.010638238 0.054524675 -0.082761474 -0.08948861 0.0023052443 -0.02985202 -0.012173983 -0.052481417
00000000: 2b40 01bd 66c1 91bd 15d4 7a3d 85cf 9ebc
00000010: 3451 9b3d c81d 61ba 2321 6cbd ec85 403d
00000020: da38 46bd a9b4 1c3d 5ce3 76bd 4e84 f63b
00000030: 57f6 40bb b4a7 0b3d ca54 37bd 76e3 85bd
00000040: 8200 d53c cdda 313d da32 0abd d7f7 0ebb
00000050: 0e74 07bd 224f 90bd 5682 52bd 46c1 98bd
00000060: 6d86 8d3b d877 4c3d 6053 553d 3c02 883d
00000070: 4e93 ddbd d6a1 62bd 29bc 953d 99c4 763d
00000080: 0911 bfbd 2a01 d93d c82f c73d 597b 4dbc
00000090: 8a13 273d 939d 13bd 80b5 31bd 4654 ccbc
000000a0: 3c3f bdbd d8ea a43c cc20 453c 55ad 433d
000000b0: 0e91 1fbd f52a a5bc 5200 3b3d 20e0 703d
000000c0: 49cd 9d3d 6ca0 27bc e4f4 cc3d 1b9a aa3d
000000d0: 58fa 8ebd 0fd4 a63d a791 5f3d 737f 1bbd
000000e0: dc38 ec3b 164d 82bd 90ba 25bd 1e2d a1bb
000000f0: 5458 a5bc 3db8 123d 447f 233d 9e9e 993d
00000100: 60ec 9f3d 0dff 5f3d 4acf 5bbd fbcc b03c
00000110: 924d a7bc 7210 be3b 7e40 7a3d 9e81 51bd
00000120: fab8 483d c297 81ba 7ae3 503d efa0 b5bc
00000130: 0e9e d6bb 1e97 4dbd b94b abbb bed8 8b3d
00000140: 4117 003d cd8b 5b3d 13ab 54ba acca 483d
00000150: ab48 b33a ae99 8cbd b1b6 11bc 98e1 a33d
00000160: b60a 88bd b4ff fbbc 9834 833c 3987 0d3d
00000170: ccde 9b3d a9ba 953d 6294 613d 2613 7e3d
00000180: 3a46 843d e1f9 703d beef b53c 6d23 c7bc
00000190: a870 e43d 7ac0 d33d 3583 653c be3c ab3c
000001a0: 85ea 5e3c 6503 f1bc 0bb7 723c 7437 ad3d
000001b0: d2f4 d4bc 9d50 26bd d8a9 8ebc 1c9a d3bc
000001c0: 5606 ad3d 3841 673d b477 a23d 0799 a6bd
000001d0: 54d3 0e3d 6138 5cbc 8886 f83c 9502 cabc
000001e0: d70c b33b d1a4 ba3c f0e7 4dbc dba3 35bd
000001f0: acd7 0d3b 3f10 14bd 89d7 4bbc d6ae 4abc
00000200: 012a dfbc 10fe 7c3d fa29 d6bc ca1e b3ba
00000210: bbd6 8cbd 768c 863d 742d bbbc a4b5 953d
00000220: 0692 b8bc 600a 3abd ca8b 59bd a780 8a3d
00000230: 5054 1cbd cb4f 6bbd 719f c1bd e66c 2cbd
00000240: f771 6fbd adff 1a3d e3ba 343d 532c 413d
00000250: bd11 ddbc 3e44 2f3d 5aed b9bc b9e2 2b3d
00000260: 025e 973d e904 5bbc 8794 79bd de3a 483d
00000270: 89a9 bc3b 7c67 d53d 9da9 493d 2c77 bbbc
00000280: 4684 0abd 78d9 d0bd 62c0 82bd 3321 b23c
00000290: 0429 0abc 16f1 0cbd 1af1 7cbc 95b8 69bd
000002a0: de22 633d 8d01 2cbd 3988 d63c 1523 b23b
000002b0: a7b2 ac3d 9b0d 56bd 14e5 263d 4e58 153d
000002c0: 9eca 32bc d698 23bd 2f85 8b3d f36f 65bc
000002d0: c69d 8a3d 3398 b9bd 494c 8fbd 76d9 d0bb
000002e0: ca15 e83a e4f6 0f3d 34fa adbd 371e 36bc
000002f0: 3d43 e2bc 5856 a93c 8997 6dbd f172 1c3d
00000300: 417e 7d3c a007 d8bc f67b c03d 1d37 46bd
00000310: 4502 52bd c09c 233c f9b7 d83c 6ea0 023d
00000320: 098a 1fbd f4fd 003c 23d3 07bd 0bb1 1cbc
00000330: 5e41 45bc 4e9e a2bb 07ed 7bbb 9a50 bcbd
00000340: 0e3e a5bd e9f8 913d 9d6a 21bc 2430 fb3d
00000350: c164 a2bc e07c 06bd b3ed fd3c a816 2e3d
00000360: edaa b4bc 12a2 9cbc 1ad6 a13c c247 473c
00000370: d7c0 ea3d f1c4 95bc 89c5 513c d22e 7f3d
00000380: 3dd4 30bb cfaf d6bd 9ad6 bdbb 531d 8abd
00000390: 8106 01bd 72f5 333c 40ac 2c3b 8a8e fb3b
000003a0: c919 9139 b02d 9fba dfdc 56bd d171 403d
000003b0: 49e9 b0bd c128 64bd 85c9 f9bc ad40 253d
000003c0: 89a6 143d 77b8 8fbc d560 d93b cf98 21bc
000003d0: 8a26 29bd 8885 a43d 00ed afbc 85fe bcbb
000003e0: 014c 2ebc 4455 5f3d d97e a9bd ce45 b7bd
000003f0: 9513 173b 398c f4bc 6375 47bc c1f6 56bd

conv2.bias f4 [32]
-3.571354e-05 1.17481195e-05 -1.086831e-05 -1.5656475e-05 5.605813e-05 0.0001146599 7.5575244e-06 1.1397094e-06
1.5505296e-06 -5.7329557e-06 1.2975421e-05 2.6460117e-05 9.81919e-06 -6.6448833e-06 -2.1851458e-06 1.2320701e-05
-3.4561934e-05 1.15421635e-05 3.0786116e-05 -2.2332686e-05 -5.930561e-07 -6.6768885e-06 -1.3200293e-05 1.6477352e-05
-6.507621e-06 8.766563e-06 -5.832621e-07 4.512356e-05 6.0408793e-06 -0.00010254 -2.241647e-06 -1.275971e-05
00000000: 1fcb 15b8 ca19 4537 0957 36b7 0656 83b7
00000010: f51f 6b38 9175 f038 a496 fd36 1ef8 9835
00000020: cb1b d035 b75d c0b6 02b1 5937 abf6 dd37
00000030: 1abd 2437 1df7 deb6 85a4 12b6 02b5 4e37
00000040: 98f6 10b8 37a5 4137 5720 0138 1457 bbb7
00000050: 8132 1fb5 090a e0b6 d476 5db7 d838 8a37
00000060: 0a5c dab6 1a14 1337 7791 1cb5 0e43 3d38
00000070: c2b2 ca36 be0a d7b8 346f 16b6 8a12 56b7

bn2.weight f4 [32]
1.1142982 1.1591183 1.1621617 1.1009645 1.0966861 1.0956291 1.1340486 1.1114635
1.1079892 1.1163778 1.1160767 1.1651801 1.0811589 1.1249483 1.0788523 1.1467444
1.1595954 1.1198474 1.0670698 1.1186912 1.1085998 1.0886127 1.1365808 1.070435
1.0793219 1.0838027 1.0866671 1.1152208 1.1266837 1.1355559 1.0737298 1.1142653
00000000: 53a1 8e3f fd5d 943f b7c1 943f 68ec 8c3f
00000010: 3660 8c3f 933d 8c3f 8128 913f 7044 8e3f
00000020: 97d2 8d3f 78e5 8e3f 9adb 8e3f 9f24 953f
00000030: 6a63 8a3f 4efe 8f3f d517 8a3f 85c8 923f
00000040: 9f6d 943f 2957 8f3f be95 883f 4631 8f3f
00000050: 99e6 8d3f a957 8b3f 7b7b 913f 0404 893f
00000060: 3827 8a3f 0cba 8a3f e817 8b3f 8ebf 8e3f
00000070: 2c37 903f e559 913f fa6f 893f 3fa0 8e3f

bn2.bias f4 [32]
0.03735446 0.04438577 0.071739055 0.047097653 0.04627695 0.035788696 0.069844276 0.03958775
0.020767888 0.017148579 0.055314235 0.046585377 0.020392492 0.03952208 0.020696184 0.049202994
0.041696798 0.03843737 0.011189039 0.073268235 0.053429175 0.03606112 0.074692234 0.01678063
0.026833672 0.057883665 0.029533207 0.063557185 0.044839796 0.061998706 0.024536481 0.056206822
00000000: fe00 193d dacd 353d edeb 923d 78e9 403d
00000010: e68c 3d3d 2b97 123d 840a 8f3d c426 223d
00000020: 6b21 aa3c 2d7b 8c3c 2e91 623d 4fd0 3e3d
00000030: 280e a73c e8e1 213d 0b8b a93c 1489 493d
00000040: 43ca 2a3d 8170 1d3d 3b52 373c a80d 963d
00000050: 8dd8 5a3d d3b4 133d 3ef8 983d 8877 893c
00000060: 4ad2 db3c 6c17 6d3d a0ef f13c 452a 823d
00000070: efa9 373d 5bf2 7d3d bb00 c93c 2039 663d

bn2.running_mean f4 [32]
0.24314593 0.10335075 0.0223926 -0.26558638 -0.15293892 -0.03377964 -0.12004023 0.0067598303
-0.13276787 -0.185385 -0.28613266 0.00028633847 0.14756225 -0.18826602 -0.038968816 -0.05413528
0.01813937 0.05905596 0.46072748 0.1271957 0.15225433 0.0070460774 0.10757076 0.12805095
0.27507195 -0.013569663 0.15832405 -0.31021604 0.15002477 -0.15393017 0.16677725 0.17624101
00000000: 3ffb 783e 8fa9 d33d b070 b73c f0fa 87be
00000010: 059c 1cbe 855c 0abd a7d7 f5bd 9181 dd3b
00000020: 4df4 07be 91d5 3dbe fb7f 92be b31f 9639
00000030: 8f1a 173e cfc8 40be c49d 1fbd f5bc 5dbd
00000040: 0499 943c aae4 713d 79e4 eb3e 973f 023e
00000050: 8fe8 1b3e c8e2 e63b 0f4e dc3d ca1f 033e
00000060: 3bd6 8c3e 4b53 5ebc b31f 223e a3d4 9ebe
00000070: 18a0 193e df9f 1dbe a8c7 2a3e 8678 343e

bn2.running_var f4 [32]
0.13949363 0.07034816 0.095983244 0.05895134 0.069458686 0.078933895 0.06716655 0.06852903
0.09547295 0.07275508 0.07416785 0.08158166 0.08123968 0.07156679 0.056352194 0.09696868
0.09679537 0.050289396 0.09525283 0.10566126 0.09788861 0.09791759 0.1341446 0.08259924
0.05753869 0.07572314 0.11727651 0.10220813 0.055596266 0.091598645 0.10319245 0.06986084
00000000: 6bd7 0e3e b212 903d dd92 c43d f676 713d
00000010: 5b40 8e3d 18a8 a13d 9e8e 893d f358 8c3d
00000020: 5287 c33d 9e00 953d 50e5 973d 4914 a73d
00000030: fd60 a63d 9c91 923d 8fd1 663d 8497 c63d
00000040: a73c c63d 41fc 4d3d ea13 c33d ee64 d83d
00000050: d379 c83d 0489 c83d 345d 093e ca29 a93d
00000060: b0ad 6b3d bc14 9b3d ab2e f03d 7f52 d13d
00000070: e9b8 633d 1298 bb3d 9056 d33d 3313 8f3d

fc1.weight f4 [128, 800]
0.052094996 0.004420716 -0.07071538 -0.001416754 -0.038903534 0.08191187 0.041951876 0.026702056
-0.02488255 0.0077602416 -0.04027664 -0.044529255 -0.06098904 -0.049459346 -8.583264e-05 -0.009608492
-0.05122272 0.011649362 -0.004368392 0.000115675524 0.023250144 0.051958222 0.066382915 0.04587458
-0.0040097884 0.007814178 -0.010705727 0.006608407 0.051654696 -0.016853573 0.025839739 -0.07351375
-0.020263888 -0.065261744 -0.012990715 0.019202346 0.031013006 0.04789327 -0.046343967 0.06876873
0.034986928 0.029739043 -0.0136099085 0.022574574 0.028726038 -0.015027484 0.023368392 -0.018200317
0.04000394 0.015164523 0.011138508 0.0011290545 -0.008394116 0.022845706 -0.06876086 0.0007825464
-0.052020777 -0.049678594 0.0029888325 -0.015559482 -0.0296271 -0.02863733 -0.04473885 -0.06257147
-0.00618456 -0.06653389 -0.06966629 0.039501548 0.066349484 0.04997212 0.07166076 0.07275682
-0.022725103 0.008013986 0.0299744 -0.008197135 0.05265342 -0.01564903 0.018222906 -0.0008175182
0.028678868 0.042738724 -0.044391345 0.002585909 0.013219556 0.00902601 0.018870346 0.036736187
-0.006803733 -0.04266651 0.009189392 -0.013314677 -0.009538065 0.017686194 0.041835073 0.027271098
-0.022593455 -0.0325969 0.0024288746 -0.029507957 -0.009706771 -0.009715037 0.0064241085 -0.017013757
-0.0032118754 -0.08073625 0.041344177 0.06903641 -0.022574652 0.009030839 0.06210547 0.038673997
0.058559656 0.058750935 -0.05053236 -0.004709112 0.009411626 0.001217538 0.039908398 -0.0056759054
0.025003769 0.018738395 0.045445263 -0.009256479 0.034582816 0.018214708 -0.010742532 -0.012251318
-0.021557698 -0.053123377 0.072259784 0.06870765 -0.057520717 0.05422242 -0.025179483 -0.018322948
-0.031466402 0.008564077 -0.010639942 -0.022447342 -0.034973115 -0.017226158 0.00971318 0.034945544
-0.043754406 0.031364206 -0.008498805 -0.07082505 0.027543813 0.024804007 -0.0017277944 0.00029255004
-0.02251337 -0.015113989 0.02680835 -0.04142337 0.02494903 -0.010380697 0.0125394715 -0.00756839
0.025183685 -0.0049398276 0.042402793 0.022872224 0.018382316 -0.00799428 0.0013461404 -0.005257249
0.013104292 -0.007124857 0.030674715 -0.018733129 0.0026890205 -0.004548076 0.043905754 0.028430207
0.054877944 0.043068945 -0.0024722319 0.022751033 0.03526057 -0.021114679 -0.033758614 -0.022771996
0.010014639 0.057630837 0.009010136 0.052919958 0.0038113454 0.03172966 -0.01102204 0.018208602
-0.034457814 0.042466443 0.0076016034 -0.025540179 -0.03229118 0.03684101 -0.019529525 -0.0055818493
0.04502596 0.026975404 -0.07372314 -0.01721348 -0.008550943 -0.028897475 0.0446663 -0.04053136
0.009924716 -0.025004016 0.027492698 -0.051609714 0.030563593 0.013535354 0.0069811875 0.015420001
-0.0045638294 0.014409492 -0.013145234 0.027224721 -0.028638672 -0.020697873 -0.03032574 -0.016162217
-0.014796947 0.07378903 -0.021171082 -0.00062219176 -0.0064860177 0.0051159696 0.0064857113 0.0017283178
-0.026593722 -0.01009094 0.019911489 -0.0016845954 0.02840265 -0.0387222 0.0008334122 -0.019394737
0.031407315 0.006169827 0.035383306 -0.011385601 -0.029179076 0.007795107 0.031085845 0.019921301
0.0069744703 0.013774371 0.0074251723 -0.050862256 0.049311552 0.027080487 -0.0162069 -0.02509402
00000000: 9061 553d a7db 903b 3ad3 90bd 60b2 b9ba
00000010: 5059 1fbd 69c1 a73d bbd5 2b3d 45be da3c
00000020: 7dd6 cbbc a049 fe3b 1ef9 24bd 4f64 36bd
00000030: a5cf 79bd e295 4abd 0c01 b4b8 f06c 1dbc
00000040: eace 51bd f7dc 3e3c ba24 8fbb d396 f238
00000050: 1677 be3c 25d2 543d c4f3 873d fce6 3b3d
00000060: 8b64 83bb 0a07 003c 1367 2fbc 568b d83b
00000070: e093 533d 8110 8abc dcad d33c 618e 96bd
00000080: 7400 a6bc f3a7 85bd 02d7 54bc 3d4e 9d3c
00000090: fd0e fe3c bc2b 443d 2cd3 3dbd 9fd6 8c3d
000000a0: 744e 0f3d 4b9f f33c 18fc 5ebc 50ee b83c
000000b0: de52 eb3c d635 76bc 126f bf3c d518 95bc
000000c0: 2cdb 233d 9f74 783c 4a7e 363c c8fc 933a
000000d0: 7987 09bc eb26 bb3c 7ed2 8cbd cd23 4d3a
000000e0: bd13 55bd c87b 4bbd 4ae0 433b 33ed 7ebc
000000f0: 88b4 f2bc d598 eabc 1640 37bd 7925 80bd
00000100: d9a7 cabb ec42 88bd 33ad 8ebd 60cc 213d
00000110: 3de2 873d 91af 4c3d e0c2 923d 8701 953d
00000120: ff29 babc 184d 033c df8c f53c 474d 06bc
00000130: 1dab 573d 6532 80bc 3448 953c b84e 56ba
00000140: f2ef ea3c cd0e 2f3d b3d3 35bd 5b78 293b
00000150: d696 583c d4e1 133c fc95 9a3c af78 163d
00000160: d9f1 debb 14c3 2ebd 1b8f 163c ce25 5abc
00000170: 8b45 1cbc a3e2 903c 415b 2b3d a367 df3c
00000180: e915 b9bc 5484 05bd c12d 1f3b acba f1bc
00000190: 2609 1fbc d22b 1fbc 5481 d23b 6f60 8bbc
000001a0: 547e 52bb 0c59 a5bd 8358 293d f662 8d3d
000001b0: 7aee b8bc 16f6 133c 4e62 7e3d a068 1e3d
000001c0: 40dc 6f3d d2a4 703d 05fb 4ebd e54e 9abb
000001d0: 3833 1a3c cc95 9f3a fd76 233d f2fc b9bb
000001e0: b4d4 cc3c 4381 993c d024 3a3d 7da8 17bc
000001f0: b6a6 0d3d 0337 953c 7201 30bc c1b9 48bc
00000200: c599 b0bc e697 59bd f0fc 933d 99b6 8c3d
00000210: d89a 6bbd 5418 5e3d 3445 cebc 021a 96bc
00000220: eae2 00bd 5850 0c3c 2753 2ebc 7de3 b7bc
00000230: f83f 0fbd df1d 8dbc 0824 1f3c 0f23 0f3d
00000240: d237 33bd c177 003d 923e 0bbc b90c 91bd
00000250: 90a3 e13c c631 cb3c 2977 e2ba 6761 9939
00000260: f56d b8bc aaa0 77bc 2f9d db3c 8dab 29bd
00000270: e861 cc3c cd13 2abc 5b72 4d3c 4200 f8bb
00000280: 044e ce3c 47de a1bb 8dae 2d3d 885e bb3c
00000290: 8396 963c 71fa 02bc fa70 b03a 0045 acbb
000002a0: 62b3 563c a277 e9bb 8a49 fb3c 3876 99bc
000002b0: 473a 303b 0708 95bb 85d6 333d 77e6 e83c
000002c0: b2c7 603d 1069 303d 2b05 22bb 6060 ba3c
000002d0: 636d 103d b1f8 acbc 7946 0abd 568c babc
000002e0: 7114 243c 500e 6c3d 409f 133c 99c2 583d
000002f0: c4c7 793b f6f6 013d c995 34bc 352a 953c
00000300: a323 0dbd 4bf1 2d3d df16 f93b a339 d1bc
00000310: c243 04bd 99e6 163d 62fc 9fbc f2e7 b6bb
00000320: 246d 383d 86fb dc3c 28fc 96bd 4903 8dbc
00000330: 4119 0cbc 66ba ecbc 03f4 363d 3604 26bd
00000340: 479b 223c 39d5 ccbc 5e38 e13c b564 53bd
00000350: 8060 fa3c 64c3 5d3c 72c2 e43b 2ca4 7c3c
00000360: 2d8c 95bb ca15 6c3c 1c5f 57bc 6106 df3c
00000370: a69b eabc 968e a9bc b06d f8bc a066 84bc
00000380: e56e 72bc b41e 973d fa6e adbc 951a 23ba
00000390: a988 d4bb dda3 a73b 1786 d43b b988 e23a
000003a0: 14db d9bc 7854 25bc 6b1d a33c a4cd dcba
000003b0: adac e83c 2b9b 1ebd 5979 5a3a b6e1 9ebc
000003c0: f5a4 003d 432c ca3b 16ee 103d ac8a 3abc
000003d0: f508 efbc 196e ff3b bea7 fe3c ff31 a33c
000003e0: 198a e43b e6ad 613c dc4e f33b f154 50bd
000003f0: e9fa 493d e6d7 dd3c 55c4 84bc f991 cdbc

fc1.bias f4 [128]
-0.01411223 -0.02629238 -0.030541206 0.0055892346 0.016113637 -0.00042919317 0.025001654 0.0039653885
-0.009366424 -0.020194858 -0.03411885 -0.03282718 0.01501175 0.021227699 -0.019991012 0.0023688897
-0.01454474 -0.030520223 0.0024733534 0.02386932 0.022055285 0.0099670235 0.029169403 -0.0054065394
0.026465097 -0.0015372722 0.030278493 -0.021772658 -0.026498852 0.0017228021 -0.028901856 0.025399294
0.02183442 -0.025029821 0.01766882 0.028440943 0.030710297 -0.027704611 -0.032323617 -0.027622689
-0.015098952 0.033525527 0.009658096 -0.016927648 -0.019949242 -0.0013266174 -0.026270872 -0.03394773
0.017277565 0.02482043 -0.005513581 -0.010125221 0.025435913 -0.028754251 -0.010757845 -0.019653425
-0.009086078 0.031842384 -0.023292556 0.0008660007 0.00030592337 -0.035191294 -0.012882793 -0.011934134
0.004753498 -0.024298599 0.015774656 0.018266212 0.01837177 -0.023641568 -0.011330498 0.031343874
0.0045889853 0.0126674855 -0.00810228 0.014692096 0.029869955 -0.010945221 0.018031608 -0.020480491
-0.036326602 0.003160039 0.015733387 -0.013254258 -0.019223128 0.0030527464 0.029263807 0.02643516
-0.00764042 -0.010623717 0.02060632 0.015193125 0.0044992254 -0.015404555 -0.019127874 -0.0250688
0.030542828 -0.020612095 0.021178314 -0.006801373 0.027089776 0.015986849 0.012207541 -0.03578893
0.0028026318 -0.00089889835 -0.029729446 0.021961411 0.028021328 0.008603202 0.017816562 0.019718828
-0.015090513 -0.022799019 -0.008624807 0.014216293 -0.007418707 -0.02047447 -0.010498057 -0.012591473
-0.0161841 -0.020193249 0.023018213 0.013460926 0.033841748 0.03281111 0.011785639 -0.021069659
00000000: fc36 67bc 1e63 d7bc 8d31 fabc e625 b73b
00000010: bf00 843c 5505 e1b9 45d0 cc3c 17f0 813b
00000020: a175 19bc b06f a5bc 35c0 0bbd cb75 06bd
00000030: d8f3 753c b6e5 ad3c 31c4 a3bc 603f 1b3b
00000040: 104d 6ebc 8c05 fabc fc17 223b 9889 c33c
00000050: 49ad b43c ba4c 233c acf4 ee3c 5729 b1bb
00000060: 55cd d83c 4c7e c9ba 9a0a f83c 935c b2bc
00000070: 1f14 d9bc a5cf e13a 96c3 ecbc 2e12 d03c
00000080: 19de b23c 570b cdbc 34be 903c fbfc e83c
00000090: 2994 fb3c c8f4 e2bc c565 04bd fa48 e2bc
000000a0: 9861 77bc 1052 093d fe3c 1e3c daab 8abc
000000b0: 986c a3bc e5e1 adba 0336 d7bc c60c 0bbd
000000c0: ae89 8d3c 3754 cb3c 45ab b4bb 41e4 25bc
000000d0: fa5e d03c 098e ebbc ac41 30bc 3800 a1bc
000000e0: c6dd 14bc 296d 023d 08d0 bebc 5304 633a
000000f0: 5764 a039 bf24 10bd 5a12 53bc 6387 43bc
00000100: 3bc3 9b3b db0d c7bc da39 813c 06a3 953c
00000110: 6580 963c f6ab c1bc 8ea3 39bc 6f62 003d
00000120: 335f 963b 498b 4f3c 6dbf 04bc 1eb7 703c
00000130: d6b1 f43c 9653 33bc 06b7 933c b4c6 a7bc
00000140: 34cb 14bd a818 4f3b 4ee3 803c 6328 59bc
00000150: d279 9dbc 9610 483b a7ba ef3c 8c8e d83c
00000160: 7d5c fabb 190f 2ebc 96ce a83c 96ec 783c
00000170: 3d6e 933b 6363 7cbc 0fb2 9cbc 165d cdbc
00000180: f434 fa3c b2da a8bc 257e ad3c 0dde debb
00000190: 61eb dd3c daf6 823c 2302 483c 6a97 12bd
000001a0: 5cac 373b 0ca4 6bba 2b8b f3bc 6be8 b33c
000001b0: fc8c e53c 72f4 0c3c 0af4 913c 6189 a13c
000001c0: 333e 77bc 02c5 babc 104f 0dbc 74eb 683c
000001d0: a018 f3bb 13ba a7bc 0b00 2cbc 774c 4ebc
000001e0: 8594 84bc 506c a5bc b190 bc3c 378b 5c3c
000001f0: a59d 0a3d f164 063d 8e18 413c 479a acbc

fc_p.weight f4 [26, 128]
0.0918035 -0.14775614 0.116772875 0.0068195336 0.09592249 0.033270016 0.08062534 0.011978797
0.058146 -5.375462e-08 -0.13162448 0.044565734 -0.032684594 0.07105158 0.06816589 -0.03630479
-0.0417152 -0.05734763 0.043727525 -0.18093416 0.006409799 0.11912308 -0.15571173 -0.012353033
0.039207667 0.07006388 -0.19965729 -0.12163494 0.073903576 0.016491387 0.06663015 -0.0049004517
0.10127071 0.074141085 0.08915769 -0.0027390635 0.11861416 -0.036847215 -0.07351273 0.043080106
-0.021929475 -0.0011048935 -0.17156218 1.2464411e-05 0.020816036 -0.15900618 -0.122284085 -0.042873982
0.047321822 0.1218465 -0.025691764 -0.01000934 -0.17017901 -0.2299409 0.0034877718 0.067115024
-0.04942694 0.058588654 0.005555971 -0.1578129 0.042631947 0.011264013 -0.0064494605 0.07535964
0.03335292 0.043817874 0.0077503645 0.0008525898 -0.100217886 -0.059262082 0.024565844 0.02765505
-0.040108666 -0.13527557 -0.1068471 0.030691152 0.10515471 -0.16662638 0.100443326 0.008082002
-0.06986403 -0.07200442 -0.1043978 -0.058272377 0.01748976 0.07978552 0.0036434408 0.10774508
0.0032048787 -0.1375213 0.066818714 -0.046268966 0.030006874 -0.16277124 -0.17270443 0.04310413
-0.07577563 0.08068036 0.06041659 0.021872476 -0.14987303 -0.048032396 0.14392923 0.036497317
-0.112232335 -0.027233833 -0.054317906 -0.13248508 -0.14515384 0.04135615 0.0151890665 -0.049776606
0.035493135 -0.16074947 0.07842999 -0.03624404 -0.07157496 -0.0013648584 -0.08473558 -0.055086557
0.108540826 0.07539918 -0.01889499 -0.038790494 0.11796404 -0.10813288 -0.063627854 0.128834
0.0399792 -0.071590334 0.13580348 0.04688753 -0.010414624 -0.00094746397 -0.021361025 0.1019279
5.0455375e-05 4.207483e-23 -0.0973276 -0.019871084 -0.0148794595 -0.062312026 -0.03428889 -0.002560005
-0.032927137 -0.074263364 -0.05866057 -0.14633617 0.12793854 0.046308335 -0.12914714 -0.09397794
0.005567522 -0.1732141 0.0009172697 -0.09608807 -0.12458895 0.04161562 0.062297635 0.022167407
0.112579346 -0.081780635 -0.14279072 -0.08076088 0.07666747 0.026208268 -0.07850886 -0.10216211
-0.05515013 0.049923956 0.092653796 1.0076159e-08 0.12104394 -0.14529474 -0.20117934 -0.037446942
0.07300407 0.038187355 0.05780479 -0.0074812984 -0.12337904 0.047237676 -0.025115604 0.12921248
1.1026778e-07 -0.09142125 0.0056229136 -0.12869625 -0.14578138 0.03138813 0.001721672 0.025124198
-0.024421848 0.04488576 0.009039683 -0.1879412 -0.09433638 0.10357798 0.037150245 0.05791373
-0.0497564 -0.05046688 0.0697756 0.03860092 -0.05226676 -0.16856544 0.14011574 -0.089596145
-0.05352236 0.06959481 0.0851129 0.097732805 0.017944703 -0.0679814 -0.07805431 -0.09242462
0.014074974 0.0308383 0.034839336 -0.098994225 -0.05738193 -0.077736385 0.07839438 0.042632323
-0.019214092 -0.0181963 -0.2269076 0.05081382 -0.09555735 0.042598978 -0.15192524 0.10480956
0.091959186 0.06880929 0.07398886 -0.15991482 0.012562254 0.007006303 0.06843137 0.05071188
-0.17935872 0.015021395 0.095169574 -0.029992482 0.05667545 -0.005122251 -0.12596346 -0.10107007
0.06749078 0.08257811 0.035427727 -0.0017736787 -0.06725556 0.0026236784 -0.033342157 -0.069912136
00000000: 7903 bc3d 634d 17be 9e26 ef3d 6576 df3b
00000010: 0373 c43d 2446 083d e61e a53d b742 443c
00000020: 802a 6e3d d4df 66b3 91c8 06be 8f8a 363d
00000030: 48e0 05bd 7e83 913d 8f9a 8b3d 55b4 14bd
00000040: 8fdd 2abd 59e5 6abd a21b 333d ce46 39be
00000050: 4b09 d23b cdf6 f33d e572 1fbe 6064 4abc
00000060: 3898 203d a77d 8f3d f672 4cbe bd1b f9bd
00000070: c25a 973d f218 873c 6375 883d f893 a0bb
00000080: 0567 cf3d 48d7 973d 4f98 b63d dc81 33bb
00000090: fbeb f23d 1bed 16bd d88d 96bd c474 303d
000000a0: 71a5 b3bc 13d2 90ba ffad 2fbe 3d1e 5137
000000b0: 6486 aa3c 84d2 22be 1470 fabd a19c 2fbd
000000c0: 87d4 413d a88a f93d 8977 d2bc 37fe 23bc
000000d0: 6843 2ebe a175 6bbe 1a93 643b 9a73 893d
000000e0: e773 4abd a8fa 6f3d dd0e b63b b499 21be
000000f0: d69e 2e3d b28c 383c ff55 d3bb 2856 9a3d
00000100: 129d 083d 5f7a 333d c5f6 fd3b 5580 5f3a
00000110: 093f cdbd ccbc 72bd 4f3e c93c d88c e23c
00000120: fc48 24bd ae85 0abe a7d2 dabd 036c fb3c
00000130: 5a5b d73d 1ba0 2abe 3bb5 cd3d 606a 043c
00000140: df14 8fbd 0e77 93bd 84ce d5bd 04af 6ebd
00000150: af46 8f3c 9766 a33d cbc6 6e3b 74a9 dc3d
00000160: f108 523b 62d2 0cbe 40d8 883d 8784 3dbd
00000170: fad0 f53c 81ad 26be 6ed9 30be f58d 303d
00000180: 4130 9bbd bf3b a53d 6377 773d e82d b33c
00000190: 5178 19be 9ebd 44bd 2f62 133e 367e 153d
000001a0: 11da e5bd 7d19 dfbc 747c 5ebd 2baa 07be
000001b0: 35a3 14be 1165 293d 90db 783c 8ee2 4bbd
000001c0: 4061 113d 829b 24be e79f a03d a174 14bd
000001d0: e595 92bd 0ce5 b2ba d989 adbd 71a2 61bd
000001e0: a74a de3d e36a 9a3d abc9 9abc c8e2 1ebd
000001f0: 2197 f13d c574 ddbd 524f 82bd 0fed 033e
00000200: 3bc1 233d f49d 92bd 1110 0b3e 230d 403d
00000210: 19a2 2abc 3b5f 78ba 51fd aebc 93bf d03d
00000220: 0ca0 5338 1e76 4b1a b153 c7bd afc8 a2bc
00000230: fac8 73bc e53a 7fbd 8272 0cbd c2c5 27bb
00000240: 9bde 06bd 6417 98bd 1146 70bd 26d9 15be
00000250: 5202 033e cfad 3d3d 263f 04be 8277 c0bd
00000260: c26f b63b 095f 31be ed74 703a d2c9 c4bd
00000270: 7e28 ffbd 2475 2a3d ce2b 7f3d 6c98 b53c
00000280: 0090 e63d 9b7c a7bd bb37 12be f665 a5bd
00000290: d603 9d3d b9b2 d63c 41c9 a0bd 5e3a d1bd
000002a0: 1ae5 61bd 107d 4c3d 46c1 bd3d 6a1b 2d32
000002b0: e3e5 f73d 25c8 14be f501 4ebe f761 19bd
000002c0: 2883 953d 586a 1c3d b7c4 6c3d ae25 f5bb
000002d0: 26ae fcbd 4b7c 413d 3dbf cdbc 4750 043e
000002e0: 5acc ec33 103b bbbd 6b40 b83b f3c8 03be
000002f0: b747 15be d790 003d baa9 e13a 43d1 cd3c
00000300: 5410 c8bc 21da 373d 2e1b 143c a873 40be
00000310: 6f33 c1bd b120 d43d db2a 183d f336 6d3d
00000320: 5ecd 4bbd 5cb6 4ebd 83e6 8e3d 001c 1e3d
00000330: ac15 56bd 6b9c 2cbe 807a 0f3e 2f7e b7bd
00000340: 433a 5bbd b987 8e3d ac4f ae3d 2328 c83d
00000350: c500 933c d539 8bbd f0da 9fbd 1f49 bdbd
00000360: b89a 663c 9aa0 fc3c b1b3 0e3d 7cbd cabd
00000370: 5109 6bbd 4134 9fbd 3c8d a03d 3b9f 2e3d
00000380: df66 9dbc 6810 95bc 775a 68be 2722 503d
00000390: 92b3 c3bd 447c 2e3d 4a92 1bbe 65a6 d63d
000003a0: 1955 bc3d e3eb 8c3d 7987 973d b6c0 23be
000003b0: ead1 4d3c 2195 e53b bf25 8c3d 43b7 4f3d
000003c0: d0a9 37be 4c1c 763c 44e8 c23d cbb2 f5bc
000003d0: 8424 683d 8ed8 a7bb 91fc 00be d3fd cebd
000003e0: 9b38 8a3d b61e a93d aa1c 113d c87a e8ba
000003f0: 48bd 89bd 05f2 2b3b c991 08bd 182e 8fbd

fc_p.bias f4 [26]
0.0013138972 0.033041388 0.022571132 -0.017431848 0.029608926 0.02950117 0.04258727 0.009258568
0.029689906 -0.040109508 0.02668832 -0.056694094 -0.05667584 0.012301532 -0.06996388 0.054738875
-0.026714655 -0.0056429124 0.0932403 0.07168764 -0.08568621 0.07515434 0.06388457 0.072126515
0.016158797 -0.119992256
00000000: 1337 ac3a 6856 073d 18e7 b83c 3ccd 8ebc
00000010: 6b8e f23c 70ac f13c fd6f 2e3d 40b1 173c
00000020: 3f38 f33c de49 24bd 77a1 da3c 1138 68bd
00000030: ed24 68bd 5d8c 493c 3949 8fbd df35 603d
00000040: b1d8 dabc 2ee8 b8bb c5f4 be3d f8d0 923d
00000050: 407c afbd 85ea 993d ead5 823d 11b7 933d
00000060: 745f 843c 80be f5bd

fc_v.weight f4 [1, 128]
0.0008100433 0.023610339 -0.02721825 0.07204936 0.0021728207 -0.038136143 -0.056998633 0.001171226
0.010344478 0.0067599663 0.011577191 0.0035041156 0.040252537 -0.045545254 -0.033568773 0.04551801
0.024837585 0.008855795 -0.01435013 -0.0033043295 -0.0384418 -0.043442346 0.05268154 0.046538364
-0.0026589988 0.00073578116 0.033153784 -0.0023169345 0.0020164838 -0.0310556 -0.028319271 -0.05170376
0.008081353 -0.030356571 0.034412406 0.050204124 -0.011136789 0.06361734 0.01642466 0.005709993
-0.08340084 0.0009808344 0.0051018554 0.03583273 0.059733476 0.008627964 -0.0001011001 0.08806391
-0.005743657 -0.05724628 -0.04817756 0.02855709 0.02377055 0.027917575 -0.040950745 -0.004504349
-0.0010929639 -0.015688283 0.0015419375 -0.005635338 -0.00968953 -0.06718769 0.055570833 -0.071617275
0.088219605 -0.01970636 0.08917182 -0.0042780684 -0.00078817544 -0.06714388 -0.060607646 -0.06633727
-0.04350175 0.021803625 -0.05602414 0.058627006 -0.005828205 -0.019076502 0.007788721 0.07803937
0.017776782 0.00239913 -0.017114168 -0.063331924 -0.004123947 0.016549628 -0.019155111 -0.011666377
0.022070786 -0.0202758 0.03387536 0.026595669 -0.015011563 0.040621795 -0.038689733 -0.0048512146
0.008563886 0.03961964 0.014457758 -0.022128142 -0.03230324 0.06406098 -0.045009945 0.0042408807
0.050340846 -0.04283992 0.016712952 -0.040972337 0.042565394 0.018705064 0.0017568186 0.005301245
-0.017876185 -0.04383219 -0.018914718 -0.0063580577 0.05843259 -0.011757052 -0.009347676 0.043679193
-0.0571247 -0.03500476 0.07171123 0.022791015 0.020642811 0.012336678 0.015048476 -0.01665496
00000000: 1659 543a 786a c13c cff8 debc 9d8e 933d
00000010: e265 0e3b a534 1cbd 6677 69bd d383 993a
00000020: e37b 293c b582 dd3b 42ae 3d3c 4ea5 653b
00000030: d8df 243d a98d 3abd 697f 09bd 1871 3a3d
00000040: 3178 cb3c e517 113c cf1c 6bbc 738d 58bb
00000050: 2675 1dbd 9af0 31bd 99c8 573d 039f 3e3d
00000060: 9942 2ebb 70e1 403a 43cc 073d b6d7 17bb
00000070: fc26 043b 5068 febc d1fd e7bc 52c7 53bd
00000080: a767 043c 58ae f8bc 06f4 0c3d d7a2 4d3d
00000090: 1477 36bc cf49 823d 028d 863c e51a bb3b
000000a0: 0fce aabd 578f 803a 772d a73b 57c5 123d
000000b0: 17ab 743d 4e5c 0d3c b405 d4b8 da5a b43d
000000c0: 4935 bcbb 137b 6abd d555 45bd 8ff0 e93c
000000d0: 75ba c23c 66b3 e43c f8bb 27bd 3899 93bb
000000e0: c841 8fba b784 80bc d61a ca3a a4a8 b8bb
000000f0: d6c0 1ebc b399 89bd 3e9e 633d 14ac 92bd
00000100: 7bac b43d 3b6f a1bc b79f b63d 0a2f 8cbb
00000110: 8f9d 4eba bb82 89bd b93f 78bd d6db 87bd
00000120: e42e 32bd 849d b23c 9279 65bd df22 703d
00000130: 87fa bebb 5346 9cbc 8738 ff3b 1bd3 9f3d
00000140: 9da0 913c b93a 1d3b 0333 8cbc 2bb4 81bd
00000150: 2d22 87bb 1693 873c 2eeb 9cbc 5524 3fbc
00000160: cbcd b43c 6f19 a6bc e4c0 0a3d 29df d93c
00000170: 0ff3 75bc 0a63 263d 2079 1ebd f0f6 9ebb
00000180: 8b4f 0c3c 3448 223d 3be0 6c3c 1446 b5bc
00000190: 6750 04bd 6732 833d 595c 38bd 16f7 8a3b
000001a0: 3432 4e3d e978 2fbd 9ae9 883c 9cd2 27bd
000001b0: 0d59 2e3d 5d3b 993c 0d45 e63a 11b6 ad3b
000001c0: 1471 92bc 6289 33bd 0af3 9abc 4157 d0bb
000001d0: 0357 6f3d a6a0 40bc ff26 19bc f4e8 323d
000001e0: 97fb 69bd 2761 0fbd 56dd 923d 39b4 ba3c
000001f0: 1d1b a93c c71f 4a3c e28d 763c fc6f 88bc
