hw22/293Iters/modelx_291.pth (torch, 452322 bytes, 17 tensors)

conv1.weight f4 [16, 4, 3, 3]
0	0xbd8962ee	-0.067083225
1	0xbe1ed0c1	-0.15509321
2	0xbd1a1440	-0.03761697
3	0xbae7eabc	-0.0017693858
4	0xbdf21029	-0.118194886
5	0x3d93e86e	0.07222067
6	0xbd6d9ad5	-0.058008987
7	0x3e0f98ba	0.14023104
8	0xbdc4fbbb	-0.09618326
9	0xbe003e57	-0.12523781
10	0xbe177bb3	-0.14793281
11	0x3dcf15f8	0.10111612
12	0xbdd93d6a	-0.10607417
13	0x3e10cb34	0.14140016
14	0x3d730de5	0.059339423
15	0xbda482a8	-0.08032733
16	0x3d45e175	0.048310716
17	0x3e1db755	0.15401967
18	0xbd93439e	-0.07190631
19	0x3e1051c1	0.14093687
20	0x3d0ed3fd	0.034870137
21	0x3d69559e	0.056966417
22	0x361603f1	2.2354036e-06
23	0x3d207fc7	0.039184358
24	0xbc2dcd9d	-0.010608104
25	0xbdfe36c2	-0.12412788
26	0x3cfe750f	0.031061677
27	0x939ad3f2	-3.908406e-27
28	0xb4b08fe9	-3.2887263e-07
29	0x2fcb5b36	3.6990294e-10
30	0x11ec9499	3.7325815e-28
31	0xa7193d37	-2.12662e-15
32	0x399b45c1	0.00029615875
33	0x32cd9487	2.3932683e-08
34	0x2dabc8fa	1.95297e-11
35	0x37b33074	2.1361026e-05
36	0x3e018036	0.12646565
37	0xbe153f98	-0.1457504
38	0xbde5b323	-0.11215808
39	0x3e16efe6	0.14739951
40	0xbcb47aac	-0.02203115
41	0xbcd174b6	-0.025568347
42	0x3cdaedc5	0.026724705
43	0xbe01970f	-0.1265528
44	0xbd39fba0	-0.045405984
45	0x3da74419	0.081672855
46	0xbd87522b	-0.06607469
47	0xbdb498a1	-0.08818174
48	0xbd3d1c9e	-0.04616987
49	0x3d4493ad	0.047992397
50	0xbe076019	-0.13220252
51	0x3a5e5b1e	0.00084822054
52	0x3d746c16	0.05967339
53	0xbdafb678	-0.08579725
54	0x3e00dbf1	0.12583901
55	0xbd8a750b	-0.067606054
56	0x3daf65f9	0.085643716
57	0x3dc8bd3c	0.098017186
58	0x3ab6efaa	0.0013956924
59	0xbd8ceebd	-0.06881473
60	0x3c501733	0.012700844
61	0xbe04b3cf	-0.12959217
62	0x3dbc3534	0.09189835
63	0x277a0838	3.4698925e-15
64	0xa896b3ab	-1.6731264e-14
65	0xb97076bf	-0.0002293242
66	0x39bff92f	0.00036616015
67	0x9e4d19b9	-1.0857929e-20
68	0xb3cd9c8f	-9.574534e-08
69	0xba634254	-0.00086692465
70	0x3a684a24	0.00088611455
71	0xa5cab4a0	-3.516381e-16
72	0x3b6c87e1	0.0036091732
73	0x3e5cb815	0.21554597
74	0xbe562bec	-0.20915192
75	0xbd6e3955	-0.058160145
76	0xbdae305e	-0.08505319
77	0xbd9280b2	-0.07153453
78	0x3dec6829	0.115433045
79	0xbd5460e2	-0.051850207
80	0xbd768fc2	-0.060195692
81	0xbc5801e8	-0.013184048
82	0x3da0f1b0	0.07858598
83	0xbe35a26e	-0.17737743
84	0xbcf21981	-0.029553177
85	0x3de18a50	0.11012709
86	0xbce94bcd	-0.028478527
87	0xbde549c5	-0.11195711
88	0xbd530c93	-0.051525664
89	0xbd70490e	-0.05866342
90	0x3d113d4c	0.035458848
91	0xbd92c75a	-0.071669295
92	0xbd10522f	-0.035234626
93	0xbdcadd21	-0.09905458
94	0xb8b374d2	-8.5571446e-05
95	0xbdbe6cc9	-0.09298093
96	0x3b46d225	0.0030337658
97	0xbddee962	-0.10884358
98	0x3cebdf71	0.028793069
99	0x36fdd0ba	7.5642865e-06
100	0x1ea19bfa	1.7111048e-20
101	0xb6958a4f	-4.4566473e-06
102	0x182863fc	2.176397e-24
103	0xba37ab0f	-0.0007006386
104	0x3aacf1b7	0.0013194595
105	0x39163059	0.00014323126
106	0xb860ac61	-5.3566302e-05
107	0xa8895c9c	-1.5250218e-14
108	0x3e42d78f	0.19027542
109	0xbd962ad1	-0.07332385
110	0xbc4427ee	-0.011972411
111	0x3e2c25bc	0.1681127
112	0x3e0275d1	0.12740256
113	0x3a953abd	0.0011385303
114	0xbc926afb	-0.017873278
115	0x3d855892	0.06511034
116	0x3bc6b732	0.006064319
117	0xbd400011	-0.046875063
118	0xbcfde911	-0.030994924
119	0xbdbae8ad	-0.09126411
120	0x3e20d414	0.15705901
121	0x3da470a4	0.08029297
122	0xbd2d9580	-0.042378902
123	0xbdb95f3d	-0.090513684
124	0xbc367574	-0.011136401
125	0xbcb7e5cb	-0.022448441
126	0xbce4e4a9	-0.027941065
127	0x3e121eb5	0.14269526
128	0xbdad5e3a	-0.08465238
129	0xbd0a5f07	-0.03378203
130	0x394d29ba	0.00019565868
131	0x3dec2f4f	0.11532461
132	0xbdf39f81	-0.11895657
133	0x3c977d75	0.01849244
134	0xbc4249cf	-0.011858418
135	0x9ce5a9f9	-1.5197886e-21
136	0x2f8a8acf	2.5200683e-10
137	0xa6079763	-4.70427e-16
138	0x39d37448	0.00040331692
139	0xb62a2b4a	-2.5357172e-06
140	0x170c2a16	4.528956e-25
141	0xbaf8ed8c	-0.0018991693
142	0x364d195e	3.0562146e-06
143	0x3977b2c0	0.00023622345
144	0x3e1eddfb	0.15514366
145	0xbd44693b	-0.047951918
146	0x3d9af209	0.07565696
147	0x3d7de862	0.061989196
148	0x3e284713	0.16433363
149	0x3dbc7d98	0.092036426
150	0xbe1420d5	-0.1446565
151	0x3e020e29	0.12700714
152	0xbce5475a	-0.027988125
153	0x3e05c7ca	0.13064495
154	0x3d9e6e82	0.077359214
155	0x3e28ce7a	0.16485015
156	0x3da221d1	0.07916606
157	0x3d5ac3e6	0.05340948
158	0x3e3f2993	0.18668203
159	0xbd9ee9bc	-0.07759425
160	0x3da22ca2	0.07918669
161	0x3d5abcc4	0.053402677
162	0xbdf4c5bd	-0.11951778
163	0xbd9753a0	-0.07388997
164	0xbd5cc423	-0.053897988
165	0x3e2498ef	0.16073965
166	0xb769a446	-1.392613e-05
167	0xbe395b0e	-0.18101141
168	0xbe0c6e74	-0.1371401
169	0x3e043371	0.12910248
170	0xbc20a3fb	-0.009804721
171	0x12245a60	5.186067e-28
172	0x38713675	5.7509595e-05
173	0x3a2039a8	0.0006112107
174	0x335f5148	5.199516e-08
175	0x30063b86	4.8833504e-10
176	0xba054dfb	-0.00050851674
177	0xb8e71318	-0.00011018495
178	0x393cf7a2	0.00018021328
179	0x385453d3	5.0622806e-05
180	0xbcaf1588	-0.021372572
181	0x3d9dfd52	0.07714333
182	0x3deaba27	0.11461287
183	0x3de6dc79	0.112725206
184	0x3e11e5a0	0.14247751
185	0xbbcc2894	-0.006230423
186	0xbdc57f06	-0.096433684
187	0xbc17cb02	-0.009264709
188	0xbc8733f0	-0.016504258
189	0xbdf79c4e	-0.1209036
190	0x3d15c2c2	0.03656269
191	0xbda3ea69	-0.080036946
192	0xbda09367	-0.07840615
193	0x3e2a1add	0.1661181
194	0xbdcd5e92	-0.100278035
195	0xbd95c791	-0.07313455
196	0xbe0b2ec4	-0.13592058
197	0xbca5583d	-0.020183677
198	0x3c803ebd	0.015654916
199	0xbd8ccb5c	-0.06874725
200	0x3cbda121	0.023148121
201	0xbd2af233	-0.041734885
202	0x39a7dbd8	0.00032016519
203	0x3b94d4bd	0.004541962
204	0xbda7465f	-0.08167719
205	0xbd9ea2e0	-0.0774591
206	0x3df29cd3	0.11846318
207	0x1c001976	4.2384555e-22
208	0x3b1e5054	0.0024156766
209	0x1f07b5ef	2.8737854e-20
210	0x319d3488	4.5752735e-09
211	0x3a572df1	0.0008208445
212	0x1c046d8d	4.3816727e-22
213	0x122cfb0b	5.4583065e-28
214	0xbaadaa72	-0.0013249649
215	0x13b70cd0	4.620833e-27
216	0x3c8c16b2	0.017100666
217	0x3d829d56	0.06377666
218	0x3cff9499	0.031198787
219	0x3bfe42b6	0.0077594174
220	0x3e1c0c49	0.15239061
221	0x3e30fc90	0.17283845
222	0x3e12eb83	0.14347653
223	0xbbbcc4c7	-0.0057607624
224	0xbd97047b	-0.073739015
225	0x3dfaa98b	0.12239369
226	0x3dc751cd	0.09732399
227	0xbd1b9212	-0.0379811
228	0x3dbfec2c	0.09371218
229	0x3d645704	0.055747047
230	0x3de5fb59	0.112295814
231	0x3e309af1	0.17246605
232	0x3df1d5fc	0.118083924
233	0xbde9e39c	-0.11420366
234	0xbe1ccddc	-0.15312904
235	0xbdeea291	-0.11652101
236	0x3e1ce952	0.1532338
237	0xbd44afd8	-0.04801926
238	0xb9b28989	-0.00034053277
239	0xbe276def	-0.1635053
240	0xbdcf313c	-0.101168126
241	0xbdd1cf7c	-0.10244653
242	0xbd2c0823	-0.041999947
243	0x3add7cb5	0.0016898128
244	0x371735e5	9.01285e-06
245	0xb8afe10e	-8.38657e-05
246	0x93c1b64d	-4.8899812e-27
247	0x89cdb575	-4.9522596e-33
248	0x174e3308	6.66266e-25
249	0x3806b469	3.211611e-05
250	0x3a16a830	0.0005747108
251	0xa6090bd1	-4.754744e-16
252	0x3e12102f	0.14263986
253	0x3db55291	0.08853639
254	0x3cfa7e02	0.030577663
255	0x3df07f73	0.11743059

conv1.bias f4 [16]
0	0xb8059a0c	-3.185314e-05
1	0x39635d6d	0.00021683211
2	0x3854c27c	5.0725866e-05
3	0x38c7d0d6	9.527958e-05
4	0x3769be4b	1.3932188e-05
5	0x391f5280	0.00015194155
6	0xb9465707	-0.00018915172
7	0xb8d84723	-0.00010312933
8	0xb987faf6	-0.00025936187
9	0xb825dcd3	-3.9544724e-05
10	0xb88a1ca6	-6.585689e-05
11	0xba917bb8	-0.0011099493
12	0xb88eab16	-6.802955e-05
13	0xbb184b52	-0.0023238254
14	0x386534fc	5.46472e-05
15	0x39a44d05	0.00031337902

bn1.weight f4 [16]
0	0x3f7efab7	0.9960131
1	0x3f812d55	1.0091959
2	0x3f7935a9	0.97347504
3	0x3f854c0b	1.0413831
4	0x3f84fc45	1.0389487
5	0x3f8035d1	1.0016423
6	0x3f81d30a	1.0142529
7	0x3f89520e	1.0728166
8	0x3f788fc8	0.9709439
9	0x3f7bc8d3	0.9835331
10	0x3f771dd3	0.96529883
11	0x3f7b45b5	0.9815324
12	0x3f74a96a	0.95571005
13	0x3f7f1952	0.9964801
14	0x3f73af60	0.95189476
15	0x3f80a416	1.0050075

bn1.bias f4 [16]
0	0x3bb548ec	0.0055323746
1	0x3c9793d2	0.018503103
2	0xbc72d956	-0.014822325
3	0x3cf814f3	0.030283427
4	0xbc5c3c14	-0.013442058
5	0xbbe2b08b	-0.006918018
6	0xbced2a29	-0.028950768
7	0xbcf387fc	-0.029727928
8	0xbbf53a15	-0.0074837306
9	0xbacfef18	-0.0015864102
10	0xbbbe0d18	-0.0057999007
11	0xbca9deee	-0.020736184
12	0xbd4ba14c	-0.04971437
13	0xbc3aac34	-0.0113935955
14	0xbcc6c461	-0.024263563
15	0xbbf8ea2c	-0.007596275

bn1.running_mean f4 [16]
0	0x3c1aac0c	0.009440433
1	0xbcbe32bd	-0.023217553
2	0xbebab909	-0.36469296
3	0x3e19c199	0.15015258
4	0x3de9a60b	0.11408623
5	0xbd99937c	-0.074988335
6	0xbe2755fb	-0.16341393
7	0xbe726c8e	-0.23674223
8	0xbc9a62c5	-0.018845925
9	0x3cb1b8e5	0.02169461
10	0x3ce67061	0.028129758
11	0xbec60ab9	-0.38680056
12	0xbedb1bb4	-0.42794573
13	0x3e503f58	0.20336664
14	0x3c70e0df	0.014702051
15	0xbe8d848e	-0.27640194

bn1.running_var f4 [16]
0	0x3d0d736e	0.03453391
1	0x3d087565	0.03331508
2	0x3cf1a15b	0.029495886
3	0x3c9d7089	0.0192187
4	0x3d11db2d	0.035609413
5	0x3d04445f	0.032291766
6	0x3cfbda95	0.030743876
7	0x3c625fa9	0.0138167525
8	0x3d132c52	0.03593094
9	0x3c888d7f	0.016669033
10	0x3ca02cf2	0.019552682
11	0x3d854aa6	0.06508379
12	0x3d9d22a3	0.07672622
13	0x3d619f2b	0.055083435
14	0x3c28ec23	0.010310206
15	0x3d5e5b0e	0.054286055

conv2.weight f4 [32, 16, 3, 3]
0	0xbd03972b	-0.032126587
1	0xbd95e23f	-0.07318544
2	0x3d7953e2	0.060871013
3	0xbc87efdd	-0.016593868
4	0x3d9e4b89	0.07729251
5	0x3a961a33	0.00114519
6	0xbd6e0114	-0.058106497
7	0x3d44e05f	0.04806554
8	0xbd414999	-0.04718933
9	0x3d22be93	0.039732527
10	0xbd674f87	-0.056472328
11	0x3c19b9ed	0.009382707
12	0xbb191a2c	-0.0023361547
13	0x3d16a8c7	0.036782052
14	0xbd2a5f09	-0.04159454
15	0xbd845f19	-0.06463451
16	0x3cd95632	0.026530359
17	0x3d39c278	0.045351475
18	0xbd0ab829	-0.033867035
19	0xbb64776c	-0.003486122
20	0xbd07b710	-0.033133566
21	0xbd92a653	-0.0716063
22	0xbd4ea53b	-0.050450545
23	0xbd99ce44	-0.07510045
24	0x3b5ff632	0.0034173843
25	0x3d430e01	0.047620777
26	0x3d5352c4	0.051592603
27	0x3d8bf7fa	0.06834407
28	0xbddd0aef	-0.10793101
29	0xbd5fe24c	-0.054659173
30	0x3d9a6820	0.075393915
31	0x3d74058d	0.059575606
32	0xbdbe5d2b	-0.09295114
33	0x3dd85007	0.10562139
34	0x3dc59f01	0.09649468
35	0xbc26c67e	-0.01017916
36	0x3d2b15e9	0.041768942
37	0xbd0f5a28	-0.03499809
38	0xbd299cec	-0.041409418
39	0xbcd51b7a	-0.026014078
40	0xbdc1ea24	-0.09468487
41	0x3c9d995d	0.019238168
42	0x3c25bd82	0.010115983
43	0x3d3961ce	0.04525929
44	0xbd207ce1	-0.039181594
45	0xbca1d30e	-0.019753959
46	0x3d443ba3	0.047908437
47	0x3d72e65d	0.059301723
48	0x3d9c62ed	0.07636056
49	0xbc1a3eb0	-0.00941436
50	0x3dcd5a29	0.10026962
51	0x3dac92e7	0.08426457
52	0xbd8b3987	-0.06798082
53	0x3da6d721	0.08146501
54	0x3d5e88d0	0.054329693
55	0xbd18ac4b	-0.037273686
56	0x3bdf4ff8	0.006814953
57	0xbd84c18e	-0.0648223
58	0xbd2a6124	-0.041596547
59	0xbb9ebc13	-0.0048441975
60	0xbcac6a82	-0.02104688
61	0x3d1328b2	0.035927482
62	0x3d1b8ad1	0.037974183
63	0x3d9ab9c9	0.07554967
64	0x3da16ca4	0.0788205
65	0x3d674b43	0.05646826
66	0xbd5851d1	-0.0528124
67	0x3cbe4a63	0.02322883
68	0xbc8a05ba	-0.016848434
69	0x3b6b45f9	0.0035899861
70	0x3d7a415b	0.061097484
71	0xbd472fd5	-0.0486296
72	0x3d55f8c2	0.052239187
73	0xb9a45c3b	-0.00031349235
74	0x3d5d7db5	0.05407496
75	0xbcb249e4	-0.02176375
76	0xbc119b15	-0.008887072
77	0xbd47745a	-0.048694946
78	0xbc00bb16	-0.007857105
79	0x3d86be54	0.06579271
80	0x3ce71ccb	0.028211972
81	0x3d612079	0.05496261
82	0xba308d67	-0.0006734938
83	0x3d549d73	0.051907968
84	0x3ad53a9c	0.0016268077
85	0xbd9069a7	-0.070514016
86	0xbc21a66f	-0.009866341
87	0x3da1e9cb	0.079059206
88	0xbd8d3e6e	-0.06896673
89	0xbd019d1c	-0.03164397
90	0x3c83ff67	0.016112996
91	0x3d0caaf1	0.03434271
92	0x3d9d329b	0.07675668
93	0x3d93a491	0.07209123
94	0x3d580c7a	0.052746274
95	0x3d7ec947	0.06220367
96	0x3d81ce64	0.06338194
97	0x3d6285c7	0.05530336
98	0x3c9c8ec3	0.019111043
99	0xbccd99ee	-0.025097813
100	0x3de341ef	0.1109656
101	0x3dd3417f	0.10315227
102	0x3c629b9d	0.013831046
103	0x3ca8ed9f	0.020621119
104	0x3c3034e7	0.0107548
105	0xbd033e21	-0.032041673
106	0x3c4399f8	0.0119385645
107	0x3da96e5f	0.08273005
108	0xbcdba1c5	-0.026810536
109	0xbd25c07f	-0.04046678
110	0xbc8fc9b8	-0.017552242
111	0xbcc96794	-0.024585523
112	0x3db09e95	0.08623997
113	0x3d703d5b	0.058652263
114	0x3d9f7dd6	0.07787673
115	0xbdab2081	-0.08355809
116	0x3d11d411	0.035602633
117	0xbc669a50	-0.014074877
118	0x3d0118ab	0.031517666
119	0xbcb76ab4	-0.022389747
120	0x3bd1bdd1	0.0064008017
121	0x3cbe6844	0.023243077
122	0xbc387a17	-0.011259577
123	0xbd32a853	-0.043617558
124	0xb9ae550d	-0.00033251234
125	0xbd156d12	-0.03648097
126	0xbc233ae1	-0.009962768
127	0xbc372cca	-0.011180112
128	0xbccc5558	-0.024943039
129	0x3d7a3556	0.06108602
130	0xbccba863	-0.024860566
131	0x3aa18579	0.0012323103
132	0xbd8c1e3f	-0.068417065
133	0x3d893ea1	0.06701399
134	0xbc9d6159	-0.019211458
135	0x3d912e0c	0.07088861
136	0xbcc7a2b3	-0.024369573
137	0xbd3f960e	-0.046773963
138	0xbd64300a	-0.055709876
139	0x3d8b6ba3	0.068076394
140	0xbd21d8c1	-0.039513353
141	0xbd77a3e6	-0.06045904
142	0xbdbe2de0	-0.09286094
143	0xbd254ff9	-0.04035947
144	0xbd6d2598	-0.05789718
145	0x3d200715	0.039069254
146	0x3d3b6bc0	0.045757055
147	0x3d4b07d5	0.049568016
148	0xbcd6e233	-0.026230907
149	0x3d2eaffb	0.042648297
150	0xbcc467a7	-0.023975207
151	0x3d2f56c4	0.042807356
152	0x3d9e9e79	0.0774507
153	0xbc1e69d3	-0.009668785
154	0xbd7cb323	-0.061694276
155	0x3d475c37	0.048671927
156	0x3c195f13	0.009361046
157	0x3dd489d0	0.10377848
158	0x3d54495a	0.051827766
159	0xbcbc1fa5	-0.022964308
160	0xbd0ecf53	-0.03486569
161	0xbdce355a	-0.1006877
162	0xbd74ec74	-0.05979581
163	0x3cc1d8e2	0.023662988
164	0xbc11aa5e	-0.008890716
165	0xbd0cd979	-0.034387086
166	0xbc86db62	-0.016462032
167	0xbd730c49	-0.059337888
168	0x3d5f774e	0.054557137
169	0xbd22840a	-0.039676704
170	0x3cc769f7	0.02434252
171	0x3bc75108	0.0060826577
172	0x3dad1faa	0.08453305
173	0xbd570fee	-0.052505426
174	0x3d299820	0.041404843
175	0x3d07b498	0.033131212
176	0xbc389b45	-0.011267488
177	0xbd32f0d0	-0.043686688
178	0x3d7f0bac	0.06226699
179	0xbc4ea8da	-0.0126135
180	0x3d861c31	0.06548346
181	0xbdb77c36	-0.08959238
182	0xbd9221bc	-0.071353406
183	0xbc17c337	-0.009262851
184	0x3b467f62	0.0030288328
185	0x3d0ca9e3	0.034341704
186	0xbdb3b666	-0.08775024
187	0xbc78eb47	-0.015192813
188	0xbcef25a4	-0.029192753
189	0x3ca824a8	0.020525292
190	0xbd6a4ea4	-0.057203904
191	0x3d182d55	0.037152607
192	0x3c8c3ed8	0.01711981
193	0xbce94ecb	-0.028479954
194	0x3dc39e73	0.09551706
195	0xbd4df693	-0.05028398
196	0xbd44fff1	-0.048095647
197	0x3c4a74d9	0.01235696
198	0x3cde562a	0.027140696
199	0x3d031357	0.032000866
200	0xbd27748a	-0.040882625
201	0x3bcb076f	0.0061959545
202	0xbd104998	-0.035226434
203	0xbc256230	-0.0100942105
204	0xbc6ac083	-0.014328125
205	0xbbc6c086	-0.006065431
206	0xbbbf4169	-0.005836655
207	0xbdb332f3	-0.08749952
208	0xbda937d3	-0.08262601
209	0x3d8fcc24	0.070213586
210	0xbc1e368b	-0.009656559
211	0x3dfe0593	0.12403407
212	0xbca5180f	-0.020153074
213	0xbd003b92	-0.03130681
214	0x3cf0e580	0.02940631
215	0x3d288a2f	0.041147407
216	0xbcc183c5	-0.023622403
217	0xbca5b1ea	-0.020226438
218	0x3c8fa99b	0.017536929
219	0x3c41ba46	0.011824196
220	0x3de9af31	0.11410368
221	0xbc8e8547	-0.017397536
222	0x3c579120	0.013157159
223	0x3d770ab6	0.06031295
224	0xbba3f52f	-0.0050035934
225	0xbdd0bef5	-0.10192672
226	0xbbcb02e7	-0.0061954143
227	0xbd888b79	-0.06667227
228	0xbcf9e1d3	-0.03050319
229	0x3c1f7909	0.009733447
230	0x3b808c35	0.003922964
231	0x3c1d4cc0	0.009600818
232	0x3b78872e	0.003792237
233	0xbabbf122	-0.0014338831
234	0xbd5ad178	-0.05342242
235	0x3d3bb5a8	0.045827538
236	0xbdb1a721	-0.086744554
237	0xbd6ac1bf	-0.057313677
238	0xbd04d2cb	-0.03242759
239	0x3d25bd5a	0.040463783
240	0x3d0e9686	0.03481152
241	0xbca634d5	-0.020288864
242	0x3b83aed3	0.0040186434
243	0xbc1f6aee	-0.009730084
244	0xbd323c3e	-0.043514483
245	0x3da1cf15	0.07900826
246	0xbcb4109e	-0.02198058
247	0xbbcc1ad7	-0.0062287855
248	0xbc3e7920	-0.011625558
249	0x3d5ef8f5	0.054436643
250	0xbda9e2f8	-0.08295244
251	0xbdbdbf45	-0.092649974
252	0x3b42d673	0.0029729872
253	0xbcfd7307	-0.030938638
254	0xbc701eea	-0.014655808
255	0xbd45683a	-0.0481951

conv2.bias f4 [32]
0	0xb721b22a	-9.63783e-06
1	0x379a0383	1.8359866e-05
2	0xb7829f3f	-1.5571362e-05
3	0x369b6726	4.631368e-06
4	0x36a8653f	5.0185768e-06
5	0x388364ff	6.265379e-05
6	0x38b053f4	8.4079715e-05
7	0xb8044e28	-3.154404e-05
8	0xb735af99	-1.0829325e-05
9	0xb7753f3f	-1.4617864e-05
10	0x375ee3f4	1.3285306e-05
11	0x362aeb85	2.5469064e-06
12	0x37868e81	1.6040403e-05
13	0x372a1e1c	1.01398e-05
14	0x378f9047	1.7114113e-05
15	0x367f9564	3.8084918e-06
16	0xb8bc31c7	-8.97381e-05
17	0xb808f980	-3.265729e-05
18	0x37f7fb6a	2.9561768e-05
19	0x378a0a08	1.6455553e-05
20	0x36cb66c3	6.0618345e-06
21	0xb736f980	-1.0906137e-05
22	0x36894ace	4.0916266e-06
23	0xb7ce13d7	-2.4566352e-05
24	0xb78f67fe	-1.7095354e-05
25	0xb78a1164	-1.645898e-05
26	0x361f1178	2.3703014e-06
27	0xb6611702	-3.3541005e-06
28	0x370683b2	8.017685e-06
29	0x393cce9e	0.00018006048
30	0xb75ecead	-1.3280352e-05
31	0xb55103a1	-7.786385e-07

bn2.weight f4 [32]
0	0x3f8e931a	1.1138642
1	0x3f94790e	1.1599443
2	0x3f94c404	1.1622319
3	0x3f8d1b37	1.102393
4	0x3f8c9156	1.0981853
5	0x3f8c8c96	1.0980403
6	0x3f9185b3	1.1368927
7	0x3f8e2f41	1.1108171
8	0x3f8e36bf	1.1110457
9	0x3f8ef65d	1.1168934
10	0x3f8f31e7	1.1187104
11	0x3f9536e5	1.1657377
12	0x3f8a8c9e	1.0824163
13	0x3f9048f9	1.127227
14	0x3f89f3af	1.0777491
15	0x3f934ddb	1.1508135
16	0x3f94b46f	1.1617564
17	0x3f8f1c95	1.1180598
18	0x3f88c978	1.0686483
19	0x3f8f65cc	1.1202941
20	0x3f8dfaea	1.1092198
21	0x3f8ba007	1.0908211
22	0x3f9188ae	1.1369836
23	0x3f892760	1.0715141
24	0x3f8a81e6	1.0820892
25	0x3f8ae2fa	1.0850518
26	0x3f8b3830	1.0876522
27	0x3f8ec868	1.1154909
28	0x3f9077c2	1.1286547
29	0x3f917df9	1.1366569
30	0x3f8989b9	1.0745155
31	0x3f8ef3ef	1.1168193

bn2.bias f4 [32]
0	0x3d1807a0	0.037116647
1	0x3d2fbc06	0.042903922
2	0x3d9145d1	0.070933945
3	0x3d447b5b	0.047969203
4	0x3d4208d1	0.04737169
5	0x3d17d371	0.03706688
6	0x3d942a8a	0.07234676
7	0x3d1a03f1	0.037601415
8	0x3cb73af8	0.022366986
9	0x3c7a3312	0.015270965
10	0x3d61dea5	0.05514397
11	0x3d37bedf	0.044859763
12	0x3cb09d87	0.02155949
13	0x3d26344b	0.040577214
14	0x3c98ccdb	0.01865237
15	0x3d4dea65	0.050272364
16	0x3d24eee1	0.040266875
17	0x3d115d60	0.03548944
18	0x3c68bfcd	0.014205885
19	0x3d95537f	0.07291316
20	0x3d5d680e	0.054054312
21	0x3d1becf8	0.038067788
22	0x3d9b287a	0.0757608
23	0x3c87a505	0.01655818
24	0x3ce76246	0.028245103
25	0x3d6d6ed2	0.057967015
26	0x3cf23b84	0.029569395
27	0x3d785aeb	0.06063358
28	0x3d33705d	0.04380833
29	0x3d7e4efe	0.06208705
30	0x3cce7444	0.025201924
31	0x3d6e1501	0.0581255

bn2.running_mean f4 [32]
0	0x3e80deec	0.25170076
1	0x3ddc1c24	0.10747555
2	0x3cf061a7	0.02934344
3	0xbe8bc685	-0.27299896
4	0xbe292bf3	-0.16520672
5	0xbccfb6ca	-0.025355715
6	0xbde32e8b	-0.11092862
7	0x3c7d190a	0.015447864
8	0xbe169fab	-0.14709346
9	0xbe28eb12	-0.16495922
10	0xbe8ceb6b	-0.2752336
11	0xbae4a52a	-0.0017444242
12	0x3e195b57	0.1497625
13	0xbe41a1cf	-0.18909381
14	0xbd492480	-0.049107075
15	0xbd2b26c8	-0.04178503
16	0x3d81e068	0.0634163
17	0x3d994d9e	0.074855074
18	0x3eed3dbb	0.4633616
19	0x3df5edca	0.12008245
20	0x3e079ac5	0.13242634
21	0x3ccd2254	0.025040783
22	0x3df2a9a1	0.118487604
23	0x3e206182	0.15662196
24	0x3e90599a	0.2819336
25	0xbc20dc10	-0.009818092
26	0x3e344766	0.17605361
27	0xbe97781f	-0.29583833
28	0x3e30d455	0.17268498
29	0xbe379679	-0.17928495
30	0x3e4e5295	0.2014869
31	0x3e34d641	0.17659856

bn2.running_var f4 [32]
0	0x3e0add48	0.13560975
1	0x3d8e85ba	0.069591
2	0x3dc1ac12	0.09456648
3	0x3d55de21	0.05221379
4	0x3d727bb0	0.05919999
5	0x3d977a0a	0.07396324
6	0x3d8f397b	0.069933854
7	0x3d7778b6	0.060417853
8	0x3db43375	0.08798877
9	0x3d9ee75a	0.077589706
10	0x3d8ba785	0.06819061
11	0x3d9ae04d	0.07562313
12	0x3da5a476	0.08088009
13	0x3d97ebdf	0.07418036
14	0x3d4506c9	0.048102174
15	0x3dbd24bb	0.092355214
16	0x3db5aeac	0.08871207
17	0x3d5b0b00	0.053477287
18	0x3db430ce	0.08798371
19	0x3db168d5	0.08662573
20	0x3db83680	0.0899477
21	0x3dc3e9b1	0.095660575
22	0x3e1a54a8	0.15071356
23	0x3da5cc98	0.08095664
24	0x3d65f4ec	0.05614178
25	0x3da294f7	0.07938569
26	0x3dc132d3	0.09433522
27	0x3dc42050	0.095764756
28	0x3d567b20	0.052363515
29	0x3d926abb	0.071492635
30	0x3db3921a	0.08768101
31	0x3d97c483	0.074105285

fc1.weight f4 [128, 800]
0	0x3d548db9	0.05189297
1	0x3bac8798	0.0052651875
2	0xbd8d7294	-0.0690662
3	0xba57c965	-0.0008231609
4	0xbd163fa4	-0.036681786
5	0x3da74d0a	0.08168991
6	0x3d2ad55e	0.04170739
7	0x3ce20d2a	0.027594168
8	0xbcc889db	-0.024479797
9	0x3c0e1f0c	0.008674394
10	0xbd2220cc	-0.03958206
11	0xbd3de9a3	-0.04636539
12	0xbd78f750	-0.06078273
13	0xbd450e6c	-0.048109457
14	0x3a2194c3	0.000616383
15	0xbc183cf0	-0.009291872
16	0xbd5351d0	-0.051591694
17	0x3c4a59e9	0.012350538
18	0xbb443fe6	-0.0029945313
19	0x3a0a9f1c	0.00052879914
20	0x3cbd27c8	0.023090258
21	0x3d582fed	0.05278008
22	0x3d8331e8	0.06406003
23	0x3d433928	0.04766193
24	0xbb9e1290	-0.00482399
25	0x3bcff7c3	0.006346674
26	0xbbcf8a07	-0.006333593
27	0x3bf153d7	0.007364731
28	0x3d5acca9	0.053417835
29	0xbca51d58	-0.020155594
30	0x3cc926c3	0.024554616
31	0xbd967b03	-0.073476814
32	0xbc90254f	-0.017595915
33	0xbd80c258	-0.06287068
34	0xbc5cca65	-0.013475989
35	0x3ca0f408	0.019647613
36	0x3d047055	0.03233369
37	0x3d446100	0.04794407
38	0xbd41f53f	-0.047353026
39	0x3d8b3190	0.06796563
40	0x3d141837	0.036155906
41	0x3ceeb3a1	0.029138388
42	0xbc677672	-0.014127361
43	0x3cbc22f0	0.022965878
44	0x3cfd5132	0.030922506
45	0xbc9297da	-0.017894674
46	0x3cae6e99	0.021292971
47	0xbc858fbe	-0.016303893
48	0x3d27d809	0.04097751
49	0x3c91f979	0.017819153
50	0x3c5ecd05	0.013598685
51	0x3bb9edd2	0.0056741023
52	0xbc03a173	-0.008034098
53	0x3cbfb49d	0.023401553
54	0xbd8ba58d	-0.06818686
55	0x3a0c51f3	0.00053527876
56	0xbd443977	-0.047906365
57	0xbd427542	-0.047475107
58	0x3b385c4a	0.002813118
59	0xbc83f211	-0.016106637
60	0xbcfb8c25	-0.030706475
61	0xbcf0fb69	-0.029416757
62	0xbd36a4dc	-0.044590816
63	0xbd80e6e8	-0.06294042
64	0xbc0228ea	-0.007944325
65	0xbd881cec	-0.066461414
66	0xbd8e9c24	-0.06963375
67	0x3d259f46	0.040435098
68	0x3d88111a	0.06643887
69	0x3d4fe332	0.05075378
70	0x3d95f836	0.07322733
71	0x3d979970	0.07402313
72	0xbcbcfa5f	-0.023068605
73	0x3bf22b53	0.0073904186
74	0x3cf6ae39	0.030112373
75	0xbc18a3b8	-0.009316377
76	0x3d5ad68a	0.053427257
77	0xbc946b93	-0.018117702
78	0x3c988c4c	0.018621586
79	0x3a81ffbf	0.0009918137
80	0x3cd84a26	0.026402544
81	0x3d2bf31c	0.041979894
82	0xbd4234e8	-0.047413737
83	0x3b91aa82	0.004445375
84	0x3c669a0c	0.014074814
85	0x3bde9f04	0.0067938585
86	0x3cacbd99	0.021086501
87	0x3d14fdc1	0.03637481
88	0xbc042018	-0.008064292
89	0xbd2c7591	-0.042104308
90	0x3c3f8b77	0.011690966
91	0xbc11f33e	-0.008908091
92	0xbc1caedc	-0.009563174
93	0x3c925808	0.017864242
94	0x3d2b744e	0.041858964
95	0x3d04036a	0.03222982
96	0xbcc1f34d	-0.023675585
97	0xbd05bdf6	-0.032651864
98	0x3b9256c4	0.0044659097
99	0xbcdcdd68	-0.026961043
100	0xbbef5933	-0.0073043345
101	0xbc1f65b1	-0.009728835
102	0x3ba2bbf6	0.0049662543
103	0xbc8dd4ac	-0.017313324
104	0xbb802a89	-0.0039113206
105	0xbda94b73	-0.08266344
106	0x3d1cb92e	0.03826254
107	0x3d8b0da9	0.06789715
108	0xbc9fdf97	-0.019515796
109	0x3c284846	0.010271138
110	0x3d80695a	0.06270094
111	0x3d1ef7f6	0.038810693
112	0x3d6c8988	0.057748348
113	0x3d769a21	0.060205583
114	0xbd46fa03	-0.048578274
115	0xbbb5dfc4	-0.0055503566
116	0x3c52def0	0.012870535
117	0x3b4e6353	0.0031492307
118	0x3d26782b	0.040641945
119	0xbbbbd810	-0.0057325438
120	0x3ce10407	0.02746774
121	0x3ca6856a	0.020327289
122	0x3d47109a	0.048599817
123	0xbbf55482	-0.0074868808
124	0x3d21a1bc	0.039460883
125	0x3c9ea5b9	0.019366132
126	0xbc38ad0f	-0.011271729
127	0xbc1fce67	-0.0097538
128	0xbca6cf62	-0.02036256
129	0xbd5e9328	-0.054339558
130	0x3d951a4f	0.072804086
131	0x3d919e26	0.071102425
132	0xbd7718b9	-0.06032631
133	0x3d61fec9	0.055174623
134	0xbcce88f5	-0.02521179
135	0xbc926c71	-0.017873975
136	0xbcfcd964	-0.030865379
137	0x3c363eb3	0.011123347
138	0xbc2c8171	-0.010528908
139	0xbcb8b194	-0.022545613
140	0xbd058e10	-0.032606184
141	0xbc870ce7	-0.016485645
142	0x3c0bf39b	0.008541967
143	0x3d0f1a60	0.034937263
144	0xbd341f30	-0.043975055
145	0x3cfd4ca8	0.030920342
146	0xbc273cbf	-0.010207354
147	0xbd93c2d1	-0.07214893
148	0x3ceb9c18	0.028760955
149	0x3cd06c83	0.025442367
150	0xba9ccd90	-0.0011963118
151	0xbabc5f1e	-0.0014371609
152	0xbcbbd274	-0.0229275
153	0xbc71820b	-0.014740477
154	0x3cd7af29	0.02632864
155	0xbd2773e7	-0.040882017
156	0x3ce2c540	0.027681947
157	0xbc2d3e54	-0.010573942
158	0x3c67a217	0.014137766
159	0xbbaece8f	-0.0053346823
160	0x3cca0c8f	0.024664192
161	0xbb8e3c9a	-0.0043407204
162	0x3d344c6a	0.044018187
163	0x3cc858ad	0.024456346
164	0x3c9f3113	0.01943258
165	0xbc2e9f6f	-0.010658129
166	0x3b0a6345	0.0021116298
167	0xbb9f936a	-0.004869868
168	0x3c58e08c	0.01323713
169	0xbbcc39e8	-0.006232489
170	0x3cfa0c3b	0.03052341
171	0xbca84530	-0.020540804
172	0x3b729530	0.0037015192
173	0xbb9a2638	-0.004704263
174	0x3d349a7f	0.04409265
175	0x3cf20eb8	0.029548034
176	0x3d5dd83b	0.05416129
177	0x3d25f7eb	0.040519636
178	0xbb072465	-0.0020621058
179	0x3caeb910	0.021328479
180	0x3d074adc	0.033030376
181	0xbcb454b2	-0.022013042
182	0xbd0a8aef	-0.033823904
183	0xbcb91e7e	-0.022597548
184	0x3c2130a4	0.009838257
185	0x3d693585	0.056935806
186	0x3c3472ee	0.0110137295
187	0x3d4f3813	0.050590586
188	0x3ba157ba	0.004923788
189	0x3d02838e	0.03186374
190	0xbbf35f90	-0.0074271634
191	0x3c94db7e	0.018171068
192	0xbd16346c	-0.036671087
193	0x3d2ddba1	0.042445783
194	0x3c2e21b2	0.010628151
195	0xbcdbe085	-0.026840458
196	0xbcfbd504	-0.030741222
197	0x3d1790ce	0.03700333
198	0xbc984a30	-0.018590063
199	0xbb15f7d3	-0.002288331
200	0x3d48a307	0.0489836
201	0x3cc698d3	0.024242794
202	0xbd98207e	-0.074280724
203	0xbc9a51b4	-0.018837787
204	0xbc116bc7	-0.008875794
205	0xbcf52030	-0.029922575
206	0x3d320059	0.043457363
207	0xbd2edddf	-0.04269206
208	0x3c116e36	0.008876374
209	0xbcc9e4a8	-0.024645165
210	0x3cec55c9	0.0288495
211	0xbd5fd8ea	-0.054650225
212	0x3cf90198	0.030396268
213	0x3c588d62	0.013217302
214	0x3b9d04c2	0.004791827
215	0x3c7a8efa	0.015292877
216	0xbb5dcd77	-0.003384439
217	0x3c840beb	0.016118964
218	0xbc2c07bb	-0.01049989
219	0x3cdea1cb	0.027176758
220	0xbce9ae89	-0.028525608
221	0xbca6e72c	-0.020373903
222	0xbd038f93	-0.032119345
223	0xbc554603	-0.01301718
224	0xbc73b652	-0.0148750115
225	0x3d9edb66	0.07756691
226	0xbcb31f15	-0.021865407
227	0xba4385b7	-0.0007458585
228	0xbbc579bc	-0.0060264748
229	0x3bf0de79	0.0073507396
230	0x3ba957f9	0.005167958
231	0x3ac03baf	0.0014666225
232	0xbcc8c1de	-0.024506506
233	0xbc284a37	-0.0102716
234	0x3caf1a4f	0.02137485
235	0xb96f9d9f	-0.00022851535
236	0x3ce1b4be	0.027552005
237	0xbd22a5c0	-0.039708853
238	0x3a8eaf86	0.001088605
239	0xbc95993c	-0.018261544
240	0x3cf9c050	0.03048721
241	0x3b83f6a5	0.004027205
242	0x3d19f3c4	0.03758599
243	0xbc37e59f	-0.0112241795
244	0xbce77492	-0.028253827
245	0x3be05cda	0.0068470063
246	0x3ced2015	0.028945962
247	0x3ca62ee5	0.020286033
248	0x3c0d7b64	0.008635376
249	0x3c57232e	0.013130946
250	0x3c157aa7	0.009123481
251	0xbd4e907c	-0.05043076
252	0x3d4e5cb7	0.05038139
253	0x3cee5166	0.029091548
254	0xbc60b5b0	-0.013715193
255	0xbccf1d52	-0.025282536

fc1.bias f4 [128]
0	0xbc6936b4	-0.014234234
1	0xbcd897f0	-0.026439637
2	0xbce82d52	-0.028341923
3	0x3bcdfd8a	0.0062863277
4	0x3c88523d	0.016640777
5	0xb9e099f1	-0.00042839305
6	0x3cc9bc3b	0.024625888
7	0x3ba9e6fb	0.0051850057
8	0xbc18ca8e	-0.009325637
9	0xbca45ade	-0.02006286
10	0xbd063d83	-0.032773506
11	0xbd0629bc	-0.032754645
12	0x3c882f3b	0.016624084
13	0x3ca6a161	0.020340623
14	0xbca78b40	-0.020452142
15	0x3b1ae448	0.0023634601
16	0xbc860856	-0.016361397
17	0xbcf9ad5c	-0.030478172
18	0x3bb2f5a9	0.005461414
19	0x3cc530ee	0.024071183
20	0x3cda245e	0.02662867
21	0x3c0d2360	0.008614391
22	0x3ce7ccca	0.028295893
23	0xbb446486	-0.0029967143
24	0x3cd853bd	0.026407117
25	0xbb4e9017	-0.003151899
26	0x3cf7a684	0.030230768
27	0xbca06353	-0.019578611
28	0xbcd24367	-0.025666906
29	0x3a6e3c14	0.0009087932
30	0xbce19a2b	-0.027539333
31	0x3cc047aa	0.023471672
32	0x3ca7a49c	0.020464234
33	0xbcd209fa	-0.025639523
34	0x3c8664e6	0.016405534
35	0x3ce493ae	0.02790245
36	0x3d047ed0	0.0323475
37	0xbce29996	-0.027661126
38	0xbd0a5e9c	-0.033781633
39	0xbcfcaf06	-0.030845176
40	0xbc77391d	-0.0150893
41	0x3d072d27	0.033002045
42	0x3c475ab3	0.0121676205
43	0xbc8989d0	-0.016789347
44	0xbca4f37d	-0.020135636
45	0xbb867c17	-0.004104148
46	0xbcc7562f	-0.024333088
47	0xbd0c74e1	-0.034291152
48	0x3c9c3ba8	0.019071415
49	0x3cc72dc4	0.024313815
50	0xbb8bd60c	-0.0042674597
51	0xbc246ce6	-0.010035729
52	0x3cc8ff66	0.024535846
53	0xbce7a861	-0.028278532
54	0xbc3008ca	-0.010744283
55	0xbca468dc	-0.020069532
56	0xbc127ca6	-0.008940851
57	0x3d0618b0	0.032738388
58	0xbcbdd4a1	-0.023172678
59	0x3a4cb2db	0.0007808634
60	0xb8038ca3	-3.1363812e-05
61	0xbd0fd3cf	-0.035114106
62	0xbc52f7f2	-0.012876498
63	0xbc437a14	-0.011930961
64	0x3b74ac00	0.0037333965
65	0xbcc61ae3	-0.024182742
66	0x3c791684	0.015203122
67	0x3c95292b	0.018208107
68	0x3c9ff918	0.019527957
69	0xbcc301c9	-0.023804562
70	0xbc52e482	-0.012871863
71	0x3d0a107b	0.033707123
72	0x3bd02d66	0.006353068
73	0x3c457a0f	0.012053027
74	0xbc00a08f	-0.00785078
75	0x3c70967b	0.014684315
76	0x3d034349	0.03204659
77	0xbc42c1ee	-0.011887057
78	0x3c86cd4e	0.016455319
79	0xbcb63401	-0.022241594
80	0xbd147b2c	-0.03625028
81	0x3b55d9fe	0.0032631154
82	0x3c71eb45	0.014765565
83	0xbc3599a5	-0.011083995
84	0xbca169b3	-0.019703722
85	0x3b47bf10	0.0030478872
86	0x3d012ea1	0.03153861
87	0x3ce19b99	0.027540015
88	0xbbf80d38	-0.007569935
89	0xbc1e40c0	-0.009658992
90	0x3c97f6dd	0.01855033
91	0x3c87bc72	0.01656935
92	0x3bad335e	0.0052856645
93	0xbc56d5a5	-0.01311246
94	0xbcaac9b1	-0.020848127
95	0xbcd4de96	-0.025985043
96	0x3cebff22	0.02880818
97	0xbc9c4864	-0.019077487
98	0x3c9ee0dd	0.019394333
99	0xbba9076a	-0.0051583545
100	0x3cd29e43	0.02571023
101	0x3c82cce2	0.015966836
102	0x3c40684f	0.011743619
103	0xbd0b1b8c	-0.033961818
104	0x3b26a409	0.0025427362
105	0xbaa10d26	-0.0012287244
106	0xbcf4931d	-0.029855305
107	0x3cb76a84	0.022389658
108	0x3ced4abb	0.028966298
109	0x3c0cdba0	0.008597285
110	0x3c61920c	0.01376773
111	0x3ca153ce	0.019693282
112	0xbc74b177	-0.014934889
113	0xbcb38353	-0.021913206
114	0xbbf63d43	-0.007514627
115	0x3c682c9f	0.014170795
116	0xbbf30b1a	-0.007417095
117	0xbcb54c96	-0.022131246
118	0xbc188b57	-0.009310565
119	0xbc5a54e2	-0.013325902
120	0xbc63b9b7	-0.013899258
121	0xbca121b1	-0.019669386
122	0x3ca9ae08	0.020712867
123	0x3c3446d5	0.011003216
124	0x3d07ff78	0.03320262
125	0x3d031acc	0.032007977
126	0x3c69493b	0.014238651
127	0xbca08b20	-0.01959759

fc_p.weight f4 [26, 128]
0	0x3db58fd0	0.08865321
1	0xbe19b778	-0.15011394
2	0x3decc440	0.11560869
3	0x3bd9e9d2	0.006650188
4	0x3dc27f4a	0.09496935
5	0x3d07fb9d	0.03319894
6	0x3da81484	0.08207038
7	0x3c371fbf	0.011177002
8	0x3d6cd8de	0.05782401
9	0xb2ff172b	-2.9696443e-08
10	0xbe06b850	-0.13156247
11	0x3d350f26	0.0442039
12	0xbd0db45e	-0.03459584
13	0x3d949de3	0.07256677
14	0x3d8b2953	0.06794991
15	0xbd12b0c8	-0.035813123
16	0xbd2fd331	-0.042926017
17	0xbd6aa121	-0.05728257
18	0x3d2e2c56	0.04252275
19	0xbe3ac236	-0.18238148
20	0x3bb1b8ba	0.0054236325
21	0x3df48079	0.11938567
22	0xbe218bc2	-0.1577597
23	0xbc589f43	-0.013221565
24	0x3d202e9f	0.03910696
25	0x3d8c5e00	0.068538666
26	0xbe4c99fc	-0.19980615
27	0xbdfa1bc1	-0.12212325
28	0x3d94b6cc	0.07261428
29	0x3c89dfc1	0.016830327
30	0x3d8747b8	0.06605476
31	0xbb4cb339	-0.0031234755
32	0x3dd16816	0.10224931
33	0x3d97487e	0.07386874
34	0x3db4a2f0	0.0882014
35	0xbb52532f	-0.0032093038
36	0x3dec0728	0.115248024
37	0xbd15a04b	-0.03652982
38	0xbd955434	-0.07291451
39	0x3d292992	0.04129941
40	0xbcb37309	-0.021905439
41	0x39622ccd	0.00021569729
42	0xbe2f01f8	-0.17090595
43	0x3716c1df	8.985836e-06
44	0x3c9f0423	0.019411152
45	0xbe245a8b	-0.16050164
46	0xbdfc0a36	-0.12306635
47	0xbd32b377	-0.043628182
48	0x3d3d03a4	0.04614605
49	0x3dff5798	0.12467879
50	0xbcd20e8c	-0.025641702
51	0xbc1ab2d8	-0.009442054
52	0xbe2fc9b5	-0.17166789
53	0xbe6f702f	-0.23382638
54	0x3b6306ca	0.0034641498
55	0x3d873c97	0.066033535
56	0xbd484b86	-0.04890015
57	0x3d6e9f3e	0.058257334
58	0x3ba6d4b5	0.0050912746
59	0xbe228f9e	-0.15875098
60	0x3d25590f	0.040368136
61	0x3c2f89e3	0.010714027
62	0xbbd2dd50	-0.006435074
63	0x3d9a0dad	0.0752214
64	0x3d0827de	0.033241145
65	0x3d312a5e	0.043253295
66	0x3bdcd3dc	0.006739123
67	0xba2712f2	-0.00063733675
68	0xbdd056c7	-0.101728015
69	0xbd6f6b33	-0.058451843
70	0x3cc86669	0.024462895
71	0x3cda29d7	0.026631279
72	0xbd2132be	-0.039355032
73	0xbe0d07a1	-0.13772441
74	0xbddbd753	-0.10734429
75	0x3cfabc93	0.030607497
76	0x3dd4e4d0	0.10395205
77	0xbe275fb4	-0.16345102
78	0x3dd227a3	0.10261466
79	0x3bdf8648	0.0068214275
80	0xbd8e951f	-0.06962036
81	0xbd985631	-0.07438315
82	0xbdd8fad2	-0.10594715
83	0xbd798114	-0.060914114
84	0x3c75dc3b	0.01500612
85	0x3da34007	0.079711966
86	0x3bae88c0	0.0053263605
87	0x3dda6667	0.10664063
88	0x3b51b4fc	0.0031998744
89	0xbe0dc904	-0.13846213
90	0x3d870641	0.0659299
91	0xbd445c07	-0.047939327
92	0x3ce9a5a7	0.028521372
93	0xbe26aca8	-0.162768
94	0xbe303d67	-0.17210923
95	0x3d30a04e	0.04312163
96	0xbd9b1367	-0.0757206
97	0x3da69445	0.08133749
98	0x3d7076e7	0.058707144
99	0x3ca8604b	0.020553729
100	0xbe1a7822	-0.1508489
101	0xbd4421cc	-0.047883794
102	0x3e13b386	0.14423952
103	0x3d0e991a	0.034813978
104	0xbde7b057	-0.11312931
105	0xbcd65f13	-0.026168382
106	0xbd609007	-0.054824855
107	0xbe0839fe	-0.13303372
108	0xbe171377	-0.14753519
109	0x3d292b74	0.041301206
110	0x3c7dbcd5	0.015486916
111	0xbd4b7f37	-0.04968187
112	0x3d1794fc	0.037007317
113	0xbe2586ee	-0.16164753
114	0x3d9caf7f	0.07650661
115	0xbd13249c	-0.035923585
116	0xbd928e9f	-0.07156109
117	0xbab14b3f	-0.0013526453
118	0xbdaee164	-0.085390836
119	0xbd6a9893	-0.057274412
120	0x3ddfa5dc	0.10920307
121	0x3d98f327	0.07468253
122	0xbca385d0	-0.019961268
123	0xbd28cf78	-0.041213483
124	0x3df0cb4b	0.11757525
125	0xbde1041f	-0.10987114
126	0xbd83e314	-0.06439796
127	0x3e028745	0.12746914
128	0x3d238ec5	0.039931078
129	0xbd96b1a9	-0.07358105
130	0x3e0b9f15	0.13634904
131	0x3d3b3dd2	0.045713253
132	0xbc27a30f	-0.010231747
133	0xba776b5b	-0.00094382995
134	0xbca9ff88	-0.02075173
135	0x3dd3a6a2	0.10334517
136	0x38525216	5.014435e-05
137	0x1b243e7b	1.358595e-22
138	0xbdcd5a1e	-0.10026954
139	0xbca107db	-0.019657066
140	0xbc79e1a6	-0.015251553
141	0xbd7d8577	-0.06189486
142	0xbd059cbe	-0.032620184
143	0xbb24ffe1	-0.002517693
144	0xbd085cac	-0.033291504
145	0xbd97ad9b	-0.074061595
146	0xbd704e12	-0.058668204
147	0xbe172a94	-0.14762336
148	0x3e02f9a5	0.12790544
149	0x3d3c26f6	0.045935594
150	0xbe06e5c6	-0.13173589
151	0xbdc24ef1	-0.09487713
152	0x3bb54ed7	0.00553308
153	0xbe32537f	-0.17414664
154	0x3b0fc378	0.0021936577
155	0xbdbf4d81	-0.093409546
156	0xbe01c288	-0.12671864
157	0x3d2a4e72	0.041578718
158	0x3d80a4f7	0.062814645
159	0x3ca2f412	0.019891772
160	0x3de6090c	0.11232194
161	0xbda8ef7b	-0.08248802
162	0xbe123d5a	-0.14281216
163	0xbda8d54d	-0.08243809
164	0x3d9c84d8	0.076425254
165	0x3cd08947	0.025456084
166	0xbd9e6232	-0.07733573
167	0xbdcf6be8	-0.10128003
168	0xbd6183ba	-0.055057265
169	0x3d5092f4	0.050921395
170	0x3dc12a27	0.09431868
171	0x31af4256	5.100712e-09
172	0x3df8bb44	0.12145093
173	0xbe166b83	-0.1468945
174	0xbe50304d	-0.20330925
175	0xbd17bdf5	-0.03704639
176	0x3d9803b0	0.07422578
177	0x3d1ee3df	0.038791534
178	0x3d6c0e7b	0.057630997
179	0xbbe6f3f2	-0.0070481235
180	0xbdfe7d91	-0.12426294
181	0x3d4dfd15	0.050290186
182	0xbccd7704	-0.025081165
183	0x3e04ce62	0.12969354
184	0x33b0f559	8.240267e-08
185	0xbdbb5510	-0.09147084
186	0x3ba8fe79	0.0051572886
187	0xbe04ffce	-0.12988207
188	0xbe144571	-0.14479615
189	0x3d0006f5	0.031256635
190	0x3ae10945	0.00171689
191	0x3ccd3640	0.025050282
192	0xbcc4a198	-0.024002835
193	0x3d3511bf	0.044206377
194	0x3c039643	0.008031431
195	0xbe425b92	-0.18980244
196	0xbdbddd81	-0.09270764
197	0x3dd671e0	0.10470939
198	0x3d17da70	0.037073553
199	0x3d6fb63a	0.058523394
200	0xbd45a692	-0.048254557
201	0xbd484bed	-0.048900533
202	0x3d8f06f0	0.06983745
203	0x3d1dbf0a	0.038512267
204	0xbd4ffb30	-0.05077666
205	0xbe2da277	-0.16956507
206	0x3e0feb16	0.14054522
207	0xbdb7d79f	-0.08976673
208	0xbd5a67b9	-0.053321574
209	0x3d9069c2	0.07051422
210	0x3db20eef	0.086942546
211	0x3dcd5560	0.100260496
212	0x3c8b9efa	0.01704358
213	0xbd8b1a18	-0.06792086
214	0xbd9ea14a	-0.07745607
215	0xbdc09abc	-0.09404513
216	0x3c66806d	0.014068705
217	0x3d11ed28	0.03562656
218	0x3d0fc308	0.035098106
219	0xbdcc6d2e	-0.09981762
220	0xbd714dfb	-0.05891226
221	0xbd9ff8b5	-0.07811109
222	0x3da4ea77	0.08052533
223	0x3d2865a7	0.04111257
224	0xbca7ddb9	-0.020491468
225	0xbca0c363	-0.019624418
226	0xbe6a379d	-0.22872777
227	0x3d5d1e59	0.05398402
228	0xbdc70bfe	-0.09719084
229	0x3d2d525b	0.04231487
230	0xbe1cb515	-0.15303452
231	0x3dda9f3e	0.10674904
232	0x3dbb8cb8	0.09157699
233	0x3d86a3d6	0.06574218
234	0x3d9933fd	0.07480619
235	0xbe240140	-0.16016102
236	0x3c964f50	0.018348366
237	0x3be5218c	0.0069925245
238	0x3d8a9e9e	0.06768535
239	0x3d4f3b4f	0.05059367
240	0xbe39819d	-0.1811585
241	0x3c7c3bd4	0.0153951235
242	0x3dc33003	0.09530642
243	0xbcf3d45c	-0.029764347
244	0x3d67e72c	0.056616947
245	0xbba313f9	-0.004976746
246	0xbe011ca3	-0.1260858
247	0xbdd1fe33	-0.10253563
248	0x3d8bfd2d	0.06835399
249	0x3dae1df0	0.08501804
250	0x3d0e757e	0.034780018
251	0xbab2422f	-0.0013600047
252	0xbd8dee46	-0.06930213
253	0x3afd5315	0.0019327129
254	0xbd0d23c3	-0.034457933
255	0xbd8ef147	-0.06979614

fc_p.bias f4 [26]
0	0xba70e20f	-0.0009188959
1	0x3d07a00d	0.03311162
2	0x3cb7cecb	0.022437474
3	0xbc91d4f7	-0.017801745
4	0x3ce162a1	0.02751285
5	0x3cfe806d	0.031067098
6	0x3d33f15c	0.04393135
7	0x3c206954	0.009790737
8	0x3ced17d2	0.028942022
9	0xbd21b799	-0.039481733
10	0x3cda1bfe	0.026624676
11	0xbd70516c	-0.0586714
12	0xbd5bd5c2	-0.053670652
13	0x3c55e5f8	0.013055317
14	0xbd8cb984	-0.06871322
15	0x3d6764de	0.05649268
16	0xbcde4899	-0.027134227
17	0xbb9877b7	-0.004652943
18	0x3dc7e8ff	0.09761237
19	0x3d92bf56	0.07165401
20	0xbdb43ca3	-0.08800628
21	0x3d94d67c	0.07267472
22	0x3d7f8b62	0.062388785
23	0x3d941781	0.072310455
24	0x3c717aeb	0.014738779
25	0xbdf9ac90	-0.12191117

fc_v.weight f4 [1, 128]
0	0x3967b4ea	0.00022097272
1	0x3cb55334	0.0221344
2	0xbcee1f9f	-0.029067812
3	0x3d941bec	0.07231888
4	0x3b8fb24f	0.0043852697
5	0xbd1c281e	-0.038124196
6	0xbd643d0d	-0.055722285
7	0x3b5d640b	0.0033781554
8	0x3c296320	0.010338575
9	0x3bccb849	0.0062475544
10	0x3c5d4333	0.013504791
11	0x3b6599a5	0.0035034206
12	0x3d2e1bce	0.042506985
13	0xbd35dd70	-0.044400632
14	0xbd0f74a6	-0.035023354
15	0x3d3a53bf	0.045490023
16	0x3cc63735	0.024196247
17	0x3c11116a	0.0088542495
18	0xbc895ed8	-0.016768858
19	0xbb7155db	-0.0036824855
20	0xbd1aec59	-0.037823055
21	0xbd36a8e0	-0.044594646
22	0x3d560155	0.052247364
23	0x3d42f110	0.047593176
24	0xbb2e28cb	-0.0026574607
25	0xbb4c12c4	-0.0031139115
26	0x3d0e5485	0.034748573
27	0xbb00e804	-0.0019669542
28	0x3a14bf0c	0.000567422
29	0xbd031439	-0.032001708
30	0xbcec47ac	-0.02884277
31	0xbd4a73f6	-0.049426995
32	0x3bd86120	0.006603375
33	0xbcfb5492	-0.030679975
34	0x3d04cd30	0.032422245
35	0x3d5445e7	0.051824477
36	0xbc5004c3	-0.012696448
37	0x3d823a0b	0.06358727
38	0x3c6c407e	0.014419673
39	0x3bae05a4	0.005310731
40	0xbdaac0b6	-0.08337538
41	0x3b4706d3	0.0030369058
42	0x3bcc8cfd	0.006242393
43	0x3d10838e	0.03528171
44	0x3d6e5eaa	0.058195747
45	0x3b8b0b65	0.0042433017
46	0xb9c2ff50	-0.00037192786
47	0x3db5c61b	0.08875676
48	0xbbf52a95	-0.007481883
49	0xbd6a1ca1	-0.05715621
50	0xbd45521c	-0.04817401
51	0x3ce95b8e	0.02848604
52	0x3cb82550	0.02247873
53	0x3cd35d5d	0.025801355
54	0xbd27a23b	-0.0409262
55	0xbbaddc08	-0.005305771
56	0xba8ea798	-0.0010883687
57	0xbca57e3d	-0.020201797
58	0x3ac77ecf	0.0015220287
59	0xbba0d9db	-0.004908783
60	0xbc042324	-0.008065019
61	0xbd8963e5	-0.067085065
62	0x3d639664	0.055563346
63	0xbd92ab4c	-0.071615785
64	0x3db3b921	0.08775545
65	0xbca135e1	-0.019679012
66	0x3db7eedb	0.08981105
67	0xbb35b389	-0.002772542
68	0xbb6f874c	-0.003654915
69	0xbd868a0b	-0.06569298
70	0xbd777f9d	-0.060424436
71	0xbd8b2fd5	-0.067962326
72	0xbd2d4317	-0.04230031
73	0x3cbdf00c	0.023185752
74	0xbd69da4d	-0.057092953
75	0x3d700fd3	0.05860884
76	0xbbdf336b	-0.0068115494
77	0xbc8cc745	-0.017184863
78	0x3beaf5ae	0.0071704006
79	0x3d9f3794	0.077742726
80	0x3c919829	0.01777275
81	0x3ad25050	0.0016045664
82	0xbca014eb	-0.019541224
83	0xbd861944	-0.06547788
84	0xbba19e62	-0.004932211
85	0x3c878fcd	0.016548062
86	0xbc9d9fd8	-0.019241259
87	0xbc581bc4	-0.013190214
88	0x3cb4e106	0.022079956
89	0xbcb7a85c	-0.022419147
90	0x3cf19a0f	0.029492406
91	0x3ce65b85	0.028119812
92	0xbc5d10bb	-0.013492758
93	0x3d2d587d	0.042320717
94	0xbd2531d3	-0.04033072
95	0xbbb5a059	-0.0055427966
96	0x3bdb9556	0.006701152
97	0x3d23b530	0.039967716
98	0x3c4c2e25	0.012462174
99	0xbcb4beba	-0.022063602
100	0xbcf4a1a6	-0.029862236
101	0x3d8329b1	0.064044364
102	0xbd35ec23	-0.04441465
103	0x3b5204cb	0.0032046314
104	0x3d55492c	0.052071735
105	0xbd2a94ff	-0.041646
106	0x3c83e34a	0.01609959
107	0xbd26b48b	-0.040699523
108	0x3d2ef44d	0.042713452
109	0x3c99382a	0.018703539
110	0x3b77d13d	0.0037813925
111	0x3badb160	0.0053006858
112	0xbc9f0cc1	-0.019415261
113	0xbd322ec0	-0.043501616
114	0xbcb075dd	-0.021540577
115	0xbbcff88e	-0.0063467687
116	0x3d6f5604	0.05843164
117	0xbc26f01b	-0.010189082
118	0xbc474dc3	-0.012164536
119	0x3d288668	0.041143805
120	0xbd75905a	-0.059952118
121	0xbd078f71	-0.03309578
122	0x3d944b40	0.07240915
123	0x3cae5773	0.021281933
124	0x3ca46d99	0.020071791
125	0x3c4d7932	0.012541102
126	0x3c90c05e	0.017669853
127	0xbc935b06	-0.01798774
