hw22/293Iters/modelx_289.pth (torch, 452322 bytes, 17 tensors)

conv1.weight f4 [16, 4, 3, 3]
0	0xbd893809	-0.06700141
1	0xbe1f549c	-0.1555962
2	0xbd148899	-0.036263082
3	0xbb860669	-0.0040901196
4	0xbdf4cea2	-0.119534746
5	0x3d95f591	0.07322229
6	0xbd66bcb4	-0.056332305
7	0x3e102712	0.14077404
8	0xbdc15989	-0.094409056
9	0xbe004e0b	-0.12529771
10	0xbe18e3a5	-0.1493059
11	0x3dcfe16f	0.1015042
12	0xbdd55785	-0.10417084
13	0x3e11ee2a	0.14251009
14	0x3d6b80fc	0.057496056
15	0xbda464a3	-0.080270074
16	0x3d34b1fd	0.044115055
17	0x3e1c6b56	0.1527532
18	0xbd92a975	-0.071612276
19	0x3e0fb4c2	0.14033797
20	0x3d102b6a	0.035197653
21	0x3d6aa79a	0.057288744
22	0xb7cf53cd	-2.4715346e-05
23	0x3d2b6c36	0.041851245
24	0xbc215ce6	-0.009848809
25	0xbdfde053	-0.12396302
26	0x3d03e1f9	0.032197926
27	0x921b15b1	-4.8936113e-28
28	0xb50dbc53	-5.280064e-07
29	0x3068d9a6	8.4710405e-10
30	0x11ab6bd7	2.7045504e-28
31	0xa95fe70e	-4.9716355e-14
32	0x39bd2f49	0.0003608412
33	0x333b96c3	4.3676447e-08
34	0x2e67a312	5.2668155e-11
35	0x37f0a8d9	2.8688855e-05
36	0x3e01ce24	0.12676293
37	0xbe17dd96	-0.14830622
38	0xbde6fdcd	-0.112788774
39	0x3e1665e3	0.14687304
40	0xbcbc68b7	-0.02299915
41	0xbce36d95	-0.027762214
42	0x3cc52908	0.024067417
43	0xbe0040eb	-0.12524764
44	0xbd38998f	-0.04506832
45	0x3da578d5	0.080796875
46	0xbd870364	-0.065924436
47	0xbdb49cf5	-0.08819
48	0xbd39fd90	-0.04540783
49	0x3d514c7a	0.051098324
50	0xbe04192b	-0.12900226
51	0x3b5c0c9d	0.0033576854
52	0x3d7d2336	0.061801158
53	0xbdb931c0	-0.09042692
54	0x3dfdc933	0.12391891
55	0xbd8cf47a	-0.06882568
56	0x3daac592	0.08338465
57	0x3dc3f849	0.09568841
58	0x3ad41783	0.0016181323
59	0xbd9288b5	-0.07154981
60	0x3c5034e1	0.01270792
61	0xbe041514	-0.12898666
62	0x3db8ca66	0.090229794
63	0xa7bac3cc	-5.1837654e-15
64	0xaa06c6b0	-1.1970524e-13
65	0xb993d075	-0.00028193337
66	0x39e82e57	0.00044285014
67	0x1e5e23b1	1.1759963e-20
68	0xb42f0bc1	-1.6302421e-07
69	0xba85772a	-0.0010182608
70	0x3a88520d	0.001040043
71	0xa90867db	-3.0288147e-14
72	0x3b0df691	0.0021661858
73	0x3e5cb2c4	0.21552569
74	0xbe5812a4	-0.21100861
75	0xbd70d4fd	-0.05879687
76	0xbdb1195c	-0.08647415
77	0xbd8ec48f	-0.06971084
78	0x3de97547	0.11399322
79	0xbd4f5815	-0.05062111
80	0xbd6acda2	-0.057325013
81	0xbc3a2236	-0.011360696
82	0x3d9f0e6e	0.07766424
83	0xbe35f933	-0.17770843
84	0xbcfbedbf	-0.030753015
85	0x3de2c25a	0.11072226
86	0xbccbacdd	-0.024862701
87	0xbde54669	-0.1119507
88	0xbd52f17f	-0.05149984
89	0xbd6ac810	-0.0573197
90	0x3d0e83c0	0.034793615
91	0xbd9601f7	-0.073245935
92	0xbd161784	-0.03664352
93	0xbdc99351	-0.098425515
94	0xb92199ac	-0.00015411404
95	0xbdbefc6d	-0.0932549
96	0x3b48de09	0.0030649921
97	0xbddf6f39	-0.10909886
98	0x3cea8b6d	0.028630937
99	0x3731ad4f	1.0590374e-05
100	0x9ee5e81e	-2.434232e-20
101	0xb6d5ff2a	-6.3775997e-06
102	0x9685a12f	-2.158903e-25
103	0xba5945bc	-0.00082882843
104	0x3ac857dd	0.0015284974
105	0x393bc659	0.000179076
106	0xb891a349	-6.944553e-05
107	0xaa065459	-1.1930855e-13
108	0x3e424d0a	0.189747
109	0xbd992da5	-0.07479409
110	0xbc408b17	-0.011751912
111	0x3e2cce91	0.16875674
112	0x3e024f0a	0.12725464
113	0x3ab974b3	0.0014149159
114	0xbc801ce3	-0.015638774
115	0x3d89ce63	0.06728818
116	0x3bb33122	0.0054685036
117	0xbd36d3a5	-0.044635434
118	0xbcecb0bd	-0.02889287
119	0xbdbe0937	-0.09279101
120	0x3e21b5c8	0.15792
121	0x3da01283	0.07816031
122	0xbd2d462b	-0.042303246
123	0xbdbdc16c	-0.09265408
124	0xbc340159	-0.010986649
125	0xbcc0037d	-0.023439163
126	0xbce48262	-0.027894203
127	0x3e0fbb0f	0.14036201
128	0xbdb20f60	-0.08694339
129	0xbd047f7f	-0.032348152
130	0x3914cc96	0.00014190594
131	0x3deb36b6	0.11485045
132	0xbdf0f2f7	-0.11765092
133	0x3c9ed94a	0.01939072
134	0xbc37f8ea	-0.011228779
135	0x1c964038	9.942768e-22
136	0x3022207c	5.898142e-10
137	0x280219b5	7.222024e-15
138	0x39fee3b0	0.00048616296
139	0xb6796607	-3.716328e-06
140	0x169faa1c	2.579519e-25
141	0xbb0e7eea	-0.0021743127
142	0x36951a91	4.4436388e-06
143	0x39981a15	0.00029011132
144	0x3e1d3f19	0.15356101
145	0xbd4c3207	-0.049852397
146	0x3d9d02e5	0.07666568
147	0x3d7b1a62	0.061304457
148	0x3e29fb84	0.16599852
149	0x3dbb9879	0.09159941
150	0xbe1445f9	-0.14479817
151	0x3e015ed2	0.12633827
152	0xbcedf47c	-0.029047243
153	0x3e066115	0.13122971
154	0x3da2cc98	0.079491794
155	0x3e2923a8	0.16517508
156	0x3d9f3d72	0.07775392
157	0x3d41b1f5	0.047288854
158	0x3e40edc1	0.18840696
159	0xbda7b486	-0.08188729
160	0x3d9ad552	0.07560219
161	0x3d4984e4	0.049199
162	0xbdf5737a	-0.11984916
163	0xbd98890f	-0.07448017
164	0xbd5bcc6a	-0.05366174
165	0x3e23dc3f	0.16001986
166	0xb80ec7fa	-3.404168e-05
167	0xbe37516e	-0.17902157
168	0xbe0d58ff	-0.1380348
169	0x3e03654c	0.1283161
170	0xbc062985	-0.00818861
171	0x111982a0	1.2109824e-28
172	0x389bf11b	7.435885e-05
173	0x3a3e6a37	0.0007263752
174	0x33c3ee7c	9.123775e-08
175	0x30974d82	1.1008725e-09
176	0xba1f6a37	-0.0006081196
177	0xb911d560	-0.00013907766
178	0x396a5121	0.00022346202
179	0x3889edc0	6.5769535e-05
180	0xbca60021	-0.020263733
181	0x3d9eaeed	0.07748208
182	0x3def7267	0.116917424
183	0x3de5b87f	0.112168305
184	0x3e114cfc	0.14189523
185	0xbbc6c59d	-0.006066038
186	0xbdc8e927	-0.09810095
187	0xbc12b81b	-0.008955027
188	0xbc8a615b	-0.016892126
189	0xbdf2d391	-0.11856759
190	0x3d1955fd	0.03743552
191	0xbda292bc	-0.079381436
192	0xbda54b88	-0.08071047
193	0x3e2772d8	0.16352403
194	0xbdce7b01	-0.10082055
195	0xbd9b2c4f	-0.075768106
196	0xbe0b4720	-0.13601351
197	0xbc9e12b5	-0.01929603
198	0x3c905a33	0.017621135
199	0xbd88cd17	-0.06679743
200	0x3ccf07e3	0.025272315
201	0xbd2cd3a1	-0.042194013
202	0xb8a5c1c5	-7.9039055e-05
203	0x3b8362f1	0.0040095975
204	0xbdaa9648	-0.08329445
205	0xbda25a90	-0.0792743
206	0x3dee567f	0.116375916
207	0x9b81134d	-2.1353733e-22
208	0x3b33de2a	0.0027445653
209	0x9f303fd7	-3.7322257e-20
210	0x321c83c5	9.110356e-09
211	0x3a7d33f7	0.00096589274
212	0x9b8241f3	-2.1549315e-22
213	0x109c08d2	6.154474e-29
214	0xbac926df	-0.0015346667
215	0x12bee519	1.2047163e-27
216	0x3c814696	0.015780728
217	0x3d7e341d	0.062061418
218	0x3cf42398	0.029802129
219	0x3be08ea9	0.006852944
220	0x3e1f18e1	0.15536834
221	0x3e33df61	0.17565681
222	0x3e11e601	0.14247896
223	0xbba55419	-0.0050454256
224	0xbd966190	-0.07342827
225	0x3dfb9554	0.122843415
226	0x3dcb2d23	0.099207185
227	0xbd1764a2	-0.036961205
228	0x3db9f9e6	0.090808675
229	0x3d65decc	0.05612068
230	0x3de1781c	0.11009237
231	0x3e2dd4cb	0.16975705
232	0x3debc88a	0.11512859
233	0xbdecd9a0	-0.11564946
234	0xbe1d47c9	-0.15359415
235	0xbdefb7e5	-0.11704997
236	0x3e1b7f23	0.15185218
237	0xbd47f3b4	-0.048816398
238	0x374639a1	1.1815137e-05
239	0xbe2804e8	-0.16408122
240	0xbdd17438	-0.10227245
241	0xbdd4f92a	-0.10399087
242	0xbd3058d7	-0.043053474
243	0x3afe8726	0.001941894
244	0x37523206	1.2528622e-05
245	0xb8e03c2b	-0.000106923595
246	0x925ff72c	-7.0671056e-28
247	0x07cd7ea1	3.0919398e-34
248	0x16ff17c3	4.1212468e-25
249	0x3832127d	4.2455726e-05
250	0x3a336aeb	0.000684424
251	0x2808333d	7.560627e-15
252	0x3e14dcd4	0.14537364
253	0x3db573ac	0.08859953
254	0x3d0a6edc	0.03379713
255	0x3df309f9	0.118671365

conv1.bias f4 [16]
0	0xb72f53cb	-1.0450322e-05
1	0x398c9680	0.00026815012
2	0xb78bc082	-1.6659735e-05
3	0x38bcfddb	9.011823e-05
4	0xb9e41b1e	-0.00043507753
5	0x393c363b	0.0001794928
6	0xb7df42e4	-2.661482e-05
7	0xb90781db	-0.00012922978
8	0xb9a1413e	-0.00030756922
9	0xb8381129	-4.3885e-05
10	0xb846ca16	-4.7395086e-05
11	0xbaaadfd1	-0.0013036673
12	0x383687aa	4.351853e-05
13	0xbb2da521	-0.002649613
14	0xb73448c9	-1.0745783e-05
15	0x39b50cfe	0.0003453269

bn1.weight f4 [16]
0	0x3f7e55b4	0.9934952
1	0x3f812034	1.0087953
2	0x3f785f21	0.97020155
3	0x3f855139	1.0415412
4	0x3f84f3e0	1.0386925
5	0x3f805ab3	1.0027679
6	0x3f81939a	1.012317
7	0x3f896ae8	1.073575
8	0x3f78b085	0.9714435
9	0x3f7c184c	0.98474574
10	0x3f778ad1	0.9669619
11	0x3f7b64b4	0.98200536
12	0x3f74d875	0.9564279
13	0x3f7ee3a5	0.9956611
14	0x3f73eebc	0.95286155
15	0x3f80dd16	1.006747

bn1.bias f4 [16]
0	0x3b7a0fb6	0.0038156337
1	0x3c806013	0.015670812
2	0xbc81a3fb	-0.015825262
3	0x3cfc44da	0.03079455
4	0xbc5d9016	-0.013523122
5	0xbbce6648	-0.006298814
6	0xbcf15fb6	-0.029464584
7	0xbce28fb5	-0.027656415
8	0xbbdccf17	-0.006738554
9	0xba861047	-0.001022824
10	0xbbc4ffc4	-0.006011935
11	0xbcad292a	-0.021137793
12	0xbd4442ad	-0.04791515
13	0xbc48e794	-0.012262244
14	0xbcc6178a	-0.024181146
15	0xbbb86a04	-0.0056278724

bn1.running_mean f4 [16]
0	0x3cbe6d34	0.023245431
1	0xbc8b0f7a	-0.016975153
2	0xbeb70343	-0.35744676
3	0x3dfb3414	0.122657925
4	0x3decabe2	0.115562215
5	0xbde31bef	-0.11089312
6	0xbe337e3a	-0.1752862
7	0xbe61891f	-0.22024964
8	0xbd372fd1	-0.044723336
9	0x3ce757a8	0.02824004
10	0x3c22492f	0.009905144
11	0xbeda18a1	-0.42596915
12	0xbee0e576	-0.43925065
13	0x3e60bc40	0.21946812
14	0x3cf218eb	0.029552897
15	0xbe64e1f7	-0.22351824

bn1.running_var f4 [16]
0	0x3d15717f	0.03648519
1	0x3d0d59c5	0.03450944
2	0x3ceb7db8	0.02874647
3	0x3c7c0bcb	0.015383671
4	0x3d12829c	0.03576909
5	0x3cf5dd39	0.030012714
6	0x3cf14bc9	0.029455082
7	0x3c636c66	0.013880825
8	0x3d12e77d	0.035865296
9	0x3c8ebce6	0.017424058
10	0x3c859678	0.0163071
11	0x3d72e24d	0.05929785
12	0x3d96303a	0.07333417
13	0x3d4d0af0	0.05005926
14	0x3c375e30	0.01119189
15	0x3d4c502f	0.049881157

conv2.weight f4 [32, 16, 3, 3]
0	0xbd00ca2e	-0.031442814
1	0xbd90a96e	-0.07063566
2	0x3d7bd91f	0.06148636
3	0xbc9c68f7	-0.01909302
4	0x3d9aae45	0.075527705
5	0xba7ad14b	-0.000956793
6	0xbd6e8660	-0.05823362
7	0x3d3fc2e4	0.04681672
8	0xbd446fd2	-0.047958203
9	0x3d1813ce	0.037128262
10	0xbd6d0c39	-0.057872985
11	0x3be28618	0.006912958
12	0xbb5c8675	-0.0033649479
13	0x3d118178	0.03552386
14	0xbd338881	-0.043831352
15	0xbd855098	-0.06509513
16	0x3cdcb00c	0.026939414
17	0x3d36ae9a	0.044600107
18	0xbd07bdd3	-0.033140015
19	0xbb07d118	-0.0020723995
20	0xbd0d0345	-0.034426946
21	0xbd91b41d	-0.07114432
22	0xbd4e3f0d	-0.0503531
23	0xbd9a5d46	-0.07537322
24	0x3b46acdd	0.0030315437
25	0x3d4edbfd	0.050502766
26	0x3d4f5f50	0.050628006
27	0x3d898cd8	0.06716317
28	0xbddd8dd9	-0.10818071
29	0xbd681380	-0.05665922
30	0x3d971ec6	0.073789164
31	0x3d783f6e	0.060607366
32	0xbdc05273	-0.09390726
33	0x3dd95b90	0.10613167
34	0x3dc6c594	0.09705654
35	0xbc40f0c1	-0.01177615
36	0x3d2c5b94	0.042079523
37	0xbd0e80b9	-0.03479073
38	0xbd2f5154	-0.04280217
39	0xbccab863	-0.024746126
40	0xbdbd1f80	-0.09234524
41	0x3c9f0f57	0.019416494
42	0x3c465d17	0.012107155
43	0x3d415055	0.04719575
44	0xbd200682	-0.039068706
45	0xbca9ddfc	-0.020735733
46	0x3d3d5bc5	0.046230096
47	0x3d6e48c9	0.058174882
48	0x3d9dec68	0.077111065
49	0xbc20b319	-0.009808325
50	0x3dcba4a8	0.09943515
51	0x3dabffcd	0.083983995
52	0xbd8d8345	-0.06909803
53	0x3da721c2	0.08160736
54	0x3d613c45	0.054989118
55	0xbd16bc2f	-0.03680056
56	0x3bf5f559	0.0075060544
57	0xbd82ce3b	-0.063869916
58	0xbd292fdc	-0.041305408
59	0xbbaf6b4f	-0.0053533684
60	0xbcab578a	-0.020915765
61	0x3d11993b	0.035546523
62	0x3d1fd1f3	0.039018583
63	0x3d99cf90	0.075102925
64	0x3da0e5cc	0.0785633
65	0x3d5fe889	0.054665122
66	0xbd5dffb1	-0.054198924
67	0x3cbbaa80	0.02290845
68	0xbc962424	-0.01832778
69	0x3bc4f558	0.0060106926
70	0x3d7d7402	0.06187821
71	0xbd4fbfed	-0.050720144
72	0x3d4aebcc	0.04954128
73	0xbad159fa	-0.001597225
74	0x3d530c94	0.051525667
75	0xbcb75772	-0.022380564
76	0xbbfa7cde	-0.00764428
77	0xbd50a158	-0.05093512
78	0xbbbb8a29	-0.005723257
79	0x3d8bc3f9	0.06824488
80	0x3cf80630	0.030276388
81	0x3d58a2e0	0.052889705
82	0xba473963	-0.0007599799
83	0x3d4acb54	0.049510315
84	0x3acbe55b	0.0015556024
85	0xbd8df922	-0.06932284
86	0xbc24204f	-0.010017469
87	0x3da23c6c	0.07921681
88	0xbd882ff3	-0.066497706
89	0xbcfef305	-0.03112174
90	0x3c87535f	0.016519247
91	0x3d0bd16c	0.034135267
92	0x3d9bc2f6	0.07605545
93	0x3d958413	0.07300582
94	0x3d5df6e2	0.054190524
95	0x3d7f42e6	0.06231966
96	0x3d86e3b9	0.065864034
97	0x3d6dc624	0.05805029
98	0x3cad5812	0.02116016
99	0xbccacca7	-0.024755789
100	0x3de3ba6a	0.1111954
101	0x3dd170c3	0.10226586
102	0x3c664d3a	0.014056498
103	0x3cb0cc36	0.02158175
104	0x3c4d3e7f	0.012527107
105	0xbcf04093	-0.029327666
106	0x3c621f9d	0.0138014825
107	0x3daa6a16	0.083210155
108	0xbcdc22b5	-0.026872018
109	0xbd26af2e	-0.040694408
110	0xbc8a2373	-0.016862607
111	0xbcd2d2ef	-0.025735347
112	0x3dabfb1d	0.083975054
113	0x3d660761	0.05615938
114	0x3da15777	0.07878011
115	0xbda8a90a	-0.08235367
116	0x3d0dde70	0.03463596
117	0xbc66b32b	-0.014080803
118	0x3cf9e31f	0.030503808
119	0xbccb26a3	-0.024798697
120	0x3bb36132	0.005474233
121	0x3cb8dd1a	0.022566367
122	0xbc5b6e97	-0.013393066
123	0xbd323bcd	-0.04351406
124	0x3a0eea5a	0.0005451791
125	0xbd14fee1	-0.036375884
126	0xbc40219c	-0.011726763
127	0xbc432866	-0.011911487
128	0xbcddc325	-0.027070591
129	0x3d78d13e	0.060746424
130	0xbcd08dff	-0.025458334
131	0xb9d3ab21	-0.00040372557
132	0xbd8cbcf7	-0.0687198
133	0x3d887046	0.066620395
134	0xbcb0b2d5	-0.021569649
135	0x3d94eae1	0.07271362
136	0xbcb3613b	-0.021896949
137	0xbd34d2de	-0.04414641
138	0xbd6459f8	-0.055749863
139	0x3d8a8318	0.067632854
140	0xbd1d5124	-0.03840746
141	0xbd74914e	-0.059708886
142	0xbdc164c4	-0.09443048
143	0xbd2b9d49	-0.041898046
144	0xbd72c5a1	-0.059270505
145	0x3d1db2d2	0.038500614
146	0x3d3789da	0.0448092
147	0x3d428883	0.04749347
148	0xbcdf93bc	-0.027292125
149	0x3d2af116	0.041733824
150	0xbcbd114d	-0.023079539
151	0x3d251960	0.040307403
152	0x3d96aab9	0.073567815
153	0xbc2bfd0c	-0.010497343
154	0xbd7c27f2	-0.061561532
155	0x3d4e8560	0.050420165
156	0x3c1871b4	0.009304453
157	0x3dd58fbe	0.10427807
158	0x3d4f99f0	0.050683916
159	0xbcbb017a	-0.022827853
160	0xbd0bea54	-0.03415902
161	0xbdd0b073	-0.10189905
162	0xbd7f3426	-0.062305592
163	0x3cbb57e2	0.022869054
164	0xbc0bc917	-0.00853183
165	0xbd111a75	-0.035425622
166	0xbc75b25e	-0.014996139
167	0xbd692d48	-0.05692795
168	0x3d5f72e8	0.054552943
169	0xbd23996a	-0.03994123
170	0x3ccfb44e	0.02535453
171	0x3bea3a63	0.0071480735
172	0x3dadbe2c	0.08483538
173	0xbd58e9f2	-0.052957483
174	0x3d2e664a	0.04257802
175	0x3d0f6a09	0.035013232
176	0xbc242ec8	-0.010020919
177	0xbd27f4f7	-0.0410051
178	0x3d87c772	0.06629838
179	0xbc60d883	-0.013723495
180	0x3d8b5de3	0.06805017
181	0xbdb5812e	-0.0886253
182	0xbd8cf1f7	-0.06882089
183	0xbbe24604	-0.006905319
184	0x3af68ce0	0.0018810295
185	0x3d0d353f	0.034474608
186	0xbdb0ac03	-0.08626559
187	0xbc55aa42	-0.013041081
188	0xbce4d66d	-0.027934277
189	0x3cb1ff1b	0.02172809
190	0xbd6b7538	-0.057484835
191	0x3d132aa0	0.035929322
192	0x3c826413	0.01591686
193	0xbcdac6cb	-0.02670612
194	0x3dc33eab	0.09533437
195	0xbd4695fd	-0.048482884
196	0xbd551877	-0.052025285
197	0x3c23f4cb	0.010007094
198	0x3ce2d85d	0.02769106
199	0x3d062164	0.032746688
200	0xbd1c571d	-0.038169015
201	0x3bfb70a6	0.007673341
202	0xbd092a70	-0.033487737
203	0xbc2e268f	-0.01062931
204	0xbc702b8b	-0.014658819
205	0xbbb3c4c1	-0.0054861014
206	0xbbbb1177	-0.005708869
207	0xbdb92fcb	-0.09042319
208	0xbda56837	-0.08076518
209	0x3d932c0c	0.07186136
210	0xbc1aaf1c	-0.009441163
211	0x3dfcd68e	0.123456106
212	0xbc9e9d04	-0.01936198
213	0xbd076eca	-0.03306464
214	0x3d007826	0.031364582
215	0x3d2d9f31	0.042388145
216	0xbca778b3	-0.020443296
217	0xbc8fe11a	-0.017563391
218	0x3c9f6936	0.019459348
219	0x3c4ce823	0.012506518
220	0x3de9330c	0.113866895
221	0xbc987b8b	-0.018613597
222	0x3c5c6f25	0.013454233
223	0x3d7980b2	0.06091375
224	0xbb302987	-0.002688022
225	0xbdd31149	-0.10306031
226	0xbb9ed72a	-0.004847427
227	0xbd8b1df4	-0.067928225
228	0xbcf96e30	-0.03044805
229	0x3c233a84	0.009962682
230	0x3b83aff0	0.004018776
231	0x3bf1ecc0	0.007382959
232	0x3aea0345	0.0017853758
233	0xbac08e85	-0.0014690912
234	0xbd56852d	-0.0523731
235	0x3d42aa63	0.047525775
236	0xbdb0cc24	-0.08632687
237	0xbd66a341	-0.056308035
238	0xbd014747	-0.031562116
239	0x3d21f2b4	0.0395381
240	0x3d153bd1	0.036434
241	0xbc90c02b	-0.017669758
242	0x3bd3f148	0.006467972
243	0xbc152eba	-0.009105379
244	0xbd28d93d	-0.0412228
245	0x3da45fe7	0.080261044
246	0xbcb5227c	-0.02211117
247	0xbbeba93e	-0.007191806
248	0xbc358f6f	-0.0110815605
249	0x3d5f82f1	0.054568235
250	0xbda99ebe	-0.08282231
251	0xbdb51a4a	-0.08842905
252	0x3b3e1255	0.0029002626
253	0xbcf73718	-0.030177638
254	0xbc56216f	-0.013069495
255	0xbd522f51	-0.051314656

conv2.bias f4 [32]
0	0xb7cba290	-2.4275185e-05
1	0xb685ef03	-3.9915335e-06
2	0x3682952b	3.8916673e-06
3	0xb7675f01	-1.3790793e-05
4	0x34658c70	2.1378378e-07
5	0xb8e0499d	-0.00010694864
6	0x389b3019	7.399935e-05
7	0xb72c3f31	-1.0266712e-05
8	0xb6fbe973	-7.50756e-06
9	0x35e57ce3	1.7098176e-06
10	0x37416305	1.1526751e-05
11	0xb805b990	-3.188249e-05
12	0xb66ba1d4	-3.5111925e-06
13	0xb710e1dd	-8.635657e-06
14	0xb5ba8691	-1.3897244e-06
15	0x373fb4f9	1.1426623e-05
16	0xb8227e28	-3.8741302e-05
17	0xb704cdad	-7.915701e-06
18	0xb70e4b93	-8.481456e-06
19	0xb72c0da6	-1.0255177e-05
20	0xb5ad526f	-1.2913496e-06
21	0x35baf487	1.3929247e-06
22	0x3532a25b	6.6546426e-07
23	0xb81b3296	-3.700199e-05
24	0xb72234d9	-9.668257e-06
25	0xb761fb0b	-1.3469496e-05
26	0x36acc36e	5.1487505e-06
27	0x37390b01	1.1029421e-05
28	0x37a69fad	1.9863097e-05
29	0xb7b0ae40	-2.1061976e-05
30	0xb7bc8882	-2.2474913e-05
31	0xb73cc9ac	-1.1252629e-05

bn2.weight f4 [32]
0	0x3f8ea6fc	1.114471
1	0x3f946e82	1.1596224
2	0x3f94df41	1.1630632
3	0x3f8ced7e	1.1009977
4	0x3f8c43f6	1.095824
5	0x3f8c6473	1.0968155
6	0x3f914407	1.1348885
7	0x3f8e1fd3	1.1103462
8	0x3f8de6ec	1.1086097
9	0x3f8ef234	1.1167665
10	0x3f8ef340	1.1167984
11	0x3f952452	1.1651709
12	0x3f8a5b2a	1.0809071
13	0x3f8ff663	1.1247066
14	0x3f8a0cfe	1.0785215
15	0x3f92d8de	1.1472433
16	0x3f946edd	1.1596333
17	0x3f8f3fff	1.1191405
18	0x3f889b5a	1.067241
19	0x3f8f2484	1.1183019
20	0x3f8df38b	1.1089948
21	0x3f8b6a45	1.0891806
22	0x3f918ced	1.1371132
23	0x3f88f293	1.0699028
24	0x3f8a40f4	1.0801072
25	0x3f8a9142	1.0825579
26	0x3f8b1ed8	1.0868788
27	0x3f8edf0e	1.1161821
28	0x3f903de3	1.1268886
29	0x3f9144fc	1.1349177
30	0x3f8976c8	1.0739374
31	0x3f8e9957	1.1140546

bn2.bias f4 [32]
0	0x3d196759	0.037452076
1	0x3d351610	0.044210494
2	0x3d955996	0.07292478
3	0x3d420c95	0.04737528
4	0x3d3bf0aa	0.045883812
5	0x3d1791b2	0.03700418
6	0x3d900aa8	0.070332825
7	0x3d1c8d9f	0.038220998
8	0x3cac1e18	0.021010444
9	0x3c8c936d	0.017160142
10	0x3d61aa0a	0.055093803
11	0x3d39b58f	0.045339163
12	0x3ca680f7	0.020325167
13	0x3d224ac3	0.03962208
14	0x3ca78896	0.020450871
15	0x3d4b5938	0.049645633
16	0x3d27de66	0.04098358
17	0x3d1a695d	0.03769814
18	0x3c4a10fa	0.012333149
19	0x3d95192c	0.07280192
20	0x3d5f1a9f	0.054468747
21	0x3d16188e	0.03664451
22	0x3d9a840c	0.07544717
23	0x3c8914ba	0.016733516
24	0x3cdc5294	0.026894845
25	0x3d67b294	0.05656679
26	0x3cf95aa6	0.030438732
27	0x3d8126df	0.06306242
28	0x3d3518f6	0.044213258
29	0x3d7bbcec	0.061459467
30	0x3cca0688	0.024661317
31	0x3d672499	0.056431387

bn2.running_mean f4 [32]
0	0x3e794647	0.24343215
1	0x3ddaf1de	0.10690664
2	0x3d036696	0.032080255
3	0xbe8c78a7	-0.274358
4	0xbe24bab2	-0.16086844
5	0xbd331eb1	-0.04373044
6	0xbe079664	-0.13240963
7	0xbb9881a9	-0.0046541286
8	0xbe0a5691	-0.13509585
9	0xbe32616f	-0.1741998
10	0xbe989119	-0.297982
11	0x3bbc2246	0.0057413904
12	0x3e22b2a4	0.15888458
13	0xbe4b2325	-0.19837625
14	0xbd0c5452	-0.0342601
15	0xbd721211	-0.05909926
16	0x3d17b58f	0.037038382
17	0x3d0a6c33	0.033794593
18	0x3ef33685	0.47502533
19	0x3e0fce7c	0.14043611
20	0x3e12620e	0.14295217
21	0x3c903e96	0.017607968
22	0x3de81110	0.113313794
23	0x3e1b140a	0.15144363
24	0x3e90db18	0.28292155
25	0xbc9ccd5a	-0.019140888
26	0x3e22fc59	0.15916575
27	0xbeabfd9a	-0.3359192
28	0x3e1f04eb	0.1552922
29	0xbe3e7df1	-0.1860273
30	0x3e41dc5c	0.18931717
31	0x3e35862b	0.17726962

bn2.running_var f4 [32]
0	0x3e01ade9	0.12663998
1	0x3d99f805	0.07518009
2	0x3dd3cab7	0.10341399
3	0x3d7b072e	0.061286144
4	0x3d81eb8e	0.063437566
5	0x3d9dd398	0.07706374
6	0x3d806cf0	0.06270778
7	0x3d8412c4	0.06448892
8	0x3db8f236	0.09030573
9	0x3da081b3	0.07837238
10	0x3d70b5f3	0.05876727
11	0x3da972a4	0.08273819
12	0x3d962a4b	0.073322855
13	0x3da7ee08	0.08199698
14	0x3d407415	0.046985704
15	0x3da5f82d	0.081039764
16	0x3db6f86b	0.08934101
17	0x3d446ae9	0.04795352
18	0x3dc02b18	0.093832195
19	0x3dbada89	0.091237135
20	0x3db051e0	0.086093664
21	0x3dab720b	0.08371361
22	0x3e072504	0.13197714
23	0x3d9fe2ae	0.078069076
24	0x3d85e59f	0.065379374
25	0x3d875dd4	0.06609693
26	0x3dd147f9	0.10218806
27	0x3db4e3a4	0.088324815
28	0x3d514389	0.051089797
29	0x3da273f6	0.07932274
30	0x3dcb0e13	0.09914794
31	0x3d9351d5	0.071933426

fc1.weight f4 [128, 800]
0	0x3d51b936	0.05120202
1	0x3b871483	0.0041223182
2	0xbd918e4e	-0.071072206
3	0xbac52267	-0.001504016
4	0xbd1d09a3	-0.03833927
5	0x3da6fdb0	0.08153856
6	0x3d2a6ccd	0.041607667
7	0x3cd57615	0.026057282
8	0xbcc91534	-0.024546243
9	0x3bfb102a	0.007661839
10	0xbd214992	-0.039376803
11	0xbd3e58d0	-0.046471417
12	0xbd7ae193	-0.06125028
13	0xbd4a1a30	-0.04934138
14	0xb95fbd47	-0.00021337449
15	0xbc2cd6bf	-0.010549246
16	0xbd55282a	-0.052040257
17	0x3c38ed03	0.011286977
18	0xbb9684d5	-0.0045934715
19	0xb9286d64	-0.0001606248
20	0x3cb5d421	0.022195878
21	0x3d55300e	0.05204778
22	0x3d846132	0.06463851
23	0x3d3eb0a9	0.046555195
24	0xbbaf942b	-0.005358239
25	0x3bd73aaa	0.0065682726
26	0xbc0e861d	-0.008698967
27	0x3bcac619	0.006188166
28	0x3d54e375	0.051974732
29	0xbc9623ec	-0.018327676
30	0x3cd82526	0.026384901
31	0xbd988646	-0.074474856
32	0xbcaa0885	-0.020756016
33	0xbd82f3a4	-0.06394127
34	0xbc76025b	-0.01501521
35	0x3c96e1ed	0.018418277
36	0x3cf536ae	0.0299333
37	0x3d3e7630	0.04649943
38	0xbd3f0c1a	-0.0466424
39	0x3d89d310	0.0672971
40	0x3d115731	0.035483543
41	0x3ceaf51f	0.028681336
42	0xbc63d08d	-0.013904703
43	0x3cac3a76	0.02102397
44	0x3cf10b3a	0.029424299
45	0xbc8ee1ab	-0.017441591
46	0x3cbe416b	0.023224553
47	0xbc9d6935	-0.019215206
48	0x3d236e41	0.03990007
49	0x3c848e01	0.016180994
50	0x3c42f27f	0.011898636
51	0x3b6d9d37	0.0036257037
52	0xbc1010c1	-0.008793057
53	0x3cb6e79c	0.022327237
54	0xbd8e8a9d	-0.06960032
55	0xba91a45a	-0.0011111603
56	0xbd51406a	-0.05108682
57	0xbd493d48	-0.049130708
58	0x3b386b5f	0.002814017
59	0xbc832ff1	-0.016014071
60	0xbcf87124	-0.030327387
61	0xbcf2dcb9	-0.029646264
62	0xbd3b716a	-0.045762457
63	0xbd833c80	-0.06408024
64	0xbc05af5b	-0.008159484
65	0xbd8af3a8	-0.06784755
66	0xbd918c3f	-0.07106828
67	0x3d21cd89	0.039502654
68	0x3d85f237	0.065403394
69	0x3d497aa1	0.049189214
70	0x3d93037e	0.071784005
71	0x3d92efd9	0.071746536
72	0xbcbade82	-0.022811178
73	0x3bfa3abc	0.007636396
74	0x3cf5fbd9	0.030027317
75	0xbc16b956	-0.009199461
76	0x3d57d4fb	0.05269335
77	0xbc8c060c	-0.017092727
78	0x3c853b94	0.01626376
79	0xba19f076	-0.0005872318
80	0x3cda02cd	0.026612664
81	0x3d2e18d0	0.04250413
82	0xbd3ae452	-0.0456279
83	0x3b0be6bb	0.0021347243
84	0x3c6257e1	0.013814897
85	0x3bf85993	0.0075790375
86	0x3ca13f68	0.019683555
87	0x3d0fba3b	0.035089713
88	0xbbe397fa	-0.0069456073
89	0xbd2f8a94	-0.042856768
90	0x3c2c3a8f	0.010512008
91	0xbc5c21c8	-0.013435788
92	0xbc03a08c	-0.008033883
93	0x3c856534	0.016283609
94	0x3d27a8ec	0.04093258
95	0x3cd4a51c	0.025957637
96	0xbcc36826	-0.023853373
97	0xbd03c60e	-0.0321713
98	0x3b12bad7	0.0022389197
99	0xbcf00544	-0.029299386
100	0xbbf7f156	-0.0075666113
101	0xbc27ca5f	-0.01024112
102	0x3b9910ef	0.004671208
103	0xbc93a54d	-0.018023157
104	0xbb978153	-0.004623571
105	0xbda96e79	-0.08273024
106	0x3d29fbc7	0.04149988
107	0x3d8e4074	0.06945887
108	0xbcb80049	-0.022461073
109	0x3c08c786	0.008348351
110	0x3d7a263f	0.06107163
111	0x3d1eed41	0.03880048
112	0x3d6b109b	0.057388883
113	0x3d6f4824	0.058418408
114	0xbd4b3dcb	-0.049619477
115	0xbbb90813	-0.0056467145
116	0x3c23dbf0	0.010001168
117	0x3a9e4239	0.0012074179
118	0x3d25cf02	0.04048062
119	0xbbccef20	-0.006254092
120	0x3cc9c4da	0.024629999
121	0x3c95ea3f	0.018300174
122	0x3d417f4c	0.04724054
123	0xbc00977f	-0.0078486195
124	0x3d0c3ebf	0.034239527
125	0x3c928411	0.01788524
126	0xbc4812d5	-0.012211521
127	0xbc4d101a	-0.012516046
128	0xbcb3a8f9	-0.021931158
129	0xbd5dce2e	-0.054151706
130	0x3d93e8a8	0.0722211
131	0x3d8e72d3	0.06955495
132	0xbd6eb98b	-0.058282416
133	0x3d5f5178	0.054521054
134	0xbcca961b	-0.024729779
135	0xbc90591c	-0.017620616
136	0xbd057082	-0.032578
137	0x3c122060	0.008918852
138	0xbc26fc5e	-0.010192005
139	0xbcc09992	-0.023510728
140	0xbd0ed033	-0.034866523
141	0xbc88f331	-0.016717525
142	0x3c07d8ac	0.008291405
143	0x3d0fdb0f	0.03512102
144	0xbd391117	-0.045182314
145	0x3cf5bf51	0.029998453
146	0xbc2d66c7	-0.010583586
147	0xbd936a58	-0.07198018
148	0x3ce0230c	0.027360462
149	0x3ccd9428	0.02509506
150	0xbaebe77b	-0.0017998064
151	0xba2707ee	-0.0006371726
152	0xbcc37085	-0.023857364
153	0xbc82237a	-0.015886057
154	0x3cd399d1	0.025830181
155	0xbd2f229b	-0.04275761
156	0x3cd829b5	0.026387075
157	0xbc23d128	-0.009998597
158	0x3c42dcf4	0.0118935
159	0xbbfb98b4	-0.0076781157
160	0x3ccefd4e	0.02526727
161	0xbbacf3a7	-0.005278069
162	0x3d2d4279	0.04229972
163	0x3cb865d5	0.022509495
164	0x3c94ccff	0.018164156
165	0xbc23cd90	-0.00999774
166	0x3b107b66	0.0022046207
167	0xbbba6300	-0.0056880713
168	0x3c499496	0.012303492
169	0xbc0af472	-0.008481132
170	0x3cf63dd3	0.030058777
171	0xbca72da2	-0.020407502
172	0x3b1b1a1f	0.0023666692
173	0xbba30cb4	-0.0049758796
174	0x3d369683	0.044577133
175	0x3ceb18d1	0.028698357
176	0x3d5cb142	0.053879984
177	0x3d2b6e67	0.041853335
178	0xbaff888c	-0.001949565
179	0x3cb68628	0.022280768
180	0x3d11fc0b	0.035640758
181	0xbcab9858	-0.020946667
182	0xbd0cbc66	-0.03435936
183	0xbcc0bebc	-0.02352845
184	0x3c0f0347	0.008728809
185	0x3d6aa888	0.05728963
186	0x3c1cb005	0.009563451
187	0x3d53f9ed	0.05175202
188	0x3b2d6cc6	0.002646254
189	0x3cf78d07	0.030218614
190	0xbc3b598e	-0.011434926
191	0x3c9622d9	0.018327164
192	0xbd124a73	-0.03571553
193	0x3d2969a0	0.041360497
194	0x3c132ea0	0.008983284
195	0xbce38232	-0.027772043
196	0xbd009fd5	-0.031402428
197	0x3d132e05	0.03593256
198	0xbca2c3db	-0.019868782
199	0xbb95ca70	-0.0045712516
200	0x3d3e6d14	0.046490744
201	0x3cd1b062	0.025596801
202	0xbd98861d	-0.07447455
203	0xbc90d79e	-0.01768094
204	0xbc1add55	-0.009452184
205	0xbcf34aca	-0.029698748
206	0x3d373d85	0.044736404
207	0xbd292be3	-0.04130162
208	0x3c138550	0.009003952
209	0xbccf91e2	-0.025338117
210	0x3cdb7470	0.02678892
211	0xbd58ba5f	-0.052912112
212	0x3cef1d86	0.029188883
213	0x3c458386	0.012055283
214	0x3bb325f7	0.0054671722
215	0x3c60f7a4	0.013730917
216	0xbb91f52a	-0.0044542747
217	0x3c581b06	0.013190037
218	0xbc4e5a06	-0.012594705
219	0x3ce05f43	0.027389174
220	0xbceb71d6	-0.028740805
221	0xbcaf3271	-0.021386357
222	0xbd01eb31	-0.031718437
223	0xbc79be43	-0.015243116
224	0xbc8122a5	-0.01576359
225	0x3d9bbb1d	0.076040484
226	0xbcaf9ebb	-0.021437993
227	0xbaf249b1	-0.0018485097
228	0xbbda9e71	-0.0066717197
229	0x3ba0acc0	0.004903406
230	0x3bb39081	0.0054798727
231	0x397d07a7	0.00024130811
232	0xbcdcccf9	-0.026953207
233	0xbc2c59ae	-0.010519428
234	0x3ca279fa	0.019833554
235	0xbb50d7c2	-0.0031866883
236	0x3ce8a250	0.02839771
237	0xbd1ff943	-0.039056074
238	0xba2760a9	-0.0006384948
239	0xbc9b4c64	-0.018957324
240	0x3cf71233	0.030160045
241	0x3b943814	0.0045232866
242	0x3d1140d6	0.035462223
243	0xbc42722d	-0.011868042
244	0xbcf03505	-0.029322157
245	0x3c179db2	0.009253906
246	0x3cebd2fd	0.02878713
247	0x3c9b52a4	0.018960305
248	0x3bdd01ec	0.006744614
249	0x3c732d1f	0.014842301
250	0x3be82cfc	0.0070854407
251	0xbd4e58e8	-0.050377756
252	0x3d4960b9	0.049164508
253	0x3ce8c833	0.028415775
254	0xbc78b75b	-0.015180434
255	0xbcd21930	-0.025646776

fc1.bias f4 [128]
0	0xbc75bf40	-0.014999211
1	0xbcd55d41	-0.026045443
2	0xbcee6ddf	-0.029105125
3	0x3bc1fdde	0.005920156
4	0x3c83960a	0.016062755
5	0xb9e104a3	-0.000429188
6	0x3cd16b19	0.025563763
7	0x3ba79568	0.005114246
8	0xbc197489	-0.009366163
9	0xbca56de9	-0.02019401
10	0xbd097ef4	-0.033568338
11	0xbd06754e	-0.032826714
12	0x3c808c48	0.015691891
13	0x3ca84639	0.020541297
14	0xbc9f8392	-0.019471917
15	0x3b1b3eca	0.0023688548
16	0xbc6b90f6	-0.014377823
17	0xbcfa04fb	-0.030519953
18	0x3bbac6b0	0.005699955
19	0x3ccac357	0.024751348
20	0x3cc6b942	0.02425826
21	0x3c0d646d	0.0086299
22	0x3ce6d46e	0.028177466
23	0xbb8b6cb9	-0.004254904
24	0x3cd8cc8d	0.026464725
25	0xbb3f15cf	-0.0029157286
26	0x3cf9b338	0.030480966
27	0xbcb273dd	-0.021783764
28	0xbce7a04b	-0.028274676
29	0x3aee2398	0.0018168567
30	0xbce1f929	-0.02758463
31	0x3ccd0f67	0.025031758
32	0x3cad0f55	0.021125475
33	0xbcd90b7e	-0.026494738
34	0x3c8ee03c	0.017440908
35	0x3ce4fa88	0.027951494
36	0x3cfa86d0	0.030581862
37	0xbce2f431	-0.02770433
38	0xbd088641	-0.03333116
39	0xbce57937	-0.028011901
40	0xbc776154	-0.015098888
41	0x3d03bf00	0.032164574
42	0x3c2bd366	0.010487413
43	0xbc8aa9fb	-0.016926756
44	0xbc98e0e1	-0.018661918
45	0xbb0e3ccd	-0.002170372
46	0xbcc69771	-0.024242135
47	0xbd0a0ee8	-0.033705622
48	0x3c86520d	0.016396547
49	0x3cc539aa	0.024075348
50	0xbbb4aafc	-0.005513547
51	0xbc25e1d8	-0.010124646
52	0x3cd0c589	0.025484817
53	0xbcec16ea	-0.02881952
54	0xbc30414e	-0.010757757
55	0xbca60e32	-0.02027044
56	0xbc14d9e0	-0.009085149
57	0x3cfda961	0.030964555
58	0xbcbece6a	-0.023291785
59	0x392f1120	0.0001669568
60	0x3a08e01e	0.00052213843
61	0xbd102439	-0.035190795
62	0xbc53122f	-0.012882753
63	0xbc43874e	-0.011934115
64	0x3b95cd21	0.0045715724
65	0xbcc70c4d	-0.024297858
66	0x3c86dd30	0.016462892
67	0x3c9b70ad	0.018974626
68	0x3c979066	0.018501472
69	0xbcbf6bb8	-0.023366794
70	0xbc39a350	-0.011330441
71	0x3d0182e3	0.031618964
72	0x3b864e12	0.004098662
73	0x3c5832a8	0.013195671
74	0xbc05bf0c	-0.008163225
75	0x3c70ce0c	0.014697563
76	0x3cfb112e	0.03064784
77	0xbc4a5d8e	-0.012351407
78	0x3c92276d	0.017841065
79	0xbcafe81a	-0.02147298
80	0xbd14cab0	-0.03632611
81	0x3b795c66	0.0038049459
82	0x3c7a6606	0.015283113
83	0xbc42222b	-0.011848967
84	0xbca1a8ab	-0.019733747
85	0x3b481494	0.0030529844
86	0x3cf0e086	0.029403936
87	0x3cde468b	0.027133247
88	0xbbf84447	-0.0075764987
89	0xbc3a0400	-0.011353493
90	0x3ca66908	0.020313755
91	0x3c7a575b	0.015279616
92	0x3be3943d	0.0069451616
93	0xbc7e76c5	-0.015531247
94	0xbca77a11	-0.020443948
95	0xbcd2d652	-0.025736962
96	0x3cf75692	0.030192647
97	0xbca1b4c3	-0.019739514
98	0x3cadc3d0	0.021211535
99	0xbbda290a	-0.0066577243
100	0x3cde0fd8	0.027107164
101	0x3c82f694	0.015986718
102	0x3c47e61a	0.012200857
103	0xbd1044c8	-0.035221845
104	0x3b6884e6	0.0035479604
105	0xba9b0980	-0.0011828393
106	0xbcf14474	-0.029451586
107	0x3cbca1fb	0.023026457
108	0x3cf3654c	0.029711388
109	0x3c0cf449	0.008603164
110	0x3c880924	0.016605921
111	0x3ca18908	0.019718662
112	0xbc83d044	-0.01609052
113	0xbcb10bdd	-0.021612102
114	0xbbf8b3c3	-0.0075897886
115	0x3c68ea39	0.014215999
116	0xbbf31884	-0.007418694
117	0xbcb71519	-0.022348927
118	0xbc2a08ca	-0.010378072
119	0xbc3cd9a2	-0.011526497
120	0xbc685724	-0.014180932
121	0xbcaab28f	-0.020837096
122	0x3cc45c0e	0.023969676
123	0x3c421512	0.011845844
124	0x3d03bc28	0.03216186
125	0x3d059784	0.0326152
126	0x3c50c29d	0.012741712
127	0xbcada5ab	-0.02119716

fc_p.weight f4 [26, 128]
0	0x3db9131d	0.09036849
1	0xbe189858	-0.14901865
2	0x3df091df	0.11746573
3	0x3be000b9	0.0068360236
4	0x3dc32515	0.09528557
5	0x3d0845a9	0.033269558
6	0x3da66c5f	0.08126139
7	0x3c3757c6	0.01119036
8	0x3d6e2858	0.058143944
9	0xb366430f	-5.3612037e-08
10	0xbe072d54	-0.13200885
11	0x3d368822	0.04456342
12	0xbd055365	-0.032550234
13	0x3d919476	0.07108395
14	0x3d8c29d2	0.06843914
15	0xbd14b10f	-0.03630167
16	0xbd2c94f5	-0.042134244
17	0xbd6ae4e8	-0.05734721
18	0x3d2c6237	0.042085852
19	0xbe39580c	-0.18099993
20	0x3bcd191e	0.0062590977
21	0x3df3a839	0.1189732
22	0xbe20714e	-0.15668222
23	0xbc5262ca	-0.012840936
24	0x3d20978a	0.03920702
25	0x3d8d91e7	0.06912594
26	0xbe4c0c4f	-0.1992657
27	0xbdf99287	-0.12186151
28	0x3d94b85b	0.072617255
29	0x3c802f50	0.01564756
30	0x3d88485a	0.06654425
31	0xbbbe5c4f	-0.005809344
32	0x3dcf6251	0.10126174
33	0x3d9570dd	0.072969176
34	0x3db45662	0.08805539
35	0xbb99367c	-0.0046756845
36	0x3df0b027	0.117523484
37	0xbd16eafa	-0.036845185
38	0xbd95b063	-0.07309034
39	0x3d2a7282	0.04161311
40	0xbcb3a51f	-0.021929322
41	0xbb07a06c	-0.0020694984
42	0xbe302091	-0.17199923
43	0x3750c365	1.244326e-05
44	0x3ca9145d	0.020639593
45	0xbe2380db	-0.15967123
46	0xbdfbb2db	-0.12289973
47	0xbd2f37eb	-0.042777937
48	0x3d3f80a5	0.046753544
49	0x3dfaa0bd	0.1223769
50	0xbcd276db	-0.02569144
51	0xbc23ef52	-0.010005789
52	0xbe2e8417	-0.17042576
53	0xbe6beaec	-0.23038834
54	0x3b64908f	0.0034876203
55	0x3d88dfa3	0.0668328
56	0xbd4a7066	-0.049423598
57	0x3d6e846c	0.058231756
58	0x3bb5f681	0.005553067
59	0xbe2199a7	-0.1578127
60	0x3d253991	0.040338103
61	0x3c387e35	0.011260559
62	0xbbd35538	-0.006449368
63	0x3d9a55b2	0.07535876
64	0x3d090b82	0.03345824
65	0x3d33769f	0.043814298
66	0x3bf5f122	0.007505552
67	0xba0898a4	-0.00052107335
68	0xbdd15a77	-0.10222333
69	0xbd71f6ff	-0.059073444
70	0x3cc93cf1	0.024565192
71	0x3ce1f68d	0.027583385
72	0xbd251757	-0.04030546
73	0xbe0b9dea	-0.13634458
74	0xbdda413a	-0.10656972
75	0x3cfb81c2	0.030701522
76	0x3dd66e8d	0.10470305
77	0xbe299d73	-0.16563968
78	0x3dce76a0	0.1008122
79	0x3c098653	0.008393842
80	0xbd8f140d	-0.06986246
81	0xbd95121d	-0.072788455
82	0xbdd74f17	-0.10513132
83	0xbd73fff9	-0.059570286
84	0x3c885cf1	0.01664588
85	0x3da36659	0.07978506
86	0x3b213772	0.0024599698
87	0x3ddafb19	0.10692424
88	0x3b520d34	0.0032051327
89	0xbe0d9bcb	-0.13828962
90	0x3d87b612	0.06626524
91	0xbd4355d7	-0.047689285
92	0x3ce99cca	0.028517146
93	0xbe260815	-0.1621402
94	0xbe2f5a0d	-0.17124195
95	0x3d30fc9a	0.04320965
96	0xbd9bcb6b	-0.07607158
97	0x3da46e76	0.08028881
98	0x3d719c8d	0.05898719
99	0x3cadadb1	0.021200987
100	0xbe1992bb	-0.1499738
101	0xbd44bc9e	-0.048031442
102	0x3e132745	0.14370449
103	0x3d13d851	0.036094967
104	0xbde76069	-0.11297686
105	0xbcd4c415	-0.025972405
106	0xbd5f7769	-0.054557238
107	0xbe07cafd	-0.13261028
108	0xbe15e473	-0.14637928
109	0x3d2964b2	0.041355796
110	0x3c737003	0.014858249
111	0xbd4be1ea	-0.049775995
112	0x3d1212a0	0.035662293
113	0xbe24bbed	-0.16087313
114	0x3d9eb646	0.0774961
115	0xbd14727b	-0.03624199
116	0xbd9295d9	-0.071574874
117	0xbac1b44c	-0.0014778464
118	0xbdad3cee	-0.08458887
119	0xbd667032	-0.05625934
120	0x3ddfaaf5	0.10921279
121	0x3d983dd8	0.07433671
122	0xbc99d255	-0.018777052
123	0xbd24a9c2	-0.040200956
124	0x3defca3d	0.11708496
125	0xbde0ed68	-0.10982782
126	0xbd8318ca	-0.064012125
127	0x3e033239	0.12812127
128	0x3d21f6cb	0.039542
129	0xbd932cfa	-0.07186313
130	0x3e0b24a6	0.13588199
131	0x3d40b069	0.047043238
132	0xbc2a7e24	-0.010406051
133	0xba785dab	-0.0009474407
134	0xbcb81b00	-0.022473812
135	0x3dcf8b82	0.10134031
136	0x38539de8	5.0453382e-05
137	0x1a4eacd8	4.2739424e-23
138	0xbdcaa1f2	-0.0989417
139	0xbca2c5cf	-0.019869713
140	0xbc801098	-0.015632913
141	0xbd7e1672	-0.062033124
142	0xbd0ccd02	-0.0343752
143	0xbb27c138	-0.0025597345
144	0xbd097288	-0.03355649
145	0xbd9816b5	-0.07426206
146	0xbd73b86e	-0.059502058
147	0xbe167d4f	-0.14696239
148	0x3e02e73d	0.12783523
149	0x3d3a9e8e	0.045561366
150	0xbe042180	-0.12903404
151	0xbdbfc29c	-0.09363291
152	0x3bb66de7	0.0055673006
153	0xbe319636	-0.17342457
154	0x3ac6442f	0.0015126521
155	0xbdc2b2c8	-0.09506756
156	0xbdff719a	-0.1247284
157	0x3d26459f	0.04059374
158	0x3d7af6c0	0.061270475
159	0x3ca7f8da	0.020504404
160	0x3de55d00	0.11199379
161	0xbda85045	-0.08218435
162	0xbe1228ab	-0.14273326
163	0xbda78ef7	-0.08181565
164	0x3d9b493b	0.07582327
165	0x3cd6a8e0	0.026203573
166	0xbd9e00b6	-0.07714979
167	0xbdd2c3c0	-0.102912426
168	0xbd61e479	-0.05514953
169	0x3d4fac1d	0.05070125
170	0x3dbdb762	0.09263493
171	0x322c9ab3	1.0046892e-08
172	0x3df7b805	0.12095646
173	0xbe15802c	-0.14599675
174	0xbe4eed4b	-0.20207708
175	0xbd16a8b1	-0.03678197
176	0x3d95fbef	0.07323443
177	0x3d193123	0.037400376
178	0x3d6cc38c	0.057803676
179	0xbbf50ecf	-0.007478572
180	0xbdfbad44	-0.12288907
181	0x3d434a0e	0.047678046
182	0xbccdbec6	-0.025115382
183	0x3e03112e	0.12799522
184	0x33ec6ed0	1.1009763e-07
185	0xbdbb70be	-0.09152363
186	0x3bb82801	0.005620003
187	0xbe041954	-0.12900287
188	0xbe15f2e2	-0.14643434
189	0x3d008ff4	0.031387284
190	0x3ae1a8b3	0.0017216414
191	0x3ccdd044	0.025123723
192	0xbcc433f3	-0.023950553
193	0x3d37d5a7	0.04488149
194	0x3c1cee56	0.009578308
195	0xbe413d3a	-0.18871012
196	0xbdc21499	-0.09476585
197	0x3dd279c1	0.10277129
198	0x3d182a58	0.037149757
199	0x3d6d1c3e	0.057888262
200	0xbd4b1a16	-0.049585424
201	0xbd483ec6	-0.04888799
202	0x3d8f6320	0.070013285
203	0x3d1e1e02	0.038602836
204	0xbd54554a	-0.05183915
205	0xbe2d4f82	-0.16924861
206	0x3e0e331e	0.13886687
207	0xbdb60584	-0.08887771
208	0xbd5b38e9	-0.05352107
209	0x3d8ef73f	0.06980752
210	0x3dad9242	0.08475162
211	0x3dc91197	0.09817808
212	0x3c91ecc7	0.0178131
213	0xbd8b39a0	-0.067981005
214	0xbd9ed2ab	-0.077550255
215	0xbdbe6169	-0.09295923
216	0x3c669a99	0.014074945
217	0x3d073dd2	0.03301794
218	0x3d0f362a	0.034963764
219	0xbdcc7011	-0.099823125
220	0xbd6de047	-0.058075216
221	0xbd9ea5a7	-0.077464394
222	0x3da03788	0.07823092
223	0x3d29d0ee	0.041459017
224	0xbca1cc6f	-0.019750802
225	0xbc916acd	-0.017751122
226	0xbe68c7c0	-0.22732449
227	0x3d54c40e	0.051944785
228	0xbdc4b434	-0.096046835
229	0x3d2e7a5d	0.042597163
230	0xbe1bf4f2	-0.15230158
231	0x3dd73438	0.10508007
232	0x3dbc497a	0.09193702
233	0x3d873d16	0.06603448
234	0x3d9734c7	0.07383113
235	0xbe23d1dd	-0.15998025
236	0x3c66f68e	0.014096869
237	0x3be59463	0.0070062145
238	0x3d8bf79c	0.06834337
239	0x3d4fb676	0.050711118
240	0xbe38578e	-0.1800215
241	0x3c64119d	0.013920215
242	0x3dc02dcb	0.09383734
243	0xbcf5afbb	-0.029991021
244	0x3d68241c	0.05667506
245	0xbba875a1	-0.0051409756
246	0xbe0110b5	-0.1260403
247	0xbdd010cb	-0.10159453
248	0x3d899d33	0.067194365
249	0x3da9bbe6	0.08287792
250	0x3d13e4ae	0.036106758
251	0xb92cd22a	-0.0001648149
252	0xbd8a557c	-0.06754586
253	0x3b207c78	0.0024488252
254	0xbd0936a9	-0.033499394
255	0xbd8ea7c4	-0.069655925

fc_p.bias f4 [26]
0	0x39e4e81a	0.00043660478
1	0x3d067e7b	0.032835465
2	0x3cb80f70	0.022468299
3	0xbc8c0d76	-0.017096262
4	0x3ce917ea	0.028453786
5	0x3cf78513	0.030214822
6	0x3d2d36c4	0.042288557
7	0x3c0b593c	0.008505162
8	0x3cf689f7	0.030095084
9	0xbd1cb596	-0.03825911
10	0x3cdf93d5	0.027292171
11	0xbd69d212	-0.057085104
12	0xbd62b2f5	-0.055346448
13	0x3c4e3e97	0.012588165
14	0xbd8f1e7f	-0.069882385
15	0x3d67f2e1	0.05662811
16	0xbce922c3	-0.028458958
17	0xbbc03819	-0.0058660624
18	0x3dc21e17	0.094783954
19	0x3d94e4ff	0.0727024
20	0xbdb18451	-0.086678155
21	0x3d962d46	0.07332854
22	0x3d81c7eb	0.063369595
23	0x3d91839e	0.07105182
24	0x3c848f62	0.016181652
25	0xbdf7828b	-0.12085446

fc_v.weight f4 [1, 128]
0	0x3a28d6f7	0.00064407237
1	0x3cc42c3c	0.023946874
2	0xbcf5ba4d	-0.029996062
3	0x3d93d8af	0.072190635
4	0x3b519aaa	0.0031983056
5	0xbd1c3490	-0.038136065
6	0xbd661e22	-0.05618108
7	0x3a4eca34	0.0007888407
8	0x3c297bba	0.01034444
9	0x3bdd67d9	0.0067567644
10	0x3c3f450d	0.011674178
11	0x3b65a53b	0.0035041112
12	0x3d226e32	0.03965587
13	0xbd3937e8	-0.045219332
14	0xbd0c646a	-0.03427545
15	0x3d3a70e6	0.045517825
16	0x3cd49773	0.025951123
17	0x3c1117db	0.008855785
18	0xbc84d4e0	-0.016214788
19	0xbb5beff4	-0.0033559771
20	0xbd204761	-0.039130572
21	0xbd318050	-0.04333526
22	0x3d574a13	0.052560877
23	0x3d410b5f	0.047129985
24	0xbb2e426f	-0.002658989
25	0xba2b33c2	-0.0006530845
26	0x3d081c22	0.033229955
27	0xbad28f03	-0.0016064349
28	0x3ae1028a	0.0017166894
29	0xbd043ab4	-0.032282546
30	0xbce679b8	-0.028134212
31	0xbd4c079d	-0.049811948
32	0x3be48f65	0.006975102
33	0xbcf24b48	-0.029576913
34	0x3d081c95	0.033230383
35	0x3d4b993f	0.049706694
36	0xbc2d537e	-0.010578988
37	0x3d8249b4	0.06361714
38	0x3c8266ed	0.01591822
39	0x3bc6e556	0.0060698194
40	0xbdaacdf9	-0.083400674
41	0x3b1d10a2	0.0023966213
42	0x3bb6888f	0.0055704783
43	0x3d12c1af	0.035829242
44	0x3d75e481	0.06003237
45	0x3bd8320e	0.006597764
46	0x399e8f69	0.00030242957
47	0x3db528a3	0.088456415
48	0xbbf151ae	-0.0073644733
49	0xbd6c0409	-0.057621036
50	0xbd4555b5	-0.04817744
51	0x3ce9ef9b	0.028556636
52	0x3cc33912	0.023830924
53	0x3cd96aac	0.026540123
54	0xbd27bbcd	-0.040950585
55	0xbbc2cd61	-0.005944893
56	0xba8f40c9	-0.0010929342
57	0xbc9570fa	-0.018242348
58	0x3aca168d	0.0015418098
59	0xbba6fb1b	-0.005095852
60	0xbc23690b	-0.009973775
61	0xbd89995a	-0.067187026
62	0x3d639e31	0.055570785
63	0xbd92ac14	-0.071617275
64	0x3db66d08	0.08907515
65	0xbca16edc	-0.019706182
66	0x3db89c04	0.090141326
67	0xbb79014e	-0.0037995162
68	0xbb3a454d	-0.0028422654
69	0xbd8802e1	-0.06641174
70	0xbd783f9a	-0.06060753
71	0xbd8702e0	-0.06592345
72	0xbd2d1334	-0.04225464
73	0x3cb4f0ee	0.02208754
74	0xbd68b819	-0.056816194
75	0x3d7015a3	0.058614384
76	0xbbc72d00	-0.0060783625
77	0xbc954c88	-0.01822497
78	0x3bef3e97	0.0073011625
79	0x3d9e760c	0.077373594
80	0x3c91a090	0.017776757
81	0x3b0b6b71	0.0021273757
82	0xbc9b721a	-0.018975306
83	0xbd830691	-0.06397737
84	0xbb807faa	-0.0039214687
85	0x3c8792f1	0.01654956
86	0xbc9da23b	-0.019242397
87	0xbc507917	-0.012724183
88	0x3cb4e185	0.022080192
89	0xbca2e9c0	-0.019886851
90	0x3d052840	0.03250909
91	0x3ce278a4	0.027645417
92	0xbc7d836c	-0.015473228
93	0x3d2acf71	0.041701738
94	0xbd1f602a	-0.03891007
95	0xbb9869c4	-0.00465128
96	0x3bf72bc1	0.0075430577
97	0x3d285701	0.0410986
98	0x3c64f504	0.013974432
99	0xbcad3786	-0.02114464
100	0xbd02eedd	-0.03196608
101	0x3d833259	0.064060874
102	0xbd39f69a	-0.045401193
103	0x3b9a99ca	0.00471804
104	0x3d4e98e0	0.05043876
105	0xbd2fa01a	-0.042877294
106	0x3c8b6e37	0.017020328
107	0xbd2c4156	-0.042054497
108	0x3d319c39	0.043361876
109	0x3c993b58	0.018705055
110	0x3b2b977b	0.0026182819
111	0x3badb60a	0.0053012418
112	0xbc886ae7	-0.016652538
113	0xbd35c6fd	-0.044379223
114	0xbca26ba5	-0.01982672
115	0xbbd056a3	-0.006357984
116	0x3d6f5703	0.05843259
117	0xbc258c54	-0.010104258
118	0xbc175e5a	-0.009238804
119	0x3d3584a2	0.04431594
120	0xbd7026e4	-0.05863084
121	0xbd0d5c22	-0.034511693
122	0x3d95a839	0.073074766
123	0x3cb59e04	0.022170074
124	0x3ca786f9	0.020450102
125	0x3c4ddacd	0.012564373
126	0x3c80c7c3	0.015720254
127	0xbc869d76	-0.016432505
