hw22/293Iters/modelx_293.pth (torch, 452322 bytes, 17 tensors)

conv1.weight f4 [16, 4, 3, 3]
00000000: 897b 89bd c59f 1fbe f198 14bd 8fda 8bbb
00000010: 2f29 ecbd 27be 933d 9a5b 68bd 3f93 0e3e
00000020: 650e c2bd a69a ffbd ffb1 16be 59be d43d
00000030: 7bac d6bd 5e28 123e 7566 773d a24d 9dbd
00000040: f874 4e3d 96bc 203e f4c7 94bd e1d5 0e3e
00000050: 3a33 0a3d 8644 683d b3aa f7b6 135d 1e3d
00000060: 93c4 21bc d615 fcbd 4d58 013d b32f 6f92
00000070: 17a0 52b4 7b29 fd2e 8fbb 6391 3202 6628
00000080: 6b20 7e39 040a 4c32 918d 632c f02a 8437
00000090: 33e8 043e 79c6 10be 409c dfbd 798f 183e
000000a0: fb1c a4bc ac7f cabc ff28 e03c 3f1f 02be
000000b0: a127 34bd cab1 a03d 3a4b 8cbd 01fc b8bd
000000c0: 3266 45bd 294e 463d d4ef 09be 9334 ee3a
000000d0: 1800 7e3d 6854 aabd 429e ff3d 16b5 8bbd
000000e0: 26bc ae3d 551e c63d 0783 9e3a 43e1 8dbd
000000f0: 9a8c 6c3c 4b73 02be 9d56 bf3d 59e1 47a7
00000100: 090e b828 3bf1 42b9 374e 9e39 811c 489e
00000110: 7f6d 62b3 f824 41ba 3d91 453a 4591 1a28
00000120: 585b db3b fbf5 5e3e e9c1 53be a036 68bd
00000130: dd7c a8bd 3e70 8dbd faaf ee3d 54a7 48bd
00000140: b46e 79bd d723 5ebc accc 9e3d a01d 36be
00000150: 599d fcbc 49f0 e13d 5af6 dfbc 474d e7bd
00000160: a120 55bd 0128 70bd d393 0d3d 31be 95bd
00000170: 8e68 12bd cbc7 cabd 23a5 9d39 97f5 bcbd
00000180: 5e7f 813b c6db dbbd f000 f93c e4ba b236
00000190: 47c0 b21e 6065 4db6 d064 9017 93f5 1aba
000001a0: 7a14 953a 5e42 ef38 4631 2cb8 ba30 c328
000001b0: 4c30 413e 33ae 93bd 0954 45bc ae0c 2a3e
000001c0: 7a0a 053e 7849 a2ba 26d8 a8bc 8088 823d
000001d0: ff07 073c 956f 43bd 90d1 0fbd 6740 c0bd
000001e0: a9e8 223e e5f5 a03d 9c24 30bd 1b38 bbbd
000001f0: ebd2 55bc 6bc7 c8bc a10a dbbc b92c 123e
00000200: 3a92 b0bd 8630 05bd 0aec a7b8 6aa9 e83d
00000210: b48a f2bd 506c 933c 4a6a 53bc 3489 b49c
00000220: 8923 a22e e829 34a7 6bf9 ae39 634e e3b5
00000230: 7e1d 4d96 9a2b d9ba 8545 0a36 da06 4939
00000240: bd1e 1f3e 47e6 4abd 503b 9a3d b724 773d
00000250: 21f6 263e c426 b93d 5844 13be 28cd 023e
00000260: cabc d9bc 2730 053e 38e8 9e3d 783f 283e
00000270: 44b7 a23d 1444 573d 469b 403e 60f6 a7bd
00000280: 3aae a13d ec77 533d 0927 f5bd e9fe 98bd
00000290: 9a66 5fbd 7ab8 223e 04c3 4e37 52ab 39be
000002a0: 75ee 0ebe 1444 023e 280c 2abc 8e7b 0810
000002b0: 2166 3938 a38a 063a 0169 eb32 e846 2e2f
000002c0: 3d6f deb9 b937 b6b8 ddd3 1739 b35b 2238
000002d0: 04a2 a7bc 51a0 a33d bb3c ed3d a1d5 e33d
000002e0: 5f2e 103e 1815 1bbc 9915 cebd 6a01 44bc
000002f0: 7baa 66bc 2e87 fbbd 3b75 063d 9491 a8bd
00000300: c338 9cbd 9326 283e 088e d4bd b3e1 99bd
00000310: 9e92 08be e21e adbc 58e7 8f3c c6de 89bd
00000320: 0ac6 ca3c 95dc 25bd cf87 8639 54dd bc3b
00000330: 701f a7bd 82e7 a0bd 344e f13d c04b b51b
00000340: 3d32 0b3b 2dd4 0f1f d935 0631 6e89 363a
00000350: 0ca8 b91b 391f 1011 0ab9 95ba d164 aa10
00000360: 60fd 813c 1d04 7f3d 1812 fc3c 29ab f73b
00000370: cecf 1d3e 5646 323e 7179 143e 0341 82bb
00000380: 4f9e 94bd 008d fa3d 3404 c73d 193e 1bbd
00000390: d33d be3d 52ef 5e3d b336 e63d d3cd 2d3e
000003a0: 8708 ed3d d329 e9bd 6c52 1fbe bee0 f1bd
000003b0: d9cd 1b3e 9c07 4cbd 1573 9a38 c625 25be
000003c0: f14a d3bd 4a85 d3bd c1b4 25bd 477e c03a
000003d0: e2ae d636 cd39 89b8 3202 8392 f213 6d06
000003e0: 8c5c a896 342e ca37 8e78 fc39 3ca1 3ba7
000003f0: 5fc0 123e 8316 b63d 3b26 f13c 62f2 f53d
-0.067130156 -0.15588291 -0.03627867 -0.0042679976 -0.11531293 0.07214003 -0.056727983 0.13923357
-0.09475402 -0.12480669 -0.14716338 0.103878684 -0.10482117 0.14273211 0.060400445 -0.07680823
0.05040452 0.1569694 -0.072647005 0.13948776 0.03374026 0.056705974 -7.3810456e-06 0.03866298
-0.009873527 -0.123088524 0.03157835 -7.5473896e-28 -1.9616014e-07 1.15124764e-10 -1.7964939e-28 1.2768041e-14
0.00024235404 1.187664e-08 3.2337225e-12 1.575562e-05 0.12979202 -0.14138211 -0.10918474 0.1489848
-0.02003335 -0.024719082 0.027363298 -0.12707232 -0.043983106 0.078464106 -0.06850286 -0.09032441
-0.048193164 0.048414383 -0.13470393 0.0018173627 0.06201181 -0.083168805 0.12481357 -0.06821649
0.0853198 0.09673754 0.0012093493 -0.06927731 0.014437819 -0.12739293 0.09342692 -2.773896e-15
2.043419e-14 -0.00018591147 0.00030194383 -1.0593806e-20 -5.271931e-08 -0.00073678745 0.0007536596 8.580218e-15
0.0066942386 0.21773522 -0.2067944 -0.05669272 -0.08226941 -0.06906174 0.116546586 -0.0489877
-0.06089659 -0.01355835 0.07753882 -0.17784739 -0.030836748 0.11032159 -0.02733915 -0.11294036
-0.05203307 -0.0586319 0.034564804 -0.07311667 -0.035744242 -0.09901389 0.0003006841 -0.0922653
0.003951951 -0.10735278 0.030395955 5.3265703e-06 1.8926007e-20 -3.0606388e-06 9.331231e-25 -0.0005911227
0.00113739 0.0001140877 -4.1053885e-05 2.167048e-14 0.1886608 -0.0721096 -0.012043961 0.166064
0.12992278 -0.0012381515 -0.02061088 0.063736916 0.0082416525 -0.047713835 -0.035111964 -0.09387284
0.15909065 0.07859401 -0.043003663 -0.09141561 -0.013050775 -0.024509152 -0.026738467 0.14274873
-0.086216405 -0.03251698 -8.007146e-05 0.11360438 -0.11842862 0.017995983 -0.012903759 -1.1946867e-21
7.3732194e-11 -2.5002735e-15 0.00033373697 -1.6935631e-06 -1.6569074e-25 -0.001656878 2.0604068e-06 0.00019171406
0.1553907 -0.049536016 0.07530844 0.06033775 0.16304828 0.09040597 -0.1438154 0.12773573
-0.02657928 0.1300665 0.07759136 0.16430461 0.079451114 0.05255516 0.18809232 -0.08201289
0.07894559 0.05162804 -0.11970336 -0.07470495 -0.054541208 0.15890685 1.2323962e-05 -0.1813176
-0.13958152 0.12721282 -0.010378875 2.6916454e-29 4.4202552e-05 0.0005132353 2.740535e-08 1.5850399e-10
-0.0004242602 -8.6888154e-05 0.00014479407 3.870921e-05 -0.020462997 0.07989562 0.11583849 0.11124731
0.14080189 -0.009465478 -0.10062713 -0.011963228 -0.014078732 -0.12281643 0.032826643 -0.08230892
-0.07628014 0.16420965 -0.10378653 -0.07513752 -0.1333718 -0.02113289 0.017566368 -0.06731944
0.024752636 -0.040493567 0.00025659657 0.005763689 -0.08160293 -0.078566566 0.11782494 2.999289e-22
0.002123966 3.0456936e-20 1.9530175e-09 0.00069632276 3.071428e-22 1.1369218e-28 -0.0011422944 6.720851e-29
0.015867889 0.062259782 0.030770347 0.0075582457 0.15411302 0.17409644 0.14499451 -0.003975035
-0.072567575 0.12233925 0.097175986 -0.037901018 0.09289136 0.054427452 0.11240902 0.16973047
0.11573892 -0.113849305 -0.15558785 -0.11810444 0.15215243 -0.049811944 7.364728e-05 -0.1612769
-0.10317028 -0.10328157 -0.040455583 0.0014686071 6.398056e-06 -6.543435e-05 -8.267803e-28 4.45894e-35
-2.720027e-25 2.4101791e-05 0.00048155006 -2.6038869e-15 0.14331196 0.088910125 0.029437175 0.120091215

conv1.bias f4 [16]
00000000: 2b5f c2b7 ef92 3339 bbe2 1e38 7f8c d8b6
00000010: 4619 1c39 6397 0839 61ea 65b8 6ba7 b3b8
00000020: 155a 67b9 8bc3 51b8 5302 4fb8 b826 79ba
00000030: f276 ecb5 e0cb 05bb a5e3 8337 1e63 8339
-2.3170918e-05 0.00017125507 3.7881295e-05 -6.4536575e-06 0.00014886734 0.00013026367 -5.4816137e-05 -8.566569e-05
-0.00022063435 -5.0011597e-05 -4.935481e-05 -0.0009504366 -1.7617988e-06 -0.0020415708 1.5722422e-05 0.00025060115

bn1.weight f4 [16]
00000000: a9db 7e3f 7176 813f 0b81 793f c936 853f
00000010: 0eb5 843f 0a5a 803f 53b7 813f a335 893f
00000020: 8146 783f b400 7c3f 5a9c 773f 5cfa 7a3f
00000030: 650c 753f 0ecc 7e3f bfd2 733f 1de1 803f
0.99553925 1.011427 0.9746253 1.0407344 1.0367754 1.0027478 1.0134071 1.0719494
0.9698258 0.9843857 0.9672295 0.9803827 0.9572204 0.9953011 0.9524345 1.0068699

bn1.bias f4 [16]
00000000: 2894 ab3b 32dd a43c eb57 5cbc fa74 f63c
00000010: 6848 83bc 22e3 90bb e43c f8bc 2454 f7bc
00000020: 9b68 08bc 06a0 9fba f791 cbbb 7ae5 a7bc
00000030: abea 4abd c93d 3abc 921c c4bc a9ed e3bb
0.0052361675 0.020125005 -0.013448696 0.030085076 -0.016025737 -0.0044216076 -0.030302472 -0.030191489
-0.008325721 -0.0012178428 -0.0062124687 -0.020495165 -0.049540203 -0.01136727 -0.023939405 -0.0069558215

bn1.running_mean f4 [16]
00000000: 8ac4 aa3c ee30 a8bc 331d bcbe d106 073e
00000010: 1da0 003e 7093 cabd 7b99 1cbe 9c18 7dbe
00000020: cc4e 40bd 1faa d93c 78c9 ac3c bb52 d2be
00000030: 790c e3be 7743 623e 9941 883c af16 72be
0.02084567 -0.020531144 -0.36741027 0.13186194 0.12561078 -0.09891403 -0.15292923 -0.24716419
-0.046950147 0.026570378 0.021092162 -0.41078743 -0.44345453 0.22096048 0.016632842 -0.23641466

bn1.running_var f4 [16]
00000000: 3f61 383d c2b8 063d ff60 093d ffac a03c
00000010: 88bd fd3c 2937 fa3c 8cf3 f93c 4ec0 6e3c
00000020: fb5f 373d 689e 963c 18c3 a13c 092a 643d
00000030: d5ec 823d 320c 603d 594a 653c 5cbb 5f3d
0.045014616 0.032891043 0.03353977 0.019613741 0.030974165 0.03054388 0.03051164 0.014572216
0.04476927 0.01838608 0.019746348 0.05570415 0.063928284 0.05469913 0.013994777 0.05462204

conv2.weight f4 [32, 16, 3, 3]
00000000: 3514 0bbd b1c3 96bd cdd8 7c3d 5576 8abc
00000010: 876f 9a3d 7b48 24b9 4a64 68bd 011f 3e3d
00000020: 02be 40bd 65c3 213d 7ca3 65bd 3067 3e3c
00000030: ab8f 52bb 0534 173d 7d3d 2dbd 7dcc 86bd
00000040: dcc8 e53c 697f 343d 9dee 0cbd a402 95ba
00000050: fcfa f8bc 5aac 93bd 056a 45bd 24ec 9bbd
00000060: 1676 a33b 1395 4c3d 7df7 4d3d d6b8 8f3d
00000070: ccbb ddbd 4724 61bd 41b6 983d 9f8e 763d
00000080: 3d42 c2bd 4d28 d63d fc44 c73d 1c2a 41bc
00000090: d8fe 2a3d 32cd 0fbd 5765 30bd 446c d9bc
000000a0: 82fb c3bd 66f4 903c acb6 333c 0996 373d
000000b0: 4059 24bd f24d a1bc 4bd4 3e3d dede 743d
000000c0: 452f 963d 24f2 22bc b495 cc3d 9d04 a93d
000000d0: 64f8 8ebd d7aa 9e3d 28f6 5c3d d1ae 1dbd
000000e0: 7ae2 923b 0808 87bd 163d 32bd 6d3c b3bb
000000f0: 813a babc f0ec 093d f533 143d be74 993d
00000100: 9874 9d3d ada8 5b3d 5234 5bbd f5d4 c13c
00000110: 7a29 8dbc 0b27 923a 4bf0 703d bc84 55bd
00000120: fc21 653d a0f1 8eb7 f5fe 523d 659b a8bc
00000130: d345 1bbc 4f09 44bd 60cd e8bb c1eb 823d
00000140: ef6a d63c 92b8 623d 586e 1b3a 845f 5f3d
00000150: 2a5b 183b 9b78 8dbd 756b 2abc 73ae a63d
00000160: a436 8cbd 66ac 04bd ccfd 853c 74b0 113d
00000170: 5442 a03d faf4 953d 2cba 5b3d b849 743d
00000180: d2cb 7d3d 8bec 643d a1ab 903c f37c d6bc
00000190: 5ee7 e43d 96c0 d13d 55e7 403c 5998 9d3c
000001a0: c9b1 2f3c debc 08bd 0229 083c 52cc a93d
000001b0: 54fc dfbc f632 23bd 377e 9abc 7baa c8bc
000001c0: 74bc b13d 90cb 6f3d 82c9 9e3d c15c acbd
000001d0: 2f47 163d 62e4 71bc 329b 023d 05ec bfbc
000001e0: 8075 c93b bd03 bc3c 5b8c 40bc a92f 34bd
000001f0: 1cf7 86bb 5ee8 19bd 6622 21bc ed23 48bc
00000200: 43f9 e1bc b9c2 793d b49c c6bc 0f41 113b
00000210: 76a5 8ebd c210 863d 1128 bfbc 1f6c 923d
00000220: a9d5 cbbc 4dc7 41bd e891 67bd 12c7 883d
00000230: d9d8 23bd e334 78bd 1555 bcbd b526 22bd
00000240: 58c5 6abd 5e33 1e3d e9eb 3c3d fabe 493d
00000250: f6a5 cebc 29d8 323d 7fc3 adbc 7c6d 303d
00000260: 131e a13d d905 20bc 4708 7ebd 6c94 503d
00000270: 1bcb fa3b 266c d63d a948 533d ff81 b7bc
00000280: af85 01bd fc49 d0bd df30 7dbd 685c ae3c
00000290: 1d4a 10bc baf7 12bd 21fc 62bc 10ef 70bd
000002a0: 45e1 623d aac8 1ebd 53ea 9e3c d5e7 e53b
000002b0: db9c aa3d 2ee3 55bd f7cb 2a3d 726a 023d
000002c0: 7e5e 2fbc ee21 37bd 7dec 7f3d c13f 55bc
000002d0: 2cad 853d ba5a b4bd 6bb7 93bd ea45 1bbc
000002e0: 4f18 253a 9d5c 0c3d 47f2 afbd c660 7bbc
000002f0: a28e debc 37dc b73c 869d 6bbd 3944 243d
00000300: 322c 883c 45d0 00bd 9ed8 c23d 7d5c 4dbd
00000310: fa0a 47bd 5a8b 483c 9694 dd3c aada 033d
00000320: 0924 25bd 0526 c33b 4447 0ebd d09d 27bc
00000330: 4049 49bc c108 a0bb 1454 7abb e175 b4bd
00000340: 1ae3 a6bd 5fb0 913d f358 fcbb 9f72 fd3d
00000350: 45b9 acbc f288 04bd 72aa ee3c 2ffe 253d
00000360: 53a3 adbc f891 99bc 68c9 913c 24f1 503c
00000370: 839c e53d 5f6e 8fbc 2216 503c d277 773d
00000380: e49a 85bb 1711 d2bd 1f84 bcbb bd82 8ebd
00000390: 0455 fdbc 9559 233c 63d4 f63a 14c0 3e3c
000003a0: 8148 553b 60d2 b1ba a247 54bd 7803 403d
000003b0: 06bc b5bd 8a82 69bd 943e 06bd aca9 333d
000003c0: c226 1b3d 7a87 a3bc bf74 353b fca2 10bc
000003d0: 1723 2fbd 7e34 a23d 265c b1bc 157e bfbb
000003e0: 121a 2bbc ef26 5b3d a938 adbd 60d5 bebd
000003f0: 314c 063b ee46 01bd 6875 4fbc 090c 47bd
-0.033954818 -0.07361544 0.061730195 -0.016902128 0.075408034 -0.0001566726 -0.056736268 0.046416286
-0.047056206 0.039492983 -0.056064114 0.0116212815 -0.003212909 0.036914844 -0.042294968 -0.06581972
0.028049879 0.04406682 -0.034407247 -0.0011368585 -0.030393116 -0.07210608 -0.04819681 -0.076133996
0.004988442 0.049946856 0.05028485 0.070176765 -0.10826835 -0.054966237 0.07456637 0.060194608
-0.0948529 0.104569055 0.097299546 -0.011789825 0.041746944 -0.0351078 -0.043065395 -0.026540883
-0.09569456 0.017694663 0.010968845 0.04482082 -0.040124178 -0.019690488 0.046589177 0.059782855
0.07333235 -0.009945426 0.09989491 0.08252833 -0.069809705 0.07747429 0.05394569 -0.038496796
0.0044825645 -0.06593329 -0.043515287 -0.00546985 -0.022732975 0.033673227 0.036182363 0.0749297
0.07688254 0.05362766 -0.053516693 0.023661116 -0.017231692 0.0011150552 0.05882291 -0.05212854
0.055940613 -1.7040235e-05 0.051512677 -0.02058191 -0.009477097 -0.04786044 -0.0071045607 0.06392623
0.026174037 0.0553518 0.0005929223 0.05453445 0.0023247697 -0.06907769 -0.010401596 0.08138742
-0.06846359 -0.032390974 0.016356371 0.03556867 0.07825151 0.07322116 0.053644344 0.059640616
0.061961956 0.055889647 0.017659964 -0.026182627 0.11176942 0.10241811 0.011773904 0.019237684
0.01072354 -0.033383243 0.008310558 0.08290924 -0.027342 -0.039843522 -0.018859012 -0.024495354
0.08678523 0.05854374 0.07753278 -0.08416129 0.03668898 -0.014763923 0.031886287 -0.023427973
0.0061480403 0.022951001 -0.011752213 -0.043990765 -0.004118813 -0.03757512 -0.009834861 -0.012215597
-0.027584678 0.060976718 -0.024244644 0.0022164022 -0.06965153 0.06546165 -0.023334535 0.07149529
-0.024882155 -0.04730921 -0.05653563 0.06678595 -0.040001724 -0.06059731 -0.091959156 -0.039587695
-0.057317108 0.038623206 0.04612342 0.049254395 -0.02522562 0.043663178 -0.021211384 0.043073162
0.07867064 -0.009767019 -0.062019613 0.050922796 0.0076536066 0.104698464 0.051582966 -0.022400854
-0.03162163 -0.101703614 -0.061814185 0.021284297 -0.0088067325 -0.03588078 -0.0138540575 -0.058821738
0.055390615 -0.038765587 0.019398844 0.007016162 0.08330699 -0.05221861 0.041698422 0.031839795
-0.010703681 -0.044710092 0.062481392 -0.013015688 0.065271705 -0.08806367 -0.072127186 -0.009477118
0.0006297873 0.03426801 -0.085911326 -0.015342897 -0.027167622 0.022443874 -0.057523273 0.040104125
0.016622636 -0.03144862 0.09513973 -0.05013703 -0.048594452 0.012240255 0.02704839 0.032190956
-0.04031757 0.00595546 -0.034735933 -0.0102304965 -0.012285531 -0.004883856 -0.0038197087 -0.08811546
-0.08148785 0.07113718 -0.0077010333 0.12375378 -0.021084437 -0.032357164 0.029134009 0.04052561
-0.021196043 -0.018746361 0.017796233 0.012752805 0.11211493 -0.017508684 0.012700589 0.060417004
-0.0040773023 -0.10257166 -0.0057530547 -0.0695853 -0.030924328 0.0099700885 0.0018831607 0.011642475
0.0032544436 -0.0013566725 -0.051826127 0.046878308 -0.08873753 -0.057009257 -0.032774523 0.043862984
0.03787876 -0.019962061 0.0027687994 -0.008827921 -0.042758074 0.07920168 -0.021650385 -0.0058438876
-0.010443227 0.053503927 -0.08458073 -0.09318042 0.002049219 -0.031561784 -0.012662269 -0.048595462

conv2.bias f4 [32]
00000000: ba2b b5b7 9dd2 7437 d420 bbb6 0a4c b4b7
00000010: a991 42b9 09a8 05b9 ff97 66b6 6c28 22b7
00000020: 1bff 11b7 7e96 f037 213b 7237 e205 1d38
00000030: a416 0b35 3530 7737 be07 a737 4837 7535
00000040: 0fdd 1838 7728 0ab6 8857 2437 b11e 2fb8
00000050: 7c51 97b6 5033 f4b6 137f d9b6 fbe5 1a37
00000060: 3d31 86b7 a9f2 b6b6 9231 0c37 48b9 27b8
00000070: 0f36 1137 b9db 2138 40bb 9536 18b9 3cb6
-2.1597243e-05 1.4592571e-05 -5.576856e-06 -2.149308e-05 -0.00018555544 -0.00012746466 -3.4361144e-06 -9.665364e-06
-8.70207e-06 2.8680308e-05 1.4438091e-05 3.7437196e-05 5.181448e-07 1.4733571e-05 1.9911557e-05 9.1350057e-07
3.64455e-05 -2.0587156e-06 9.795542e-06 -4.1751835e-05 -4.5096367e-06 -7.27774e-06 -6.4818973e-06 9.232662e-06
-1.5996973e-05 -5.452272e-06 8.356192e-06 -3.998846e-05 8.65526e-06 3.8590024e-05 4.462345e-06 -2.8121922e-06

bn2.weight f4 [32]
00000000: 8daf 8e3f 2ea4 943f 4de3 943f 2b1d 8d3f
00000010: b5bd 8c3f 547f 8c3f 13ab 913f 7263 8e3f
00000020: 5835 8e3f 0821 8f3f 306f 8f3f b4b2 953f
00000030: 65a8 8a3f ef50 903f 0239 8a3f 1346 933f
00000040: 46bf 943f b34b 8f3f 4da1 883f f388 8f3f
00000050: 44ff 8d3f f488 8b3f be8e 913f d6fb 883f
00000060: cb89 8a3f f1c7 8a3f eb4d 8b3f 17b4 8e3f
00000070: 32ff 903f c16a 913f f5a1 893f 4f06 8f3f
1.1147324 1.1612604 1.1631867 1.1024526 1.0995394 1.0976357 1.1380333 1.1124098
1.1110029 1.1181955 1.1205807 1.1695161 1.083264 1.1274699 1.0798647 1.150576
1.1620872 1.1194977 1.0674225 1.1213669 1.1093526 1.090117 1.1371686 1.0701854
1.0823301 1.0842267 1.0883154 1.1148709 1.132788 1.1360704 1.075255 1.11738

bn2.bias f4 [32]
00000000: a46e 1c3d f7ee 383d bff8 913d 92b3 413d
00000010: f632 403d 46e8 143d 7bee 943d 4391 1d3d
00000020: 2af7 b33c 37c0 863c b80a 673d 3407 3f3d
00000030: 8bf2 ad3c 05bb 243d 08c9 9d3c 8e49 473d
00000040: c34f 223d 4bf0 1d3d 48d0 443c 3d53 953d
00000050: 6da4 5c3d f795 1c3d 8563 993d 3333 773c
00000060: 6f96 dd3c 5725 653d 1148 f83c 52bd 773d
00000070: 5c27 3f3d e171 793d 3299 ce3c 1d99 683d
0.038191453 0.04514977 0.07127523 0.047290392 0.0469236 0.036354326 0.07272049 0.03846861
0.021968443 0.016449077 0.056406707 0.04663773 0.021233818 0.04021742 0.019260898 0.04865413
0.039626848 0.03855924 0.012012549 0.07291267 0.053867746 0.038228955 0.07489685 0.01508789
0.027049271 0.055943813 0.030307801 0.060483284 0.046668395 0.06089962 0.025219534 0.056786645

bn2.running_mean f4 [32]
00000000: 6f46 743e fda2 cf3d df34 043c c1ea 88be
00000010: 5689 12be cfbd 3fbd bfdd 04be 157e 5c3b
00000020: 42f2 ffbd 7fec 40be de1b 96be 073f 1ebc
00000030: 27d4 293e edb8 44be ecb9 80bd fd1e 9abd
00000040: 6a43 753d b85e 773d 5e7f ed3e 3a40 143e
00000050: 26fc 113e 5142 113c 63c6 b93d ea68 163e
00000060: 9f11 8e3e 7f75 1ebc 5f9e 3c3e 75fc 9dbe
00000070: 34a2 2e3e 7a53 42be ad96 313e 519e 343e
0.23854993 0.101385094 0.008069246 -0.26741603 -0.14310202 -0.046811875 -0.12975214 0.0033644487
-0.12497379 -0.18840216 -0.29318136 -0.009658582 0.16584836 -0.19211169 -0.06285462 -0.07525442
0.059878744 0.060393065 0.46386236 0.14477625 0.14256343 0.008865909 0.090710424 0.14688459
0.2774782 -0.009671568 0.18419789 -0.30856672 0.17054063 -0.18977156 0.17342634 0.17638518

bn2.running_var f4 [32]
00000000: 6a6b 133e 52b6 a33d 2167 a53d e431 7e3d
00000010: 89f5 633d 7df1 aa3d 8362 803d 7a05 933d
00000020: 5aa3 a23d 4a69 a93d 6b7c 7e3d ba4b a83d
00000030: 4ec1 b73d d6c1 9b3d 15f2 663d 74a8 be3d
00000040: 142a cd3d 838d 573d 430d aa3d 0088 b83d
00000050: 94e4 b53d 866f d63d d045 0c3e 7e6e ad3d
00000060: a6e5 8a3d d850 8e3d cd9d bf3d 5414 c03d
00000070: fea9 783d 8990 973d 216a 133e ab61 9b3d
0.14396444 0.07993759 0.08076311 0.0620593 0.055654082 0.083468415 0.062687896 0.07178779
0.07941313 0.082720354 0.062130373 0.08217569 0.08972417 0.07605331 0.05638321 0.09309474
0.100177914 0.05262519 0.08303311 0.09010315 0.088814884 0.1047049 0.13698506 0.0846834
0.06782083 0.069490135 0.0935627 0.09378877 0.060708992 0.07400615 0.14395954 0.07586988

fc1.weight f4 [128, 800]
00000000: 11ed 483d eced f53a 2c57 96bd ed67 7abb
00000010: 339b 16bd 671b a13d b5e5 1a3d 274f cf3c
00000020: eb07 ddbc f99a fc3b 9635 2dbd 453a 3dbd
00000030: c61c 78bd d48a 41bd 3d4b 1e3b 1a7e 23bc
00000040: 541e 4bbd 443c 593c 1175 73ba a433 8cb9
00000050: fc76 be3c d6c8 643d 6599 813d e4fa 473d
00000060: 751f 86bb b081 a33b f511 22bc 4396 693b
00000070: 81ea 4f3d 0a55 d6bc 1464 c13c 9e27 9cbd
00000080: 3bc0 a9bc 375b 89bd b338 49bc cdd5 8f3c
00000090: 0cef 023d b036 3d3d 1912 40bd 1886 883d
000000a0: b0ba 113d 5f67 f23c 6702 81bc e86b af3c
000000b0: 5448 f23c c4ba 98bc 2b49 a33c 2683 91bc
000000c0: c326 2f3d dd4d 7b3c 62ab 3b3c 1247 0e3b
000000d0: 467b 29bc 4c3d b13c 9b56 8ebd 9a78 39bb
000000e0: 144e 4dbd db44 44bd 5954 9b3a 72a2 96bc
000000f0: 075f 09bd 40c8 ffbc e2fc 3cbd ec46 82bd
00000100: 0d01 ffbb 7b12 8bbd c67f 8ebd 39f6 283d
00000110: 7a8c 8b3d 35a0 473d 4845 963d 8054 993d
00000120: 0652 d0bc 208e 0d3c 1d24 f13c ee3c 19bc
00000130: 96ac 523d 5a4a a2bc 7515 903c 120a 34bb
00000140: 66b0 dc3c 0830 233d 10d0 47bd 50b7 4f3b
00000150: d7ad 203c 3bdb b23b 9a43 923c ed91 103d
00000160: e1e3 17bc aae8 37bd d91f 3a3c 1ea8 24bc
00000170: aa2f 30bc eb2e 903c 739b 233d e991 fc3c
00000180: 386d d1bc 6541 13bd 3b32 5f3b 6b33 ebbc
00000190: 7528 05bc a7f9 39bc 9fec 843b c5e4 93bc
000001a0: f5b1 b9bb df7f acbd 1c86 103d e181 8a3d
000001b0: 50c1 a8bc 60aa cc3b 4adc 823d b5b1 193d
000001c0: 9918 653d 2b49 743d acc4 55bd 61fb ddbb
000001d0: ee7e 163c 9f5f a0b9 cbf1 153d 2f59 06bc
000001e0: 99d0 d03c c65a 923c cc1f 3a3d e18f 57bc
000001f0: 35db 183d 298e 873c ae14 63bc 8eb2 36bc
00000200: 5e11 b6bc 114d 63bd 2f8e 903d ff6a 8d3d
00000210: 0a47 75bd 1bca 533d 11b5 f4bc d17a a8bc
00000220: f980 09bd 2047 463c f702 59bc a33f a9bc
00000230: 09a8 01bd 3e45 8bbc 857d 293c 1230 0b3d
00000240: f111 36bd d6dc 053d d880 2cbc 49e5 92bd
00000250: a1d8 ec3c 55f5 e33c ed65 87bb 2da3 81bb
00000260: 5944 c8bc b6e9 84bc 29e1 c23c 6665 34bd
00000270: 2735 d23c 193e 52bc f6c3 473c 572f 12bc
00000280: 0196 b43c c456 bcbb dbf2 253d 2e28 ca3c
00000290: af27 ac3c bdf4 57bc 882a eb3a 03b8 1bbb
000002a0: 3ec1 303c 2c26 03bc 6d22 fc3c 8e66 b0bc
000002b0: faf7 483b 30de 97bb 7fed 2f3d b0ef e53c
000002c0: fd04 563d acc2 1d3d a54c d9bb 474b 803c
000002d0: e233 fb3c f090 d7bc e26f 17bd 4847 b2bc
000002e0: ac61 0a3c 4b6d 663d d247 313c ea14 4d3d
000002f0: e68f 833b 0ae3 db3c f88c aabb d2a5 893c
00000300: 3622 18bd 74e5 283d 4c3d 053c 96a6 ecbc
00000310: 73e5 05bd 5286 1c3d 9368 8fbc 5b0d b1bb
00000320: 3f40 403d 9644 b53c 68ed 9bbd 3028 a3bc
00000330: 01c9 1ebc 1c21 f8bc c07d 293d de6e 2abd
00000340: a00d 113c 592b d7bc da1f f83c df49 69bd
00000350: c7ae ed3c f0a2 393c ef20 0f3b a791 813c
00000360: a298 e5bb ca2e 6e3c 793a 4fbc e372 be3c
00000370: 0673 06bd a91e ccbc 31a0 10bd 5435 6bbc
00000380: a493 8abc eacd 9c3d 509e c1bc d5d9 2cbb
00000390: 0b63 1ebc ead7 e53b fa69 ec3a b448 33ba
000003a0: c4e4 c9bc 0112 19bc 561c 983c 22bc 3bbb
000003b0: e608 e83c 057a 2abd 2bd3 1cbb a643 9bbc
000003c0: f8c4 f03c 61fa 8f3b aad5 063d f130 22bc
000003d0: 8155 f6bc 53b5 993b f150 fa3c 7754 ac3c
000003e0: 45a8 b33b a86f 803c aea4 0f3c b046 61bd
000003f0: 9843 413d f4bd d73c c5cd 7cbc 4f63 e4bc
0.04905421 0.0018762923 -0.073408455 -0.0038208917 -0.036769103 0.07866555 0.037816722 0.025306297
-0.026981315 0.007708904 -0.04228743 -0.04619815 -0.060574315 -0.047251537 0.0024153732 -0.009978795
-0.04958947 0.013258997 -0.00092871586 -0.00026741356 0.023250096 0.055855595 0.06328086 0.048823252
-0.0040931054 0.004989825 -0.009891977 0.0035642541 0.05076075 -0.026163597 0.023607291 -0.07624744
-0.020721545 -0.06706851 -0.012281585 0.017558003 0.031966254 0.046194732 -0.04689226 0.06666201
0.03557843 0.029590307 -0.015748216 0.021413758 0.029575504 -0.018643744 0.01993235 -0.017762732
0.042761575 0.015338388 0.011454435 0.0021709842 -0.010344332 0.021635674 -0.069501124 -0.0028300644
-0.05012329 -0.04791723 0.0011850699 -0.018388007 -0.03353789 -0.031223416 -0.046139605 -0.063611835
-0.0077821077 -0.06790634 -0.069579646 0.04125044 0.06813903 0.04873677 0.07337433 0.0748682
-0.025429737 0.008639842 0.029436165 -0.009352906 0.051434122 -0.019810844 0.017588357 -0.0027471823
0.026939582 0.039840728 -0.04878241 0.0031694956 0.009807072 0.005458263 0.0178545 0.035295416
-0.009270639 -0.04489962 0.011360132 -0.010049848 -0.0107535515 0.017600497 0.03994317 0.030831294
-0.025564775 -0.035951037 0.003405704 -0.028711041 -0.0081273215 -0.011351026 0.0040565277 -0.018053422
-0.005666966 -0.08422827 0.035284147 0.06763054 -0.020599991 0.006245896 0.06389673 0.03752299
0.05593166 0.05964009 -0.052189514 -0.0067743515 0.009185536 -0.0003058882 0.036607545 -0.008199974
0.025490092 0.01786555 0.04544048 -0.013156862 0.037318427 0.01654728 -0.013859911 -0.011150969
-0.022225078 -0.055493418 0.07058369 0.069051735 -0.0598822 0.051706415 -0.029871495 -0.020566376
-0.033570264 0.012101918 -0.013245336 -0.020660227 -0.03165439 -0.01700079 0.010344868 0.03398139
-0.044450704 0.03268131 -0.010528766 -0.07172639 0.02891189 0.027826944 -0.0041320235 -0.0039562196
-0.024446653 -0.016224723 0.023789005 -0.044042014 0.02566011 -0.012832188 0.012192717 -0.0089224195
0.022044184 -0.005747648 0.04051481 0.024677362 0.021015016 -0.013180909 0.0017941752 -0.0023760803
0.01078826 -0.008004706 0.030778134 -0.021533277 0.0030665384 -0.004634641 0.042951103 0.028068393
0.05225085 0.03851573 -0.006631451 0.015660895 0.030664388 -0.026314229 -0.036971934 -0.021762505
0.008446138 0.056256574 0.010820346 0.050068773 0.0040149568 0.02684166 -0.005204793 0.016802702
-0.037142 0.04123445 0.00813229 -0.028888028 -0.032689523 0.038214035 -0.01750592 -0.0054032034
0.04693627 0.02212743 -0.07613641 -0.019916624 -0.009691478 -0.030289225 0.04137969 -0.041609637
0.008853346 -0.026265787 0.030288626 -0.056955215 0.029014004 0.011330351 0.0021839698 0.015816523
-0.0070067206 0.014537523 -0.012648218 0.023248142 -0.03282454 -0.024916964 -0.03530902 -0.014355976
-0.016916104 0.076564625 -0.02363506 -0.0026374955 -0.009667168 0.0070142644 0.0018036955 -0.0006839142
-0.024645217 -0.009342671 0.0185682 -0.0028646071 0.028324556 -0.041620273 -0.0023929577 -0.018953156
0.029390797 0.004393861 0.03291861 -0.009899364 -0.030070068 0.004690805 0.030556174 0.02103637
0.005482706 0.015678242 0.00876729 -0.054999053 0.047183603 0.026335694 -0.015429919 -0.027879385

fc1.bias f4 [128]
00000000: 4179 84bc e72b debc e8ae ffbc c597 cc3b
00000010: 62c3 823c c12e e0b9 bd0a b83c d3c8 9c3b
00000020: 3f20 18bc e647 a3bc 4dd7 f0bc d6dd 05bd
00000030: e21c 753c 0cc2 a33c fd06 abbc 6289 1a3b
00000040: 6690 77bc 4c55 f9bc ef5d 3e3a 0518 d33c
00000050: 68a6 bb3c 1a83 0d3c c75e e93c 507e 82bb
00000060: 6ada d73c d874 75bb b86d f83c 272d babc
00000070: ef90 d7bc 3026 293b 6b3a eabc b5ca c63c
00000080: d35e b73c a2e0 d5bc c0e1 8a3c 47fc ef3c
00000090: fc56 023d 893e e2bc a4de 15bd 4c61 e7bc
000000a0: a910 77bc ca83 0b3d c303 3d3c 346a 88bc
000000b0: a14a a6bc 8500 86bb f150 c2bc 7947 09bd
000000c0: cdd4 943c a2d6 c83c a39e 373b eff8 22bc
000000d0: 78fc cc3c e452 e7bc f9cf 2fbc 8912 a4bc
000000e0: 7825 10bc 8714 053d 8cda bcbc 68e0 86b8
000000f0: de1e e6ba 0983 0fbd 8cdd 52bc c76c 43bc
00000100: ab1c 693b 1929 c5bc 3a22 853c 670a a23c
00000110: dd17 9b3c b232 c8bc ba07 59bc 80c3 023d
00000120: aeee df3b fe0c 603c 74c3 febb 255e 703c
00000130: ef77 003d b21e 52bc 5ed4 8e3c 4ba7 bcbc
00000140: 512b 14bd cca0 613b 0bf8 7d3c 48f8 56bc
00000150: 6e53 9ebc 0e69 473b df9b eb3c 774a df3c
00000160: e6a0 f0bb 9674 32bc a113 933c 5898 8c3c
00000170: dec5 c93b 867f 62bc 8a1f b3bc 0614 d1bc
00000180: b2b0 fa3c f174 90bc 3ba3 9d3c c5ee d4bb
00000190: 19bd de3c f9a2 823c 30d7 5d3c bf4a 08bd
000001a0: 26a1 5b3b 1ff3 1fba 2482 dabc 755b c33c
000001b0: 34c9 f53c d3c2 0c3c 26a8 793c 4c1e a13c
000001c0: e675 81bc 192e b6bc c12b 02bc 686e 673c
000001d0: 99fd f2bb db0d b4bc 3d91 39bc e707 73bc
000001e0: 348e 64bc 5ea6 abbc 17a4 ca3c fd8a 7a3c
000001f0: e8e9 fc3c 0817 093d 7a0e 7f3c fa87 a5bc
-0.0161711 -0.027120544 -0.031211331 0.0062436783 0.015962306 -0.00042759444 0.022466058 0.0047846823
-0.009285032 -0.019931745 -0.029399538 -0.032682262 0.0149604995 0.01998999 -0.020877356 0.0023580422
-0.015110111 -0.03043618 0.0007261922 0.02576829 0.022906497 0.008637214 0.028487576 -0.003982343
0.026349265 -0.0037453678 0.030325755 -0.022726608 -0.026314227 0.0025810115 -0.028592309 0.02426658
0.022384083 -0.02610809 0.01695335 0.0292951 0.031821236 -0.02761771 -0.03658928 -0.028244637
-0.015079656 0.03406123 0.011536541 -0.016652204 -0.020299258 -0.0040894174 -0.023720236 -0.033515427
0.018167878 0.024516407 0.002801814 -0.009947046 0.02502273 -0.028237768 -0.010730737 -0.02002837
-0.008797996 0.03249028 -0.02305343 -6.431417e-05 -0.0017556807 -0.035037074 -0.012870204 -0.01192779
0.0035570066 -0.024067448 0.016251672 0.01978035 0.018932277 -0.024438236 -0.013246471 0.031924725
0.0068338728 0.013674973 -0.0077747647 0.014670883 0.031364378 -0.012824701 0.017435249 -0.02302899
-0.036174122 0.0034428118 0.015501033 -0.013120718 -0.019326892 0.0030427608 0.028760849 0.027257187
-0.0073433993 -0.010892054 0.017953696 0.017162487 0.006157621 -0.013824349 -0.021865625 -0.025522243
0.030601833 -0.017633887 0.019242873 -0.00649819 0.027189778 0.015946852 0.013540074 -0.03327441
0.00335128 -0.00061015965 -0.026673384 0.023847321 0.030003168 0.008591372 0.015237844 0.019667767
-0.015803289 -0.022238778 -0.007945002 0.014125444 -0.007415485 -0.021979263 -0.011326131 -0.014833427
-0.0139499195 -0.020953353 0.024736447 0.015291926 0.030873254 0.03346923 0.015567416 -0.02020644

fc_p.weight f4 [26, 128]
00000000: 5872 b43d 92fc 1abe 5f4d ee3d f282 d83b
00000010: 5009 c63d 3fb1 073d 1384 a93d ae1e 503c
00000020: 2289 6b3d e1c2 80b2 d0b7 08be e196 333d
00000030: e7f8 0bbd 7aba 933d afff 893d 5cb4 10bd
00000040: 9f7b 2fbd fd5c 6abd 47ee 313d 3fd5 3bbe
00000050: 7969 a63b 8ab9 f23d 3694 23be 20e8 3dbc
00000060: 4ec5 1f3d 3c4c 8b3d 80e4 4cbe c419 fdbd
00000070: 3ab3 943d bdf3 8c3c cf74 883d 9306 92bb
00000080: ed25 d33d fe84 953d 9219 b33d 77ae 10bb
00000090: e351 ed3d 6956 14bd d2ba 98bd b73e 323d
000000a0: ae40 b3bc 4d72 4dba 3ffa 2ebe 17f7 d636
000000b0: 78bd 9c3c 00f9 25be 4838 fbbd 1cc3 37bd
000000c0: c941 3c3d 586e 003e 1538 e9bc 5bef 11bc
000000d0: 01f0 30be f227 72be 367d 613b 33ef 8a3d
000000e0: 2829 46bd d6be 6f3d dadf 983b fb3d 21be
000000f0: bedc 2d3d e9f8 263c e464 d2bb 56c5 993d
00000100: d8c1 053d 22e2 2e3d 68f1 b63b 3968 53ba
00000110: b4c6 cabd 8b41 70bd e191 c73c 841b df3c
00000120: ea54 2abd 9731 0fbe b088 ddbd 48f6 f93c
00000130: 7fb4 d73d 37c1 29be 3290 d83d da25 aa3b
00000140: d215 8ebd 00dc 9abd e2d9 d7bd b129 7bbd
00000150: e5e7 703c 7f19 a33d ec9f a63b f784 db3d
00000160: c748 513b aa50 11be 0753 873d b56a 37bd
00000170: ea63 fb3c c8ec 25be 0511 33be 272e 2c3d
00000180: 9e1d 9abd e5c1 a63d da7c 6d3d 1125 af3c
00000190: 3e0d 1cbe 7886 43bd 0d03 163e af9e 0e3d
000001a0: 5b78 eabd 61c4 d5bc 994a 65bd 9b8b 0abe
000001b0: dda8 17be ecf1 283d 62c4 853c 111c 4bbd
000001c0: 7dd6 1a3d 46d5 26be c6d4 9f3d 9fd7 11bd
000001d0: 5787 92bd fc45 a2ba d966 b2bd 8c9e 6cbd
000001e0: 7796 e23d 41cc 9b3d fd97 b7bc c3a9 31bd
000001f0: 7454 f03d 0d43 ddbd 358d 87bd e2db 023e
00000200: 3e9e 283d 4e90 99bd 0067 0c3e abf7 323d
00000210: 21b2 31bc 6d78 76ba eded abbc 6d1a d53d
00000220: 3706 5138 16df 1d99 e7a3 cebd f54b 9fbc
00000230: 9af8 83bc 61d1 7fbd 3839 03bd f945 22bb
00000240: 53f2 0cbd 1e44 97bd 0a00 6fbd 4b42 17be
00000250: b4ce 013e 540e 3a3d 0e36 06be a982 c5bd
00000260: bf2f b43b b8e0 32be ac50 083b 266a c0bd
00000270: cc36 03be 6b14 2a3d 9478 813d 95f0 9f3c
00000280: f09b e53d 7edc aabd 216f 0fbe 3b20 a7bd
00000290: 07e5 9c3d e88d ca3c fbf4 a1bd f348 d0bd
000002a0: 8322 61bd b34a 4d3d b166 be3d 4baf 1831
000002b0: 9ce6 fd3d 616f 18be 862a 52be 91f7 09bd
000002c0: 2c2c 9a3d cfdf 1e3d 486c 6c3d 2496 d9bb
000002d0: 8c00 fcbd 2437 4e3d e22e cdbc 41ad 063e
000002e0: 6444 8333 e3fc bbbd 56ff 9a3b 9ecf 05be
000002f0: 9c0a 12be 52fb fe3c 4369 e03a b39b cc3c
00000300: d697 9cbc 6054 323d a9a3 c53b dab7 42be
00000310: 3b7d babd 0698 d63d c38a 173d cb77 713d
00000320: 3906 47bd b0c1 4ebd 6aae 8e3d a25f 1d3d
00000330: 5e89 4dbd ff13 30be 3797 103e 2200 b0bd
00000340: fc95 59bd a0f2 903d 23ad b13d 5784 ce3d
00000350: 48f1 823c 66fa 8abd 229c a1bd 333c c2bd
00000360: 3f64 663c 6ef3 0d3d 9fb0 083d cd9d c8bd
00000370: 65f2 73bd acfb 9bbd ef5b a53d a11c 233d
00000380: 7c27 b0bc 97ee 91bc f8fc 6abe 2a82 5b3d
00000390: 9552 cbbd 792a 2c3d f9ae 1dbe 22ed d93d
000003a0: 65b7 ba3d 6fb3 843d bad0 973d 55ff 24be
000003b0: b220 a23c 2eae e43b 67d8 883d a6bf 4e3d
000003c0: 0a43 3bbe 8fb8 873c 9941 c33d a3f9 f1bc
000003d0: e6a9 673d d2da 9dbb d8c0 01be 090a ccbd
000003e0: 2167 8b3d e6c6 af3d 4f99 123d d274 efb8
000003f0: fdeb 87bd e370 7d38 e967 13bd 61d0 8ebd
0.08810872 -0.1513541 0.11635851 0.006607407 0.09669745 0.03312802 0.08277144 0.012702627
0.057503827 -1.4989782e-08 -0.13351369 0.04384506 -0.03417292 0.07213302 0.06738221 -0.035328254
-0.042842504 -0.057217587 0.04344013 -0.18343066 0.0050784913 0.11851795 -0.15974507 -0.011590987
0.039006524 0.0680165 -0.20009041 -0.1235843 0.07260747 0.017206067 0.066629045 -0.00445635
0.10309968 0.07300757 0.087451115 -0.0022076645 0.11587884 -0.03621522 -0.07457508 0.04351684
-0.021881428 -0.00078371615 -0.17087649 6.406462e-06 0.019133314 -0.16208267 -0.12266594 -0.044863805
0.045961175 0.12542093 -0.028469125 -0.008907164 -0.17279054 -0.2364805 0.0034406907 0.06783905
-0.048379093 0.058531605 0.004665357 -0.157463 0.042446844 0.010191181 -0.0064207185 0.07508342
0.032655567 0.042696126 0.005582977 -0.00080645416 -0.09901181 -0.058656257 0.024361553 0.0272348
-0.041584887 -0.13983761 -0.10817087 0.030512944 0.10532474 -0.16577612 0.10574378 0.0051925005
-0.06937756 -0.07561493 -0.10539605 -0.061319057 0.014703725 0.07963847 0.005084982 0.107187204
0.0031934248 -0.14190927 0.06607633 -0.044779498 0.030687291 -0.16203606 -0.17486961 0.0420362
-0.0752518 0.08142451 0.057980396 0.02137998 -0.15239426 -0.04773566 0.14649601 0.0348193
-0.11448737 -0.026094617 -0.055979345 -0.13529818 -0.1481051 0.04124634 0.016328994 -0.049587313
0.03780221 -0.16292295 0.07804255 -0.035606023 -0.0715472 -0.0012380476 -0.08711023 -0.05776839
0.11063855 0.07607318 -0.02241134 -0.043374788 0.11734858 -0.108038045 -0.0661873 0.12779191
0.041166537 -0.07498227 0.13711166 0.043693226 -0.010845692 -0.00094021 -0.020987475 0.10405431
4.983527e-05 -8.161762e-24 -0.10089856 -0.019445399 -0.016109753 -0.06245554 -0.03203699 -0.0024760945
-0.034410786 -0.07386039 -0.058349647 -0.14771383 0.12676507 0.04542382 -0.13106558 -0.09644062
0.005498856 -0.17468536 0.0020800037 -0.09395246 -0.12813872 0.04152338 0.063218266 0.019523898
0.11211383 -0.08342837 -0.14007236 -0.08160444 0.07660871 0.02472587 -0.079080544 -0.10170164
-0.054964554 0.050120067 0.092969306 2.2218554e-09 0.12397501 -0.14886238 -0.20524034 -0.033683363
0.07527956 0.03878766 0.057720453 -0.0066402126 -0.12304792 0.050345555 -0.02504677 0.13152029
6.112603e-08 -0.09179094 0.0047301454 -0.13067481 -0.1426186 0.031125698 0.0017121214 0.024976587
-0.01911537 0.043537498 0.0060314727 -0.19015446 -0.09105917 0.10478215 0.036997568 0.058952134
-0.04858992 -0.050477684 0.069668606 0.03842128 -0.05017983 -0.17195128 0.14120184 -0.08593775
-0.053121552 0.07077527 0.08675601 0.100838356 0.015984192 -0.06786041 -0.07891108 -0.09484138
0.0140619865 0.03465598 0.033371564 -0.09795723 -0.059557337 -0.07616362 0.080741756 0.039822225
-0.021503203 -0.017813964 -0.22948062 0.05359093 -0.09927861 0.042032693 -0.15398778 0.106409326
0.09117011 0.06479537 0.07412858 -0.16113026 0.019790981 0.0069787716 0.066819005 0.05047574
-0.18287292 0.016567497 0.09533996 -0.029537981 0.056558512 -0.004817345 -0.1267122 -0.099628516
0.0680678 0.08582859 0.035790738 -0.000114181676 -0.06636808 6.0425034e-05 -0.03598777 -0.06973339

fc_p.bias f4 [26]
00000000: 0cba 93ba b507 063d 4a03 b73c cb08 8abc
00000010: a885 f03c 62e3 e03c 1834 323d ce81 393c
00000020: b603 fb3c 1128 21bd da01 da3c 0fe8 6bbd
00000030: 313a 5fbd 9258 4e3c b5c5 8ebd bd5e 6d3d
00000040: 9c0b d6bc 4f30 c7bb b31a c83d f94e 913d
00000050: 4d80 b5bd b236 963d 4638 833d 1a22 8f3d
00000060: 74a0 683c 5f6b f9bd
-0.0011270656 0.032722194 0.022340436 -0.016849896 0.029360607 0.027452175 0.04350671 0.011322452
0.030641418 -0.03934485 0.026612211 -0.057594355 -0.054498855 0.012594359 -0.069713034 0.057951678
-0.026128583 -0.006078757 0.097707175 0.07095141 -0.08862362 0.07334651 0.06407218 0.06988926
0.014198411 -0.121786825

fc_v.weight f4 [1, 128]
00000000: d724 e53a 0212 a93c aa52 d6bc d636 943d
00000010: e30c 8b3b 981b 1cbd c8f7 5cbd e837 7a3b
00000020: 604a 293c e833 bd3b 01f0 923c fc8d 653b
00000030: 3175 2a3d 054f 2fbd 93fb 10bd 6936 3a3d
00000040: 858b c73c ef0a 113c 39c7 58bc 4d38 42bb
00000050: 9477 09bd b69c 30bd d2aa 4e3d 272a 413d
00000060: ff0e 2ebb c95c 80bb 36e2 0a3d 4614 73bb
00000070: 0aa6 363b 9102 04bd b682 ddbc 58d3 4abd
00000080: f6d6 113c a974 fcbc 5aaa ff3c 25d8 513d
00000090: 16d6 5cbc 492a 823d a4dc 333c b92a 853b
000000a0: 5db3 aabd d0dd d43a 255d b83b d54a 0e3d
000000b0: 7fe5 723d 0802 813b 2d29 8eb9 33b1 b83d
000000c0: fca8 8fbb 1a50 6abd 8937 61bd ecc6 e83c
000000d0: 489f ba3c 6fc1 de3c 8388 27bd f6e6 e3ba
000000e0: 0f0e 8eba d85a 9fbc 98eb c43a 7f25 ebbb
000000f0: 3bd1 1ebc 2c2e 89bd 8b8e 633d 82aa 92bd
00000100: c749 b53d 9bfc a0bc ce38 b93d e14b 3bbb
00000110: b94e e4bb 235b 84bd 1742 77bd 6597 85bd
00000120: d069 31bd 58f4 c13c 69f7 69bd 3b0a 703d
00000130: 163d d1bb 4d37 84bc 01d3 0a3c 3ad1 a63d
00000140: b58f 913c 361f 193b deca a5bc 06a3 83bd
00000150: 0415 2dbb a68c 873c 73a6 a7bc 771f 7dbc
00000160: c214 b53c f27d c5bc 2273 f33c 418a e03c
00000170: 5a4c 76bc 4d00 2b3d 4a13 1fbd c688 babb
00000180: 5a57 0b3c 31cc 233d 825d 3b3c 3ca4 a3bc
00000190: 12eb e6bc fd20 833d f078 3cbd 35c8 a83b
000001a0: 9565 573d 7b74 1dbd dbbd 963c 89f1 27bd
000001b0: 4dfc 2f3d f634 993c b854 853b aeac ad3b
000001c0: 365a 9fbc f9e4 2fbd 92b1 a0bc 079a cfbb
000001d0: 0355 6f3d a656 27bc c34f 57bc 0cf3 233d
000001e0: d770 6ebd 6564 08bd dd2b 9e3d 4674 bc3c
000001f0: 5d30 973c 6fea 363c 1664 943c 59a2 abbc
0.0017482293 0.02063847 -0.026162464 0.072370216 0.0042434796 -0.038112253 -0.05394724 0.0038180295
0.010332674 0.00577401 0.017936708 0.0035027256 0.04161567 -0.04279997 -0.03539617 0.045462046
0.02435852 0.008852704 -0.013231092 -0.0029635609 -0.033561304 -0.0431182 0.050455876 0.04715934
-0.0026559231 -0.003917311 0.033907138 -0.0037090941 0.0027869963 -0.03222901 -0.027039867 -0.04951796
0.008901348 -0.030817347 0.03120916 0.051231522 -0.013478776 0.063557215 0.010977898 0.004063931
-0.08334992 0.0016240422 0.005626338 0.034739334 0.059300896 0.0039370097 -0.0002711503 0.09018173
-0.004384158 -0.057205297 -0.054984603 0.028415166 0.02278103 0.027191846 -0.040901672 -0.0017387557
-0.001083793 -0.019452497 0.0015023826 -0.0071761007 -0.009693439 -0.0669826 0.05555586 -0.07161428
0.088519625 -0.019651702 0.09044038 -0.0028579163 -0.0069673923 -0.064626954 -0.060365763 -0.06523017
-0.0433138 0.023676082 -0.057120714 0.058603507 -0.006385456 -0.01613965 0.008473159 0.081453755
0.01776872 0.002336455 -0.020238336 -0.06427579 -0.0026410231 0.016546559 -0.020465111 -0.015449396
0.022104625 -0.024107907 0.029717986 0.027409675 -0.015032852 0.041748334 -0.038836755 -0.005692574
0.008504713 0.039989654 0.011435868 -0.019975774 -0.028188262 0.064027764 -0.046013772 0.0051508197
0.05258711 -0.038441163 0.018401077 -0.04100183 0.042965222 0.018702012 0.004068937 0.005300126
-0.019452196 -0.042942975 -0.019615922 -0.0063355 0.058430683 -0.01021353 -0.013141575 0.04002671
-0.05821308 -0.03329887 0.0772321 0.023004662 0.018455679 0.011164292 0.018114131 -0.020951437
