hw22/293Iters/modelx_286.pth (torch, 452322 bytes, 17 tensors)

conv1.weight f4 [16, 4, 3, 3]
000000 38 2c 88 bd d8 36 1e be 2d a3 0e bd 2f 83 c5 bb
       -0.06649059 -0.15450609 -0.034823585 -0.006027601
000010 07 c3 f5 bd bc 82 9b 3d f6 e3 61 bd f6 83 10 3e
       -0.12000089 0.07593295 -0.05514904 0.14112839
000020 b4 4f be bd 87 14 ff bd 62 23 17 be a6 41 d5 3d
       -0.09292546 -0.12455087 -0.14759591 0.10412912
000030 8e 37 cf bd 1c 45 14 3e 22 92 69 3d af 05 a4 bd
       -0.10118018 0.14479488 0.05702413 -0.080088966
000040 ab 59 36 3d c8 c5 1b 3e da 52 93 bd c4 2f 10 3e
       0.044519108 0.15212166 -0.07193537 0.14080721
000050 04 e8 13 3d c5 c5 67 3d e0 b0 9a b6 4e d7 32 3d
       0.03610994 0.056585092 -4.6101486e-06 0.04366236
000060 57 16 25 bc 59 19 fd bd 7d 54 06 3d df a2 10 92
       -0.010076127 -0.1235835 0.032795418 -4.563914e-28
000070 19 36 0e b5 96 f7 69 30 da d5 a9 11 12 00 62 a9
       -5.2977845e-07 8.5116747e-10 2.6795295e-28 -5.0182142e-14
000080 a5 7f bd 39 09 55 3c 33 fa d7 68 2e 3b 38 f1 37
       0.00036143992 4.38495e-08 5.294252e-11 2.8755623e-05
000090 a9 d1 01 3e 22 1a 17 be b5 b0 e8 bd 35 c8 16 3e
       0.12677635 -0.14756063 -0.11361829 0.1472481
0000a0 99 6f b9 bc df b3 e6 bc 8a 35 c1 3c 98 39 00 be
       -0.022636222 -0.028161941 0.0235851 -0.1252197
0000b0 09 12 32 bd 20 2e a4 3d a2 6d 8d bd c7 aa b4 bd
       -0.04347423 0.0801661 -0.069056764 -0.08821636
0000c0 c7 58 41 bd 51 f3 47 3d ee 26 03 be 47 c1 96 3a
       -0.047203805 0.04881603 -0.12807819 0.0011501693
0000d0 c9 f2 7c 3d 55 65 b2 bd b1 fb fc 3d 1e 9e 8e bd
       0.061754975 -0.08710734 0.12352694 -0.06963752
0000e0 82 5e ad 3d 50 36 c6 3d b7 cc d4 3a 26 03 8d bd
       0.084652916 0.09678328 0.0016235326 -0.06885366
0000f0 49 eb 58 3c 78 e3 03 be 8e c0 bd 3d 7c 30 b9 a7
       0.01323969 -0.12879741 0.092652425 -5.140038e-15
000100 0b 25 08 aa b9 11 94 b9 bf 8d e8 39 f4 26 62 1e
       -1.2092078e-13 -0.00028241964 0.00044356097 1.1972396e-20
000110 2b af 2f b4 76 a6 85 ba 28 82 88 3a 62 b3 09 a9
       -1.6361871e-07 -0.0010196704 0.0010414766 -3.05757e-14
000120 2f 74 69 3b 97 cb 5d 3e 1b b4 57 be 2f 91 6c bd
       0.003562223 0.21659695 -0.21064799 -0.057755645
000130 de 18 ae bd 3e 80 88 bd db 4c e8 3d 2e 30 50 bd
       -0.08500837 -0.06665085 0.11342784 -0.050827198
000140 30 7b 74 bd 76 41 2f bc 80 34 9f 3d 6e 82 34 be
       -0.059687793 -0.010696759 0.077736855 -0.1762788
000150 a4 ef 02 bd a1 bb e4 3d ef 4e ca bc 00 ee e6 bd
       -0.03196682 0.111686 -0.024695842 -0.11275864
000160 e1 47 4f bd 8b 4f 6b bd 9b d4 12 3d 93 ce 93 bd
       -0.05060566 -0.057448905 0.035847288 -0.07217135
000170 0b 04 11 bd 6d 66 ca bd 68 78 3b 39 ac 6d bd bd
       -0.035404246 -0.098828174 0.00017878565 -0.09249434
000180 91 b6 19 3b f7 55 e2 bd 28 b5 e5 3c 07 23 32 37
       0.0023454765 -0.11051553 0.028040484 1.0617782e-05
000190 5f c6 e9 9e 2a 94 d6 b6 45 56 93 96 c5 95 59 ba
       -2.4751879e-20 -6.3949456e-06 -2.3803575e-25 -0.00083002105
0001a0 52 99 c8 3a 06 1f 3c 39 63 f1 91 b8 42 a4 07 aa
       0.0015304482 0.00017940634 -6.9591006e-05 -1.2047397e-13
0001b0 57 35 3f 3e 66 ea 9f bd e7 97 55 bc b2 1a 2c 3e
       0.18672691 -0.0780838 -0.013036705 0.16807058
0001c0 55 52 02 3e 0e 76 dd 3a e0 fe 8d bc 39 2a 8a 3d
       0.1272672 0.0016896145 -0.017333448 0.067463346
0001d0 e4 33 b3 3b 0c 4b 36 bd 21 c4 ef bc 31 40 c0 bd
       0.0054688323 -0.044505164 -0.029268326 -0.093872435
0001e0 46 72 22 3e 47 05 9f 3d bf 60 30 bd 27 9a be bd
       0.15863904 0.077646784 -0.043061014 -0.09306746
0001f0 92 33 1f bc 2b 61 cd bc bd 73 00 bd c8 02 0c 3e
       -0.009716885 -0.025070747 -0.031360377 0.13672936
000200 40 95 b7 bd 33 7d 0b bd 6a 5c df 38 17 25 ec 3d
       -0.08964014 -0.034054946 0.00010650682 0.11530512
000210 41 40 f2 bd 4e d6 a8 3c b1 20 29 bc 9a be 99 1c
       -0.11828662 0.020610001 -0.010322736 1.017396e-21
000220 3d ea 22 30 c3 64 03 28 d0 4a ff 39 98 1c 7a b6
       5.926813e-10 7.29381e-15 0.0004869313 -3.7269547e-06
000230 29 c8 9d 16 08 aa 0e bb f5 85 95 36 f1 5c 98 39
       2.5491037e-25 -0.0021768827 4.4561407e-06 0.00029060946
000240 77 60 1e 3e 90 5e 4e bd f4 8b 9c 3d 89 39 7d 3d
       0.15466486 -0.05038315 0.076438814 0.061822448
000250 9c 10 2a 3e 4f 80 bc 3d 88 63 13 be d3 bb 02 3e
       0.16607898 0.092041604 -0.14393437 0.12766962
000260 46 87 e7 bc ff ec 06 3e 2e 83 a6 3d 02 87 2a 3e
       -0.028262746 0.13176344 0.08130489 0.16653064
000270 12 4e 9d 3d f2 a3 43 3d e3 01 3f 3e f9 cb a8 bd
       0.07680906 0.047763772 0.18653063 -0.0824203
000280 7b 0e 9a 3d ed c9 43 3d 14 af f3 bd 4e 9f 95 bd
       0.07522293 0.047799993 -0.11898628 -0.073057756
000290 61 f1 57 bd b4 94 23 3e 6a 3d c1 b6 1e f7 36 be
       -0.05272043 0.15974694 -5.7589978e-06 -0.17867705
0002a0 9e f1 0c be ba f8 04 3e 31 83 fa bb d9 69 14 11
       -0.13764045 0.12985507 -0.0076450338 1.1707758e-28
0002b0 05 44 9c 38 10 b2 3e 3a 74 ac c4 33 70 05 98 30
       7.451329e-05 0.0007274458 9.15833e-08 1.1061001e-09
0002c0 49 a8 1f ba bd 1c 12 b9 46 bc 6a 39 39 38 8a 38
       -0.0006090445 -0.00013934351 0.00022386116 6.590825e-05
0002d0 ff 55 b6 bc 5d 7d 99 3d be 50 ed 3d 9b f4 e6 3d
       -0.022257803 0.07494614 0.11587666 0.112771235
0002e0 03 63 10 3e 21 2f e8 bb 1b 79 cb bd 8a e7 1d bc
       0.1410027 -0.0070856963 -0.099352084 -0.009637723
0002f0 7b d9 89 bc ae 59 f5 bd 7c 22 1f 3d 22 75 a3 bd
       -0.016827336 -0.11979996 0.038851246 -0.07981326
000300 27 07 a8 bd 37 ca 28 3e 35 22 cf bd cf ad 99 bd
       -0.08204489 0.16483389 -0.10113946 -0.075038545
000310 48 ff 08 be 0a b4 95 bc 1e 28 79 3c 0d 32 8d bd
       -0.13378632 -0.018274326 0.015207319 -0.06894312
000320 64 5b bf 3c f6 4f 30 bd 82 21 13 b9 2c 58 89 3b
       0.023359008 -0.043045007 -0.00014031495 0.004191419
000330 fa 50 a9 bd 17 7b 9e bd 74 6a f1 3d 99 9b 84 9b
       -0.08267398 -0.07738321 0.117878824 -2.193812e-22
000340 ba 11 34 3b 5b 40 33 9f c5 30 1d 32 98 8e 7d 3a
       0.0027476386 -3.7957958e-20 9.149692e-09 0.0009672432
000350 2d e1 85 9b 9e 3d 90 10 8a 68 c9 ba 95 53 b9 12
       -2.214852e-22 5.689292e-29 -0.0015366238 1.1695746e-27
000360 2f 02 80 3c 32 d1 7b 3d f4 e1 f1 3c 6d 81 fe 3b
       0.015626041 0.0614788 0.029526688 0.0077668936
000370 b9 44 20 3e ba 41 35 3e d6 3e 13 3e 53 8f 20 bb
       0.15651216 0.17700854 0.14379439 -0.002449949
000380 d3 75 94 bd 13 1f 00 3e a8 da cf 3d ae f8 0d bd
       -0.07249036 0.12511854 0.10149127 -0.034660988
000390 eb db b8 3d 43 ad 68 3d 89 85 df 3d 16 04 2d 3e
       0.09026321 0.05680586 0.10914142 0.1689609
0003a0 12 78 e6 3d 2e 0c ee bd 80 1d 1c be db 71 ed bd
       0.1125337 -0.11623417 -0.15245628 -0.11593982
0003b0 0b ec 1b 3e d9 7a 46 bd 61 83 7d b7 ea 69 28 be
       0.15226762 -0.048457 -1.5110564e-05 -0.16446653
0003c0 7a 01 d0 bd be b4 d2 bd c0 93 2f bd 24 d6 fe 3a
       -0.10156532 -0.1028838 -0.042865515 0.0019442481
0003d0 ec ba 52 37 e3 ad e0 b8 bc 18 53 92 68 ff c2 07
       1.25604965e-05 -0.00010713541 -6.661035e-28 2.933999e-34
0003e0 7d 55 fc 16 e3 77 32 38 57 af 33 3a 51 8d 09 28
       4.0766746e-25 4.255016e-05 0.0006854436 7.635671e-15
0003f0 8e 7e 14 3e 54 65 b8 3d ce 9c 0e 3d e8 88 f0 3d
       0.14501402 0.09003702 0.03481751 0.11744863

conv1.bias f4 [16]
000000 b5 e5 d7 b7 c1 e0 8a 39 58 32 2b b7 3b e2 40 37
       -2.5736963e-05 0.00026488866 -1.0204116e-05 1.1496765e-05
000010 7c 3e fc b9 5a 05 3d 39 b6 98 02 38 58 ec dc b8
       -0.0004811174 0.00018026438 3.113664e-05 -0.0001053444
000020 aa 48 a5 b9 d1 46 f3 b7 dc 3a 4d b8 f5 e6 ab ba
       -0.0003152539 -2.9000834e-05 -4.8930626e-05 -0.0013115095
000030 42 6d 54 35 1d 85 2d bb 9f 9c 1b b8 8f bc ad 39
       7.9135145e-07 -0.0026477047 -3.7100745e-05 0.00033137618

bn1.weight f4 [16]
000000 88 3c 7e 3f 73 e2 80 3f a7 e4 78 3f 81 24 85 3f
       0.99311113 1.0069107 0.97223896 1.0401765
000010 8f 0d 85 3f b5 3b 80 3f 0e 9e 81 3f 10 7f 89 3f
       1.0394763 1.0018221 1.012636 1.0741901
000020 e4 c5 78 3f 49 3b 7c 3f 5b 94 77 3f dd e6 7a 3f
       0.9717696 0.9852796 0.9671075 0.9800852
000030 e3 e9 74 3f b4 c2 7e 3f a1 d9 73 3f 4d 4f 81 3f
       0.9566938 0.99515843 0.9525395 1.0102326

bn1.bias f4 [16]
000000 48 b2 83 3b 5c 06 6d 3c 2b 30 68 bc 76 5b f4 3c
       0.0040190555 0.014466848 -0.01417164 0.029828768
000010 fc 32 4e bc 55 d7 d5 bb a9 63 f0 bc bc 08 d5 bc
       -0.012585398 -0.0065259137 -0.029344397 -0.026005141
000020 90 ec f5 bb 60 2d 44 39 98 90 b8 bb 20 18 b7 bc
       -0.007505007 0.0001870892 -0.0056324713 -0.02235037
000030 47 dc 43 bd d4 aa 46 bc 1f a7 bf bc ed 20 50 bb
       -0.047817495 -0.01212569 -0.02339512 -0.0031757907

bn1.running_mean f4 [16]
000000 18 01 92 3d 48 22 72 bc 91 f7 b5 be 76 e5 bf 3d
       0.07129115 -0.014778681 -0.3554044 0.09369938
000010 5c 59 bb 3d 58 08 08 be 2a 76 53 be 91 92 78 be
       0.09147903 -0.13284433 -0.20650545 -0.2427466
000020 ae 45 91 bd 75 66 d7 3c 18 98 6a 3c 34 d1 e8 be
       -0.070933685 0.026293973 0.014318489 -0.4547211
000030 83 d2 d4 be 9c 26 84 3e 21 57 b7 3c e1 b1 32 be
       -0.41566858 0.25810707 0.022380413 -0.17450668

bn1.running_var f4 [16]
000000 fa 92 05 3d 95 97 dc 3c e1 6b 02 3d 1a c6 b2 3c
       0.03261087 0.026927749 0.031841163 0.021822978
000010 6b 3d 11 3d 75 d2 ff 3c ce 4f 17 3d d0 1d 7b 3c
       0.035458963 0.031228283 0.036941342 0.015326932
000020 92 98 07 3d 7b 51 9a 3c 5a 7c a0 3c 08 f1 60 3d
       0.033104487 0.018837681 0.019590545 0.054917365
000030 aa 4d 58 3d 20 7a 3a 3d 92 11 4b 3c 97 a6 26 3d
       0.05280844 0.045526624 0.012394326 0.040686216

conv2.weight f4 [32, 16, 3, 3]
000000 51 ca 04 bd 4d be 90 bd af 83 80 3d f5 27 a3 bc
       -0.032419506 -0.07067547 0.06275117 -0.019916514
000010 f1 59 9d 3d a2 76 c2 b9 7a 71 68 bd 1c d1 3e 3d
       0.076831706 -0.00037090952 -0.056748845 0.04658614
000020 d9 71 46 bd a2 0f 1b 3d 2c 07 76 bd cb a1 17 3c
       -0.048448417 0.037856705 -0.060065433 0.009254883
000030 de e8 3d bb d0 92 08 3d 4f fd 32 bd a6 33 88 bd
       -0.002897791 0.033343136 -0.043698605 -0.06650476
000040 6e f5 ca 3c 57 c8 36 3d 0c 33 09 bd 76 52 51 bb
       0.024775233 0.044624653 -0.033495948 -0.003194002
000050 f7 c2 04 bd ee b3 8f bd 1a 8a 52 bd a1 8c 96 bd
       -0.032412495 -0.07016741 -0.051401235 -0.073510416
000060 64 e4 8c 3b 0d 77 4a 3d 25 c4 50 3d 25 37 88 3d
       0.004299687 0.049429942 0.050968308 0.06651143
000070 c2 09 dd bd 44 59 60 bd 21 af 95 3d 82 82 76 3d
       -0.10792877 -0.05477263 0.07308794 0.060183056
000080 ef f5 bd bd 3c bf d6 3d f8 22 c6 3d fb 9f 40 bc
       -0.09275424 0.10485694 0.096746385 -0.011756892
000090 73 ef 23 3d 33 37 16 bd 54 25 35 bd 71 7b d6 bc
       0.04002328 -0.036673736 -0.044225052 -0.026181908
0000a0 1c 19 bf bd f0 3c a7 3c 4e 87 41 3c c3 ac 42 3d
       -0.09330961 0.0204148 0.011812044 0.04752804
0000b0 ac a9 1a bd e1 9f a5 bc 52 2f 3c 3d e5 a6 77 3d
       -0.037759468 -0.020217838 0.045943566 0.060461897
0000c0 ad 78 9d 3d 76 e7 32 bc 45 d4 cb 3d bd 04 ac 3d
       0.07689033 -0.010919442 0.099525966 0.08399341
0000d0 f3 8e 8f bd 4a c3 a6 3d 82 7e 5e 3d e5 64 1e bd
       -0.07009687 0.08142717 0.054319866 -0.03867044
0000e0 55 ce cd 3b 19 8d 82 bd 49 4f 29 bd 57 28 a0 bb
       0.0062807 -0.063745685 -0.041335378 -0.0048876214
0000f0 1e 93 aa bc 9a 2a 12 3d b1 b0 24 3d 65 0d 99 3d
       -0.020822104 0.03568516 0.04020757 0.07473258
000100 5e 28 a0 3d 8e 89 63 3d 7b 7e 60 bd 71 19 b3 3c
       0.078201994 0.055551104 -0.05480812 0.021862717
000110 8e b3 a6 bc a6 48 be 3b 10 be 7a 3d e9 7f 4f bd
       -0.02034929 0.005807 0.061216414 -0.050659094
000120 be 27 4a 3d 64 61 17 bb 84 40 52 3d 3a 05 bc bc
       0.049354307 -0.002309882 0.05133106 -0.022951711
000130 6a c0 0f bc 5a ac 4e bd 62 d5 c4 bb bb 21 8b 3d
       -0.008773902 -0.050457336 -0.0060068825 0.06793543
000140 3e f9 01 3d 9b da 5e 3d 40 7a f9 ba f0 1d 4d 3d
       0.031731836 0.054407697 -0.0019033626 0.05007738
000150 3e 82 1d 3b 8a 97 8e bd c5 17 03 bc 60 58 a4 3d
       0.002403393 -0.069624975 -0.008001273 0.08024669
000160 a1 e1 86 bd 51 e8 fb bc 90 84 85 3c b3 aa 10 3d
       -0.06586004 -0.030750426 0.016298562 0.03531904
000170 3b 3c 9b 3d 4b 18 96 3d c9 8c 5b 3d cd 7d 80 3d
       0.075798474 0.07328852 0.05360106 0.062739946
000180 05 4a 82 3d 96 2b 71 3d 90 6b b5 3c b0 74 cc bc
       0.06361774 0.058879457 0.022146016 -0.024957985
000190 be c1 e1 3d 4a b3 d2 3d 40 36 65 3c 6b b3 a9 3c
       0.110232815 0.10288103 0.013989985 0.020715436
0001a0 50 4f 73 3c 40 57 f2 bc 32 df 77 3c 9c d2 ab 3d
       0.014850453 -0.02958262 0.0151288975 0.0838978
0001b0 6d 54 d4 bc 62 2e 27 bd fe 23 8e bc ad aa d3 bc
       -0.025919164 -0.04081572 -0.017351147 -0.02583822
0001c0 54 d4 af 3d cb f0 6c 3d c6 a9 a2 3d 8d b0 a6 bd
       0.0858542 0.057846826 0.07942538 -0.08139143
0001d0 88 de 0d 3d 61 6e 5f bc 4e 40 03 3d 47 87 c0 bc
       0.03463605 -0.013637156 0.032043748 -0.023502005
0001e0 9e 62 a3 3b c0 a4 bf 3c 35 f5 42 bc b1 ad 33 bd
       0.0049861213 0.023393989 -0.011899282 -0.043866817
0001f0 c3 30 1d 3b 03 8f 10 bd 3e 97 5b bc 39 3c 4c bc
       0.0023985363 -0.035292637 -0.013402758 -0.01246553
000200 c5 43 e1 bc 5c 1a 76 3d 58 de d4 bc d1 68 e3 ba
       -0.027498135 0.060083732 -0.025984928 -0.0017349963
000210 05 9f 8e bd 0f 08 86 3d 80 fc ba bc ad 02 94 3d
       -0.06963924 0.06544506 -0.02282548 0.07227073
000220 96 ee bb bc 45 95 38 bd 8b fc 56 bd d6 e0 8c 3d
       -0.022940915 -0.04506423 -0.052486937 0.068788216
000230 38 a7 16 bd d4 21 68 bd ea f3 c2 bd ac 8d 2d bd
       -0.036780566 -0.056672886 -0.09519179 -0.042371437
000240 ee e1 6d bd 17 73 1f 3d 2b aa 35 3d fb cc 43 3d
       -0.05807679 0.038928118 0.044351738 0.047802906
000250 2d 5a d4 bc 2c 74 2e 3d 64 f0 b0 bc 1f 02 2d 3d
       -0.025921905 0.04259126 -0.021599002 0.04223835
000260 a7 76 9a 3d 93 c3 6f bc 7e a9 7d bd 3a 23 49 3d
       0.075421624 -0.014634031 -0.06192922 0.04910586
000270 b9 cf af 3b ca 4f d2 3d 32 67 4c 3d a8 fe ca bc
       0.0053653386 0.10269125 0.049903102 -0.024779633
000280 1f f7 0b bd 2d 07 cf bd 1a e9 84 bd 1a 74 af 3c
       -0.03417122 -0.101087905 -0.06489773 0.021417666
000290 e5 f3 1b bc 9f 4b 14 bd 25 be 83 bc b1 c9 6c bd
       -0.009518598 -0.03620493 -0.016081879 -0.057809535
0002a0 76 8a 63 3d ac 7d 29 bd 65 e6 d6 3c 59 2c a4 3b
       0.05555197 -0.041379616 0.026232908 0.0050101695
0002b0 5f 1a ac 3d 21 c4 53 bd a3 f6 23 3d bb 74 18 3d
       0.084034674 -0.051700715 0.040030133 0.037220698
0002c0 68 e7 22 bc 1c f9 21 bd 5c 49 8a 3d a5 a7 44 bc
       -0.009942867 -0.03954421 0.067522734 -0.01200286
0002d0 1d 4f 8a 3d 13 bf b8 bd 1d e0 8d bd 86 4c bb bb
       0.06753371 -0.090208195 -0.06927512 -0.0057159094
0002e0 64 a1 3b 3b de 36 14 3d 36 2d aa bd d1 37 31 bc
       0.0028630132 0.036185138 -0.083094046 -0.01081653
0002f0 49 1a d6 bc 7d ff aa 3c ec bf 6a bd 32 61 1f 3d
       -0.02613558 0.02087378 -0.057311937 0.038911052
000300 3e 3f 81 3c 57 fe ca bc 32 00 c3 3d ec 3f 3f bd
       0.015777227 -0.024779482 0.09521522 -0.04669182
000310 83 a8 4e bd f6 24 3c 3c be 8b d7 3c 69 65 07 3d
       -0.050453674 0.011483422 0.026311751 0.033055697
000320 d9 21 1b bd b6 d2 14 3c 8d 8f 05 bd b7 a8 f0 bb
       -0.037874077 0.0090834405 -0.032607604 -0.007344331
000330 36 12 3d bc 34 8d 7b bb 60 96 30 bb 4b f1 bb bd
       -0.011539986 -0.0038383724 -0.00269451 -0.09176882
000340 53 80 a9 bd ab 72 92 3d 20 d5 24 bc 44 96 fb 3d
       -0.08276429 0.071507774 -0.010060579 0.1228452
000350 16 b6 9b bc 71 62 03 bd b1 aa 03 3d 12 08 32 3d
       -0.019007724 -0.032076303 0.032145206 0.043464728
000360 06 fa af bc 11 26 9f bc 64 4f 96 3c 0c 91 36 3c
       -0.021481525 -0.019427331 0.018348403 0.01114298
000370 75 aa ea 3d 3d 5c 88 bc 01 7d 56 3c 30 fb 7c 3d
       0.11458293 -0.016645545 0.013091327 0.06176299
000380 89 1b 11 39 51 ab d6 bd 59 d7 e1 bb 41 39 8b bd
       0.00013838535 -0.10481895 -0.0068921265 -0.0679803
000390 0c 1f 05 bd ca a1 1f 3c ce 05 52 3b 60 48 01 3c
       -0.03250031 0.009743163 0.0032046917 0.007890791
0003a0 02 cc 95 3a c2 53 46 ba 2c 02 52 bd 57 6e 42 3d
       0.0011428597 -0.00075655815 -0.051271603 0.04746851
0003b0 d0 11 b2 bd ef 7e 5a bd 0a b9 f2 bc 49 ef 23 3d
       -0.08694804 -0.05334371 -0.02962925 0.040023122
0003c0 77 f6 14 3d c1 33 95 bc fa 32 ea 3b 66 73 12 bc
       0.03636786 -0.018213155 0.00714719 -0.008938646
0003d0 0c dc 29 bd 8e 73 a3 3d 07 6e a2 bc 6a 07 b6 bb
       -0.04146962 0.07981025 -0.019827856 -0.005555083
0003e0 2a ff 28 bc 60 d6 60 3d 33 a7 a9 bd de 1a b5 bd
       -0.010314742 0.054891944 -0.08283844 -0.08843015
0003f0 c2 a7 50 3b 12 e7 f5 bc 3d e1 56 bc fb 96 59 bd
       0.0031838273 -0.03001741 -0.013115224 -0.0531225

conv2.bias f4 [32]
000000 cc 26 1c b8 fa b7 c0 37 34 f3 60 b7 18 f9 79 b5
       -3.722943e-05 2.2973854e-05 -1.3408066e-05 -9.312221e-07
000010 27 cf de b8 cf 91 4b b8 68 95 84 37 0e 53 49 37
       -0.0001062437 -4.8534766e-05 1.5805199e-05 1.1999871e-05
000020 34 81 8f b6 f2 31 ee b6 8d 00 18 37 4b d7 8c 38
       -4.2767733e-06 -7.098767e-06 9.060034e-06 6.715822e-05
000030 5c 09 98 37 2b b7 08 b7 77 84 47 b6 2b b9 4b 37
       1.812417e-05 -8.148879e-06 -2.9730415e-06 1.2142856e-05
000040 27 40 9e b7 ee 91 14 38 c8 b3 71 37 41 14 ef 37
       -1.8864941e-05 3.5421857e-05 1.4406578e-05 2.8500452e-05
000050 20 32 79 b7 f5 f0 a6 b6 d2 af 2e b7 ba 60 b9 37
       -1.4853227e-05 -4.9752366e-06 -1.0412145e-05 2.209876e-05
000060 03 6a d5 b5 67 9a 5a 37 f2 b1 98 b6 7e b2 bd 37
       -1.590059e-06 1.3029762e-05 -4.5506686e-06 2.2613673e-05
000070 7a bb 90 b6 e6 69 b6 b7 10 5b 84 b5 54 af 15 b7
       -4.3133596e-06 -2.1745404e-05 -9.861269e-07 -8.921914e-06

bn2.weight f4 [32]
000000 58 90 8e 3f e5 59 94 3f 9d ca 94 3f 7f fe 8c 3f
       1.11378 1.1589934 1.1624333 1.1015166
000010 2c 77 8c 3f 7c 30 8c 3f f1 3e 91 3f c4 4c 8e 3f
       1.0973868 1.0952296 1.1347333 1.1117177
000020 20 da 8d 3f 04 e7 8e 3f ea e4 8e 3f 80 3e 95 3f
       1.1082191 1.116425 1.1163609 1.1659698
000030 b9 58 8a 3f b0 03 90 3f ae 11 8a 3f 67 c6 92 3f
       1.0808326 1.1251125 1.0786645 1.1466798
000040 7e 57 94 3f 68 48 8f 3f d4 91 88 3f ca 4c 8f 3f
       1.15892 1.1193972 1.0669503 1.1195309
000050 eb 12 8e 3f ef 39 8b 3f 52 62 91 3f dc da 88 3f
       1.1099523 1.0877055 1.135813 1.069179
000060 82 2f 8a 3f 1c dd 8a 3f 57 f4 8a 3f f8 cf 8e 3f
       1.0795748 1.0848727 1.0855817 1.1157217
000070 a7 44 90 3f 2e 79 91 3f b8 56 89 3f 39 ac 8e 3f
       1.1270951 1.1365106 1.072959 1.1146308

bn2.bias f4 [32]
000000 b3 fc 16 3d 78 7f 38 3d 55 26 93 3d 2d 4e 43 3d
       0.036862087 0.04504344 0.07185046 0.047681976
000010 1d 27 3f 3d e9 97 10 3d 62 bd 8f 3d 69 70 23 3d
       0.04666816 0.035301123 0.07018544 0.039902125
000020 77 bb b1 3c 28 3a 87 3c dc da 61 3d 67 9a 3d 3d
       0.021695836 0.016507223 0.05514036 0.046289828
000030 bd a8 a3 3c 26 c5 22 3d 57 da aa 3c 99 73 46 3d
       0.019977922 0.039738797 0.020856066 0.048450086
000040 c6 dc 27 3d 8f 4a 1e 3d 82 5a 2c 3c d9 04 97 3d
       0.04098203 0.038645323 0.010519626 0.073739715
000050 c8 40 60 3d 57 45 13 3d 57 b6 96 3d a0 49 83 3c
       0.05474928 0.0359548 0.07358997 0.016026318
000060 24 44 e0 3c 0a b3 6f 3d ab 46 ee 3c e0 e0 81 3d
       0.027376242 0.058520354 0.029086431 0.063417196
000070 9b 1e 3a 3d c8 2f 80 3d e6 74 c2 3c a7 c3 66 3d
       0.045439344 0.062591136 0.023737382 0.056338932

bn2.running_mean f4 [32]
000000 41 24 62 3e e8 c0 c7 3d a8 bd a9 3b 2a 90 81 be
       0.22084142 0.09753591 0.0051800795 -0.253053
000010 2c ff 17 be 88 a9 09 bd 24 23 f2 bd 29 33 9a 3c
       -0.14843434 -0.033608943 -0.11823109 0.018823223
000020 a1 fb 08 be a6 d8 3d be a9 4b 91 be ef 56 26 3c
       -0.13377239 -0.18539676 -0.28378037 0.0101525625
000030 16 16 25 3e 98 b3 50 be 4e c5 14 bd c8 6b 5f bd
       0.16121706 -0.2038101 -0.036320977 -0.054546148
000040 7f dc 6e 3c 04 6d 3b 3d 32 07 f8 3e 27 c9 0b 3e
       0.014578938 0.045758262 0.4844299 0.13650952
000050 ae a2 15 3e dd 28 6c 3c d9 97 a9 3d bb 25 01 3e
       0.14612839 0.014414039 0.08280916 0.1261205
000060 be 0e 91 3e 16 8b 90 bc 87 97 20 3e 45 17 a6 be
       0.2833156 -0.017644446 0.15682803 -0.32439628
000070 a0 5a 2e 3e 9b fd 0c be 76 b1 0b 3e 29 35 32 3e
       0.17026758 -0.13768618 0.13641915 0.17403091

bn2.running_var f4 [32]
000000 00 80 1e 3e 23 af 94 3d f7 3e 06 3e ec 03 5f 3d
       0.15478516 0.07259967 0.13109957 0.0544471
000010 46 b9 83 3d 53 8f 97 3d b0 dc 8a 3d 30 b1 9e 3d
       0.064318225 0.07400384 0.06780374 0.077486396
000020 2f 0f c3 3d 64 14 9f 3d 0e 6c 84 3d 43 80 d1 3d
       0.095243804 0.07767561 0.06465922 0.10229542
000030 be a4 b7 3d 4f db bd 3d 5f 5e 38 3d 5e 02 c5 3d
       0.08966969 0.092703454 0.045011874 0.09619592
000040 53 e6 de 3d 1d 85 80 3d 98 43 d4 3d aa 65 dc 3d
       0.108837746 0.06275389 0.10364455 0.107615784
000050 69 88 b1 3d 6e 01 c6 3d 91 2c 11 3e 6c ba ca 3d
       0.08668596 0.096682414 0.14177157 0.098988384
000060 22 62 82 3d 9e 06 92 3d 73 5b 16 3e d3 a2 ce 3d
       0.063663736 0.071301684 0.14683323 0.1008965
000070 44 ef 85 3d ad 6e ba 3d 2e 27 d1 3d cf 3d 86 3d
       0.06539777 0.09103141 0.10212551 0.06554758

fc1.weight f4 [128, 800]
000000 4c f5 51 3d 11 88 90 3b b0 57 90 bd 85 f3 b6 ba
       0.051259324 0.0044107516 -0.07047975 -0.0013958073
000010 cd 50 1f bd c8 49 a7 3d d3 4e 28 3d dd af df 3c
       -0.038895417 0.081683695 0.041090798 0.027305538
000020 63 8e ce bc 55 3d 09 3c 2d de 21 bd 27 57 38 bd
       -0.02521438 0.008376439 -0.039518524 -0.04500499
000030 35 79 79 bd 9d ff 4c bd 1d 48 dc b9 fb 72 0e bc
       -0.060906608 -0.05004846 -0.00042015399 -0.008694406
000040 17 6b 55 bd 6b 13 3b 3c 3d 38 ad bb 4f fa 3b ba
       -0.052104082 0.011418204 -0.005286245 -0.0007170783
000050 9c fc bd 3c 69 1b 4c 3d 1f 68 87 3d 10 46 3d 3d
       0.023191743 0.049830828 0.066116564 0.046209395
000060 05 10 a7 bb 48 07 fa 3b 92 f8 20 bc 0b 80 df 3b
       -0.005098345 0.0076302625 -0.009824889 0.006820684
000070 1e 32 54 3d cf 01 8d bc 07 ff de 3c 62 1f 99 bd
       0.051805608 -0.017212776 0.027221216 -0.07476689
000080 4d d2 9e bc 2b 8a 86 bd 48 1f 4d bc d1 45 a7 3c
       -0.019387389 -0.06569322 -0.012519665 0.020419033
000090 fd 81 ff 3c c2 d9 44 3d c3 e4 3c bd c8 79 8d 3d
       0.031189913 0.048059233 -0.0461166 0.069079936
0000a0 f9 3b 10 3d bc c4 f9 3c 8c ac 57 bc 60 95 b3 3c
       0.035213444 0.030489318 -0.013163697 0.021921813
0000b0 a0 ca ec 3c 4a 1b 7a bc a8 9b b6 3c 76 fd 98 bc
       0.028905213 -0.015265295 0.02229102 -0.018675547
0000c0 9b 70 22 3d 64 1d 80 3c f1 2d 49 3c e3 75 10 3b
       0.03965817 0.015639015 0.01227902 0.0022042922
0000d0 41 c7 01 bc 5a 9c b9 3c 5c 2d 8d bd 06 f7 66 3a
       -0.007921041 0.022657562 -0.06893417 0.0008810613
0000e0 f2 8d 4f bd 49 c4 46 bd f0 11 32 3b 81 4a 78 bc
       -0.05067248 -0.048527036 0.0027171336 -0.015154482
0000f0 df 61 eb bc 65 92 ea bc 37 9f 36 bd 5b 8b 82 bd
       -0.028733192 -0.02863426 -0.044585433 -0.06374236
000100 2d 11 bf bb 8f b0 86 bd 9b 37 8e bd b9 00 23 3d
       -0.005830905 -0.06576645 -0.069442 0.03979561
000110 b6 4e 89 3d 99 87 4f 3d 59 ba 90 3d 95 b0 93 3d
       0.06704466 0.050666425 0.07066793 0.07211415
000120 e3 d6 b9 bc 09 a4 f9 3b 83 c6 f3 3c 46 12 0d bc
       -0.022685474 0.0076184315 0.029757744 -0.008610314
000130 5d 43 5a 3d 97 59 73 bc 57 0d 95 3c 19 34 4c ba
       0.0532869 -0.014852903 0.018194837 -0.00077897456
000140 07 2e e2 3c 47 ab 2f 3d 5e 0f 37 bd 67 ac 84 3a
       0.027609838 0.042887952 -0.04469239 0.0010122181
000150 67 10 4e 3c da 2e 10 3c 9b 18 9b 3c d5 41 18 3d
       0.012577153 0.008800233 0.018932631 0.037172157
000160 0a d4 c3 bb 48 07 2e bd f1 04 1a 3c 46 63 5a bc
       -0.0059762048 -0.042487413 0.009400592 -0.013329333
000170 bf 9a 17 bc a9 91 91 3c e4 1e 2c 3d 20 0d de 3c
       -0.009253203 0.017769651 0.042021647 0.027105868
000180 b5 dc ac bc b9 c2 08 bd 3e 77 2f 3b 37 1a f0 bc
       -0.021101335 -0.033388827 0.0026773955 -0.029309375
000190 d1 88 02 bc ce c4 20 bc 32 bd e6 3b cd 9a 91 bc
       -0.00796719 -0.009812547 0.007041597 -0.01777401
0001a0 65 c0 45 bb ed a9 a6 bd 25 a2 26 3d 02 d3 8c 3d
       -0.003017449 -0.081378795 0.040681977 0.06876184
0001b0 9c 20 bf bc 3c f5 05 3c 0b bf 7b 3d e4 c5 1e 3d
       -0.023330979 0.008176144 0.06146149 0.038762942
0001c0 bd 39 6e 3d 10 a4 72 3d c2 77 4f bd ed e3 9a bb
       0.058160532 0.059238493 -0.05065132 -0.004726878
0001d0 1a e4 1c 3c d4 5b 15 3b c4 05 29 3d 1e 6a c7 bb
       0.009575868 0.002279033 0.041265264 -0.006085648
0001e0 b8 5b cc 3c 83 70 94 3c e3 56 3a 3d 25 92 1f bc
       0.024946079 0.018120056 0.045493018 -0.009739433
0001f0 32 71 06 3d a1 dc 93 3c b4 72 3e bc 7e a9 41 bc
       0.032822795 0.01804954 -0.011624027 -0.011820195
000200 48 76 b9 bc 35 97 56 bd c7 8f 94 3d ac 92 90 3d
       -0.022639409 -0.052390296 0.07253986 0.070592254
000210 1e 66 69 bd df 76 5c 3d 92 c7 d0 bc f9 c2 98 bc
       -0.056982152 0.0538243 -0.025485788 -0.018647658
000220 5d ee fc bc b6 0a fc 3b 55 15 32 bc 4d 09 b3 bc
       -0.03087538 0.0076917065 -0.010869344 -0.02185502
000230 00 1e 0f bd 8e d5 8e bc f5 5d 2b 3c 37 9e 11 3d
       -0.03494072 -0.017435815 0.010459413 0.035551276
000240 76 b9 31 bd 96 bc f9 3c 7d 88 03 bc dd 6e 8f bd
       -0.04338976 0.030485433 -0.008028147 -0.07003567
000250 e0 f7 e9 3c 52 fc ce 3c 0b ad 7c b9 b1 2d 32 39
       0.028560579 0.0252668 -0.00024097056 0.00016992424
000260 c8 c2 b7 bc 9a 23 84 bc 2a 02 de 3c f4 84 27 bd
       -0.022431746 -0.016130257 0.027100641 -0.04089828
000270 d7 3c d3 3c c4 eb 45 bc 94 65 66 3c 07 bf 0b bc
       0.025785847 -0.012080137 0.014062304 -0.008529431
000280 7c f2 c5 3c 4e a7 8b bb 83 94 2d 3d 57 f0 b5 3c
       0.024163477 -0.0042618876 0.04237796 0.02220933
000290 63 3a 92 3c 00 11 ff bb 20 50 26 3b 9a ba a2 bb
       0.017850107 -0.007784009 0.0025377348 -0.0049660923
0002a0 3d 81 5f 3c 57 08 d6 bb 88 99 fa 3c 5a db a1 bc
       0.013641653 -0.006531756 0.030590788 -0.019757915
0002b0 0f 51 09 3b 81 e9 8a bb 3e 29 39 3d b4 40 f5 3c
       0.0020952856 -0.0042392616 0.045205347 0.02993808
0002c0 c9 61 65 3d 8c 8a 33 3d 4b b3 b8 ba 1f f6 b6 3c
       0.05600146 0.0438333 -0.0014091519 0.022334157
0002d0 bb c4 0c 3d 5b 5a b0 bc 8f 7e 07 bd 99 c6 bc bc
       0.034367304 -0.02152746 -0.03307968 -0.023043917
0002e0 5b fb 1a 3c e3 ad 6d 3d ca 3a 1a 3c 93 f8 5b 3d
       0.009459342 0.05802716 0.0094134305 0.053703856
0002f0 cc 63 8c 3b 1a 2e 06 3d 57 8c 27 bc 9e 8d 9f 3c
       0.0042843577 0.03275881 -0.010226331 0.019476708
000300 0d 6a 0c bd 82 0a 2e 3d e7 80 fc 3b 68 13 cc bc
       -0.034280825 0.04249049 0.007705796 -0.024911597
000310 61 cf 02 bd 55 74 14 3d d4 21 a5 bc 68 80 b2 bb
       -0.031936053 0.036243755 -0.020157732 -0.005447436
000320 d6 fe 43 3d 54 9c db 3c e1 5c 95 bd 20 20 92 bc
       0.047850452 0.026807941 -0.07293106 -0.017837584
000330 46 ca 0b bc ad e3 f1 bc 0e f6 36 3d ed 83 24 bd
       -0.008532112 -0.02952751 0.04466825 -0.040164877
000340 ff d8 17 3c a7 99 c1 bc 37 41 e4 3c 47 19 53 bd
       0.0092680445 -0.023632837 0.027863128 -0.05153778
000350 65 86 fb 3c 3d 42 5b 3c fc dd e6 3b 4d 2a 7f 3c
       0.030703733 0.013382492 0.0070455056 0.01557405
000360 3d 66 90 bb 4d 2f 62 3c b5 6a 3a bc 41 f5 d7 3c
       -0.004406719 0.013805223 -0.01137798 0.026362063
000370 f1 82 fb bc 69 ec 9f bc a4 fc fd bc 7f 16 75 bc
       -0.030702086 -0.019521909 -0.031004258 -0.014958977
000380 f2 a8 85 bc 2d 6a 9d 3d 3a cc a9 bc 7b 4a 0c 39
       -0.016315911 0.07686267 -0.020727266 0.00013379187
000390 45 18 f5 bb ab bc a3 3b 82 81 cc 3b c2 b8 85 3a
       -0.0074797 0.004996856 0.0062410245 0.0010202157
0003a0 2e dd d6 bc 75 68 2c bc 1e f2 a0 3c fa 4b 08 bb
       -0.026228514 -0.010522951 0.0196467 -0.0020797239
0003b0 96 c2 f3 3c a6 ce 20 bd 13 82 c9 3a 1c f4 a1 bc
       0.029755872 -0.039259575 0.0015373848 -0.01976972
0003c0 12 3f 08 3d 27 12 d8 3b 91 87 0c 3d d2 55 30 bc
       0.033263274 0.006593961 0.034308974 -0.010762649
0003d0 30 bc f0 bc d7 58 f8 3b 08 8a ff 3c 1e a7 9e 3c
       -0.02938661 0.00757895 0.031193748 0.019366797
0003e0 5c cb d3 3b 97 25 61 3c 8e e0 f2 3b cc d8 51 bd
       0.0064634513 0.013741872 0.007412023 -0.051232144
0003f0 ac 45 4b 3d 6f 8c d9 3c 77 4c 83 bc 3c fb d3 bc
       0.04962699 0.026556222 -0.016027672 -0.025876634

fc1.bias f4 [128]
000000 35 aa 67 bc 16 62 d5 bc 7f e4 f5 bc 7a b0 b6 3b
       -0.014139702 -0.026047748 -0.030016182 0.005575237
000010 78 e5 84 3c ac 05 e1 b9 55 fe cb 3c 40 f8 a3 3b
       0.0162227 -0.0004291957 0.024901548 0.005003959
000020 2e 76 19 bc 92 70 a5 bc 83 4a 0c bd 0a 76 06 bd
       -0.009366555 -0.02019528 -0.034250747 -0.032827415
000030 20 67 6d 3c 32 18 ab 3c b9 16 9e bc ab 3f 1b 3b
       0.014489919 0.02088556 -0.019297944 0.0023689072
000040 89 f3 6e bc d4 05 fa bc 41 e9 4c 3b ca 5c c5 3c
       -0.0145844305 -0.030520357 0.003126696 0.024092097
000050 b2 7d c1 3c 2d 37 21 3c 3a ac ec 3c 4b e4 b5 bb
       0.023619507 0.009839815 0.028890718 -0.0055508963
000060 b9 cd d8 3c 5f 1f 20 bb 38 89 f6 3c 2a 31 ae bc
       0.026465284 -0.002443276 0.030094728 -0.021263678
000070 6e 3d df bc eb 69 06 3b 70 56 e7 bc a4 b1 d5 3c
       -0.027250972 0.002050991 -0.028239459 0.026085682
000080 ba 36 af 3c 79 45 d0 bc ba 2e 8c 3c 7b 87 e8 3c
       0.0213884 -0.025423752 0.017112125 0.028384915
000090 c4 b9 fe 3c 12 f5 e2 bc 83 dd 0c bd 6e 17 e6 bc
       0.03109444 -0.02770475 -0.034390938 -0.028087344
0000a0 b8 61 77 bc 41 2c 09 3d e7 bc 22 3c c5 ac 8a bc
       -0.015098982 0.03348947 0.009932733 -0.016928086
0000b0 52 62 ae bc 0d c1 55 bb 28 0e db bc 9e 7f 07 bd
       -0.021287117 -0.0032616288 -0.026740149 -0.03308069
0000c0 c4 e6 8c 3c f1 f8 c8 3c 6a ab b4 bb 74 e5 25 bc
       0.017199881 0.024532767 -0.005513598 -0.010125507
0000d0 31 6f cf 3c c0 05 f6 bc da 41 30 bc 37 96 95 bc
       0.025321575 -0.030032039 -0.010757888 -0.018260105
0000e0 b7 df 14 bc 38 fe 00 3d d5 d0 be bc 20 71 ab 3a
       -0.009086541 0.031492442 -0.023292938 0.0013079979
0000f0 53 27 ca 38 00 25 10 bd 71 12 53 bc 6e 87 43 bc
       9.639435e-05 -0.035191536 -0.012882815 -0.011934144
000100 ad 46 8b 3b a2 0e c7 bc ea a1 84 3c d6 5a 91 3c
       0.0042503686 -0.02429897 0.016190488 0.01774351
000110 ab e1 8e 3c 15 a0 bc bc ac a3 39 bc b4 63 02 3d
       0.017441591 -0.023025552 -0.011330526 0.031833366
000120 77 d8 bc 3b 44 a7 57 3c ea e5 f1 bb 9c 9e 70 3c
       0.0057631093 0.013162438 -0.007382144 0.014686253
000130 dd 17 f2 3c 89 ac 49 bc 62 87 9c 3c 29 cf b9 bc
       0.029552395 -0.012309202 0.019107524 -0.02268179
000140 75 cb 14 bd 5d 22 98 3b ba 7b 85 3c 17 22 4a bc
       -0.036326844 0.0046427683 0.016294349 -0.012337229
000150 43 90 a1 bc 07 0c 48 3b e0 4d ee 3c 63 f5 e1 3c
       -0.01972211 0.0030524747 0.029089868 0.02758283
000160 d5 94 fc bb 1f 42 2e bc f7 0a 9e 3c c0 e3 83 3c
       -0.007708172 -0.010635882 0.019292338 0.01609981
000170 19 5d a5 3b f7 5d 87 bc 19 85 9a bc b0 cc c0 bc
       0.0050464985 -0.016524298 -0.018862294 -0.023535103
000180 31 68 f1 3c d2 20 a5 bc 62 0a aa 3c d7 eb cc bb
       0.029468628 -0.020157252 0.020756904 -0.0062537002
000190 72 48 e6 3c fb f6 82 3c cc bb 40 3c 91 86 0f bd
       0.028110716 0.01598691 0.011763524 -0.035040442
0001a0 59 27 48 3b 40 c6 b7 b9 2c 39 ec bc 89 b3 b5 3c
       0.003054103 -0.00035052188 -0.028835855 0.022180336
0001b0 46 49 ed 3c 86 f4 0c 3c b6 a6 91 3c 8c 89 a1 3c
       0.028965604 0.008603221 0.01777969 0.019718908
0001c0 72 27 7f bc 0a 76 b6 bc 6f a6 fd bb 0f ec 68 3c
       -0.015573369 -0.022273082 -0.0077407877 0.014216437
0001d0 b2 18 f3 bb d2 ba a7 bc fe 95 2b bc a2 9f 66 bc
       -0.0074187154 -0.020474825 -0.010472773 -0.014076145
0001e0 07 32 76 bc 4a 00 a7 bc bf aa b7 3c a9 87 40 3c
       -0.015026576 -0.02038588 0.022420285 0.011751094
0001f0 a7 5b 06 3d dd 67 07 3d 89 3e 44 3c 99 14 b1 bc
       0.03280225 0.033058036 0.0119778 -0.021616267

fc_p.weight f4 [26, 128]
000000 8c c7 ba 3d 01 63 19 be 4e f9 ee 3d 57 f0 de 3b
       0.09120092 -0.14979173 0.11668645 0.006803553
000010 93 ba c1 3d 60 46 08 3d fa a9 a5 3d 76 60 42 3c
       0.09459414 0.03327024 0.08089061 0.011863818
000020 93 2b 6e 3d d3 29 67 b3 45 8d 06 be c3 8b 36 3d
       0.058147024 -5.3821918e-08 -0.13139828 0.04456688
000030 64 f9 05 bd 27 26 91 3d 2e 78 8b 3d f6 b5 14 bd
       -0.03270854 0.07087355 0.06810032 -0.036306344
000040 cd 74 2d bd 90 e5 6a bd ad 2e 32 3d bc 14 3a be
       -0.042347718 -0.057347834 0.043501545 -0.18171972
000050 72 d5 b7 3b c1 75 f2 3d 57 89 1f be 31 d2 43 bc
       0.0056101615 0.11838866 -0.15579735 -0.011951969
000060 8f 98 20 3d d5 89 8e 3d 1f 20 4c be 35 f3 f8 bd
       0.03920799 0.06959883 -0.19934128 -0.12155763
000070 b4 44 96 3d 25 a2 81 3c 22 b7 89 3d d1 4f df bb
       0.07337323 0.015824387 0.06724383 -0.006814935
000080 53 25 ce 3d be ad 96 3d 99 da b1 3d 80 19 b8 bb
       0.10065713 0.073573574 0.08684272 -0.005618274
000090 96 aa f0 3d 29 ee 16 bd 19 4b 99 bd b0 3d 2d 3d
       0.11751287 -0.03684822 -0.07485027 0.042295158
0000a0 9b a5 b3 bc d1 7e e1 ba 78 6f 2f be 1b 4a 51 37
       -0.021929553 -0.0017203932 -0.17132366 1.2474625e-05
0000b0 c1 b0 a5 3c 2d bf 22 be a4 bf fa bd 84 cd 2f bd
       0.020225884 -0.1589324 -0.12243584 -0.042920604
0000c0 1c 13 3e 3d c9 e4 f9 3d e0 77 d2 bc 98 05 24 bc
       0.046404943 0.122018404 -0.025691926 -0.010011099
0000d0 45 4c 2e be 8d b7 6b be 5f 94 64 3b b1 86 88 3d
       -0.17021282 -0.23019238 0.0034878475 0.06666315
0000e0 a6 75 4a bd 84 1a 70 3d e4 1a b6 3b 40 9e 21 be
       -0.049428605 0.058619037 0.005557405 -0.15783024
0000f0 b9 e0 25 3d df 93 38 3c 62 56 d3 bb 64 56 9a 3d
       0.040497515 0.011265724 -0.0064495066 0.07536009
000100 c4 67 08 3d 3d 7c 33 3d c1 e7 eb 3b 5c ea f7 ba
       0.033302084 0.043819655 0.007199258 -0.0018914449
000110 1e 40 d1 bd 60 6e 73 bd fe 3e c9 3c 78 78 df 3c
       -0.102173075 -0.059431434 0.02456617 0.027279124
000120 cf c5 27 bd eb e5 09 be 08 3c da bd 37 54 fb 3c
       -0.04096013 -0.13466613 -0.10655981 0.030679805
000130 9f b9 d6 3d 14 74 2a be b0 06 ce 3d c4 33 01 3c
       0.10484623 -0.16645843 0.10059869 0.007885877
000140 47 15 8f bd 16 1f 94 bd 8a 5a d5 bd f9 9f 72 bd
       -0.0698648 -0.07232492 -0.104176596 -0.059234593
000150 d6 14 8e 3c b5 66 a3 3d 1d e7 64 3b 12 c7 db 3d
       0.01734392 0.07978574 0.0034927793 0.10731329
000160 1b 04 52 3b 38 99 0d be 2b cc 86 3d d2 bb 3d bd
       0.0032045904 -0.1382798 0.06581911 -0.046321698
000170 63 e9 ee 3c 56 8f 26 be 1f 21 31 be 64 bb 2e 3d
       0.029164022 -0.16265616 -0.17297791 0.04265918
000180 60 d8 99 bd 35 98 a3 3d fe 5d 6f 3d 8d 4b b1 3c
       -0.075119734 0.079880156 0.058439247 0.02164247
000190 aa 7f 19 be 1e be 44 bd 92 b1 13 3e 95 1e 16 3d
       -0.14990106 -0.048032872 0.14423206 0.03665026
0001a0 ee 98 e6 bd 66 a5 dc bc 52 33 60 bd 9b a4 07 be
       -0.11259638 -0.026934337 -0.054736443 -0.13246386
0001b0 94 cf 15 be 3f 65 29 3d c5 33 7e 3c df e2 4b bd
       -0.14629966 0.04135632 0.0155152725 -0.049776908
0001c0 15 a5 0e 3d c8 a8 25 be 56 cb 9f 3d b3 75 14 bd
       0.034825403 -0.16177666 0.07802455 -0.03624506
0001d0 ec 95 92 bd 10 f1 b2 ba be c9 ad bd 4b 4d 67 bd
       -0.071575016 -0.0013652164 -0.08485745 -0.056470197
0001e0 a5 c8 de 3d 58 09 99 3d 79 a4 9a bc c5 43 23 bd
       0.10878114 0.07472485 -0.018877255 -0.039859552
0001f0 a5 ad f0 3d 38 dd de bd 34 65 85 bd 3f 7f 03 3e
       0.1175187 -0.10882038 -0.065134436 0.1284151
000200 c6 96 2c 3d c3 44 90 bd 50 b3 0c 3e be 68 3f 3d
       0.042135976 -0.07044365 0.13740277 0.04673075
000210 ab a4 17 bc 03 60 78 ba 93 a7 ad bc 3c 23 d1 3d
       -0.0092555685 -0.0009474756 -0.02119807 0.102117985
000220 1e a1 53 38 78 d9 49 1a b1 ef c7 bd 1c ca a2 bc
       5.0456372e-05 4.1741496e-23 -0.097625144 -0.019871764
000230 03 ea 76 bc e2 e6 7e bd d8 c0 00 bd 06 c8 27 bb
       -0.015070441 -0.062231906 -0.03143391 -0.00256014
000240 df 82 05 bd b9 17 98 bd 5c 15 70 bd 17 cc 14 be
       -0.03259551 -0.074264 -0.05861412 -0.14530979
000250 0c 33 04 3e 18 d4 3e 3d 20 4d 04 be 0a 1d c0 bd
       0.12910098 0.046588987 -0.12920046 -0.09380539
000260 ae 70 b6 3b a0 da 30 be 31 d6 f5 3a fb 04 c3 bd
       0.0055676317 -0.17270899 0.0018755851 -0.09522434
000270 f2 38 ff bd 09 3e 2f 3d 36 d7 82 3d 56 fd c2 3c
       -0.12462033 0.04278377 0.063887045 0.02380244
000280 c9 0c e8 3d e5 3b a6 bd 26 d2 11 be 11 e2 a5 bd
       0.113305636 -0.08116893 -0.14240322 -0.08099759
000290 0f 03 9f 3d 9f b7 d6 3c 5b a7 a1 bd c2 60 ce bd
       0.07764255 0.026210604 -0.07893249 -0.10077049
0002a0 69 e5 61 bd 63 01 51 3d 2d 28 c1 3d a2 57 2d 32
       -0.055150423 0.051026713 0.09431491 1.0089851e-08
0002b0 cb 22 f9 3d a7 da 12 be 07 ca 4d be fe 7a 1a bd
       0.12164839 -0.14341222 -0.20096599 -0.03771495
0002c0 32 16 98 3d 20 7f 1f 3d 4c c5 6c 3d 01 31 f5 bb
       0.074261084 0.038939595 0.057805344 -0.0074826484
0002d0 ba a6 fc bd bd 7a 44 3d 79 bf cd bc e6 95 04 3e
       -0.12336488 0.047968615 -0.025115715 0.12947807
0002e0 a7 f9 ec 33 10 83 ba bd 78 4c b8 3b 5e 28 03 be
       1.1035018e-07 -0.091070294 0.00562435 -0.12808368
0002f0 3a 09 14 be 48 91 00 3d 3f aa e1 3a c2 d1 cd 3c
       -0.14456645 0.03138855 0.0017216875 0.025124434
000300 3a 24 ca bc 5f dc 37 3d 8f 39 11 3c af 92 40 be
       -0.024675477 0.044887897 0.008863821 -0.18805955
000310 85 29 bf bd b4 5c d4 3d 1c 2b 18 3d e1 0e 70 3d
       -0.09334091 0.10369244 0.037150487 0.05860794
000320 60 fc 4a bd 5d 5e 4b bd 78 1b 92 3d 85 19 1e 3d
       -0.04955709 -0.04965054 0.071341455 0.038598556
000330 0b 31 54 bd 43 0a 2c be 7f aa 0f 3e 5d bb b7 bd
       -0.051804584 -0.1680079 0.14029883 -0.089712836
000340 f0 3a 5b bd 92 b7 8f 3d c4 f9 b3 3d 60 88 c8 3d
       -0.053523004 0.07017435 0.087878734 0.097916365
000350 70 c2 94 3c f0 39 8b bd 21 ea 9f bd a2 ee bc bd
       0.018159121 -0.0679816 -0.078083284 -0.09225203
000360 bf 9a 66 3c 3a 87 03 3d f9 38 13 3d 7d 22 ca bd
       0.01407498 0.032111384 0.035943005 -0.09869859
000370 ee 0c 6a bd b2 a7 9f bd 2a e7 a4 3d 84 9a 37 3d
       -0.057141237 -0.07795657 0.080519035 0.044825092
000380 a4 c4 96 bc 57 89 94 bc 00 30 68 be 3e 3e 55 3d
       -0.018404312 -0.018131895 -0.2267456 0.052061312
000390 c7 29 c1 bd 39 7d 2e 3d e0 4a 1b be 44 b7 d8 3d
       -0.094317965 0.04259989 -0.15165281 0.1058183
0003a0 70 6d bb 3d e7 26 90 3d 08 96 9a 3d 85 bf 23 be
       0.09151733 0.0703867 0.075481474 -0.15991028
0003b0 fc 79 56 3c 80 95 e5 3b 61 96 8e 3d a8 b7 4f 3d
       0.013090607 0.007006347 0.06962276 0.050712258
0003c0 24 2f 37 be 37 bf 86 3c 3d ae c3 3d 52 b4 f5 bc
       -0.17889076 0.0164486 0.09554718 -0.02999321
0003d0 b6 24 68 3d e8 dc a7 bb db ec 00 be ae 1d cf bd
       0.056675635 -0.0051227696 -0.12590353 -0.10113083
0003e0 0a 22 8b 3d 6c df a9 3d c5 7c 12 3d 38 b1 87 b9
       0.06793602 0.082945675 0.03576352 -0.00025881245
0003f0 ec d1 88 bd ec 5f 43 3b 6e 70 08 bd c7 db 8e bd
       -0.066806644 0.0029811813 -0.033310346 -0.06975513

fc_p.bias f4 [26]
000000 39 cd 96 39 2b 31 0c 3d 72 94 ab 3c 47 c3 87 bc
       0.00028763132 0.034226578 0.020944808 -0.016572608
000010 7f 1d f1 3c 3b 7e f8 3c 82 be 2f 3d 7b 56 1e 3c
       0.02943301 0.030333629 0.04290629 0.009664173
000020 17 0e f6 3c ff 94 20 bd f6 58 d5 3c a2 6b 65 bd
       0.030036015 -0.039204594 0.026043396 -0.05601085
000030 8b 80 65 bd b2 1e 44 3c c9 88 91 bd 01 6d 62 3d
       -0.05603079 0.011970209 -0.07106168 0.055279735
000040 cf 56 d6 bc a9 99 cc bb 54 da bf 3d b9 48 93 3d
       -0.02616444 -0.0062439037 0.09367815 0.07191605
000050 19 5a b1 bd 71 26 97 3d ed 7d 84 3d 46 e3 93 3d
       -0.08659763 0.07380379 0.06469331 0.07221083
000060 62 c1 7d 3c 88 53 f6 bd
       0.015488001 -0.12027651

fc_v.weight f4 [1, 128]
000000 70 ba 1d 39 89 e0 c2 3c 13 51 dd bc a6 31 93 3d
       0.0001504214 0.023788707 -0.027016198 0.07187204
000010 78 12 1e 3b af 34 1c bd 71 97 68 bd 59 8e 87 3a
       0.0024119895 -0.03813618 -0.05678505 0.0010342106
000020 f7 7b 29 3c fa 8f dd 3b 23 90 3b 3c 58 a5 65 3b
       0.010344497 0.006761548 0.011447939 0.003504118
000030 87 9d 26 3d 68 d4 39 bd 9b e6 0b bd 31 71 3a 3d
       0.040677574 -0.045368582 -0.03415547 0.045518104
000040 2f 72 ce 3c ea 17 11 3c 39 50 60 bc 39 79 9f bb
       0.025200931 0.008855799 -0.013691002 -0.004866746
000050 13 73 23 bd 4e 2a 33 bd cd e2 57 3d 9d ea 3c 3d
       -0.039904665 -0.043741517 0.05270653 0.046122182
000060 af 42 2e bb cc 0c a6 3a 6e 9e 04 3d a2 b2 3e bb
       -0.002659004 0.0012668609 0.032377653 -0.0029098173
000070 ca b8 eb 3a 53 fc ff bc 1e 27 ee bc a4 d7 59 bd
       0.0017984149 -0.031248247 -0.029071387 -0.053184167
000080 6c 06 f1 3b db b8 ff bc bf 9d 04 3d b6 e5 4d 3d
       0.007355502 -0.031216076 0.032377 0.050267898
000090 0d ae 3d bc dc 49 82 3d 67 6e 6f 3c 94 58 bf 3b
       -0.0115771415 0.06361744 0.014613724 0.0058394168
0000a0 1a ce aa bd 1a 7a 30 3a 84 e9 a2 3b 2a c7 12 3d
       -0.08340092 0.0006732062 0.004971685 0.03583447
0000b0 98 23 6e 3d dc d3 01 3c 24 9b 79 ba 3a 6d b5 3d
       0.058139414 0.007924046 -0.0009521714 0.08858724
0000c0 a4 a7 be bb 2a 60 6c bd e6 55 45 bd 0a f1 e9 3c
       -0.005818324 -0.057708897 -0.048177622 0.02855732
0000d0 b1 7d c1 3c 4f 68 e0 3c 0d bc 27 bd a0 03 9b bb
       0.023619505 0.027393488 -0.040950824 -0.0047306567
0000e0 45 42 8f ba d8 82 80 bc f8 1c ca 3a e3 f7 b8 bb
       -0.0010929784 -0.015687391 0.001542001 -0.005644785
0000f0 4f 2b 2f bc df 99 89 bd 44 9e 63 3d 14 ac 92 bd
       -0.010691478 -0.06718802 0.055570856 -0.071617275
000100 b2 64 b3 3d 69 6f a1 bc d0 a9 b6 3d 72 c6 b0 bb
       0.087594405 -0.019706445 0.08919108 -0.0053947503
000110 c7 d3 69 ba bb 30 89 bd c8 3f 78 bd 02 69 87 bd
       -0.0008919802 -0.06698748 -0.0606077 -0.066118255
000120 b9 ee 33 bd 98 ac b7 3c a5 08 67 bd e2 30 70 3d
       -0.043928836 0.022421166 -0.05640473 0.05864037
000130 55 b9 ae bb e0 b8 99 bc 3f 0c fc 3b a0 9b 9d 3d
       -0.005332152 -0.018764913 0.0076918895 0.07695699
000140 a5 a0 91 3c 5e 37 25 3b e0 f4 91 bc 80 65 82 bd
       0.017776797 0.0025210003 -0.01781696 -0.06367016
000150 b8 98 8b bb 3b 93 87 3c 15 41 9f bc 9e d0 37 bc
       -0.004260149 0.016549697 -0.019440213 -0.011219172
000160 de b8 b4 3c 11 70 b2 bc 6f be 0a 3d c4 25 d8 3c
       0.022060808 -0.021781953 0.033873018 0.026385196
000170 cf 62 79 bc cb 48 22 3d 62 ef 21 bd 3a ab b6 bb
       -0.015221312 0.039620202 -0.039534934 -0.005574611
000180 1b 04 15 3c 3b 57 25 3d 40 03 67 3c 62 6c ba bc
       0.009095217 0.040366393 0.014099896 -0.02275676
000190 c3 09 02 bd 6e 32 83 3d b7 45 3a bd 48 4e 97 3b
       -0.03174759 0.06406103 -0.04547664 0.004617486
0001a0 85 76 53 3d 38 1a 30 bd 0a 15 8a 3c 0e bb 28 bd
       0.0516267 -0.042993754 0.016855735 -0.041194014
0001b0 32 3d 32 3d 5f 3b 99 3c fa 44 9b 3a 16 b6 ad 3b
       0.04351539 0.018705068 0.0011846118 0.0053012474
0001c0 2f ea 96 bc 4a 05 35 bd 30 9b a2 bc 8c 57 d0 bb
       -0.018422214 -0.044194497 -0.01984939 -0.0063580927
0001d0 08 57 6f 3d c8 a0 40 bc 1b 4e 17 bc b5 a5 2a 3d
       0.05843261 -0.011757083 -0.00923493 0.041661937
0001e0 62 1d 6e bd 55 cd 0e bd 6a d9 90 3d 4d 40 b7 3c
       -0.05813349 -0.03486379 0.070727184 0.022369528
0001f0 94 d5 9f 3c d6 e6 4d 3c 73 04 5b 3c 19 20 8e bc
       0.019511022 0.012567243 0.01336776 -0.01734929
