hw22/293Iters/modelx_290.pth (torch, 452322 bytes, 17 tensors)

conv1.weight f4 [16, 4, 3, 3]
-0.06709093 -0.1555381 -0.03676853 -0.0032891256 -0.11935523 0.073788874 -0.057127792 0.14033066
-0.09546724 -0.12476227 -0.14787225 0.102147065 -0.10409358 0.14221598 0.057315238 -0.080339074
0.045678962 0.15341824 -0.07166389 0.1406406 0.035187006 0.057104826 -3.7887145e-05 0.04112939
-0.010333864 -0.12439315 0.03162507 -5.0031563e-28 -5.2739364e-07 8.4566204e-10 2.7128348e-28 -4.9569554e-14
0.00036063755 4.3616126e-08 5.256884e-11 2.866601e-05 0.12631375 -0.14712365 -0.11309218 0.14671652
-0.021989947 -0.02672302 0.025809683 -0.12592411 -0.04501736 0.081412084 -0.06670752 -0.08801279
-0.04546479 0.048522856 -0.13052842 0.0016317501 0.060671013 -0.088111654 0.12490997 -0.06819435
0.08485533 0.09687344 0.0016196009 -0.06957359 0.0125549575 -0.1294523 0.09151714 -5.139945e-15
-1.1937188e-13 -0.00028176792 0.00044260855 1.1691344e-20 -1.628179e-07 -0.0010177827 0.0010395566 -3.0196237e-14
0.0029639252 0.21569118 -0.21030651 -0.058571722 -0.08651651 -0.0687094 0.11410766 -0.05118053
-0.06020878 -0.013181016 0.077945665 -0.17631404 -0.030166185 0.11184157 -0.025819385 -0.11241164
-0.050882723 -0.057379697 0.034912933 -0.0728163 -0.035727154 -0.09880825 0.00073069235 -0.09264268
0.0030352038 -0.108983904 0.029087948 1.058097e-05 -2.4215346e-20 -6.371642e-06 -2.0853622e-25 -0.0008284237
0.0015278365 0.00017896346 -6.939585e-05 -1.1897633e-13 0.18967564 -0.07413934 -0.011660439 0.16903017
0.12814772 0.0020358914 -0.017112996 0.06520499 0.005905838 -0.04560801 -0.029567774 -0.09211798
0.15655603 0.07814712 -0.042398933 -0.09192503 -0.010077935 -0.023420151 -0.027984276 0.14190465
-0.08540717 -0.0335154 0.0001958602 0.1152064 -0.11869579 0.019020427 -0.0113541465 9.86672e-22
5.8879446e-10 7.198582e-15 0.00048590192 -3.7126724e-06 2.5895996e-25 -0.0021734424 4.4393414e-06 0.00028994185
0.15485835 -0.049793288 0.075421445 0.061876446 0.1649558 0.09110432 -0.14521337 0.12598835
-0.029242646 0.1305535 0.07857778 0.16549297 0.077591404 0.04916219 0.18738016 -0.08046893
0.07776444 0.050334252 -0.11972461 -0.074190415 -0.05368682 0.16094743 -1.6600849e-05 -0.18034056
-0.13726467 0.12836285 -0.009590722 1.2243369e-28 7.430613e-05 0.00072601176 9.111762e-08 1.0990202e-09
-0.00060780544 -0.00013898706 0.00022332613 6.572215e-05 -0.020732546 0.07659317 0.11605985 0.11253889
0.14296548 -0.0060443906 -0.098438606 -0.009636699 -0.017062677 -0.120327234 0.037216384 -0.07893584
-0.08059613 0.16390373 -0.09995483 -0.07434153 -0.1351231 -0.018765077 0.016919535 -0.067563094
0.024806175 -0.04220059 2.6994812e-05 0.00493038 -0.082563825 -0.0780216 0.11769321 -2.1160797e-22
0.0027435254 -3.712093e-20 9.096562e-09 0.00096543453 -2.1351425e-22 6.309038e-29 -0.0015340039 1.2163865e-27
0.016261293 0.06264499 0.029881159 0.007316271 0.15392627 0.17459467 0.14328271 -0.0044347546
-0.07354557 0.12298032 0.0982121 -0.037456974 0.092005946 0.055772867 0.110276915 0.17085867
0.1157843 -0.11603201 -0.1536715 -0.117221214 0.15207198 -0.048139196 -2.657179e-05 -0.16409105
-0.10155175 -0.10338485 -0.042880304 0.0019410969 1.2517691e-05 -0.000106851345 -7.2020097e-28 3.1441914e-34
4.1360155e-25 4.242344e-05 0.00068407785 7.536136e-15 0.14447764 0.090046585 0.033147696 0.11764822
00000000: f866 89bd 6145 1fbe 999a 16bd 5f8e 57bb
00000010: 8470 f4bd 9f1e 973d d5fe 69bd d7b2 0f3e
00000020: 5484 c3bd 5c83 ffbd d36b 17be 7b32 d13d
00000030: 042f d5bd 11a1 113e 62c3 6a3d d088 a4bd
00000040: dd19 3b3d ac19 1d3e 84c4 92bd 1704 103e
00000050: 4020 103d c0e6 693d 03e9 1eb8 4b77 283d
00000060: 5e4f 29bc d6c1 febd 4a89 013d 6d8e 1e92
00000070: 3792 0db5 2d74 6830 43f2 ab11 ce3d 5fa9
00000080: f413 bd39 7054 3b33 4133 672e ca77 f037
00000090: 6458 013e 95a7 16be df9c e7bd db3c 163e
000000a0: 4324 b4bc 3cea dabc d46e d33c 40f2 00be
000000b0: 2064 38bd 61bb a63d f49d 88bd 0d40 b4bd
000000c0: 4a39 3abd e7bf 463d 3ea9 05be 73e0 d53a
000000d0: 2b82 783d e273 b4bd ccd0 ff3d 7ba9 8bbd
000000e0: a2c8 ad3d 9565 c63d ca48 d43a 997c 8ebd
000000f0: 4fb3 4d3c 258f 04be 576d bb3d a02f b9a7
00000100: 9a66 06aa 40ba 93b9 ea0d e839 dfd7 5c1e
00000110: 0bd3 2eb4 1f67 85ba bb41 883a e4fd 07a9
00000120: 6a3e 423b 26de 5c3e 975a 57be e7e8 6fbd
00000130: 912f b1bd 84b7 8cbd 47b1 e93d ada2 51bd
00000140: 7b9d 76bd 30f5 57bc faa1 9f3d ab8b 34be
00000150: 131f f7bc 310d e53d 2d83 d3bc 1338 e6bd
00000160: 676a 50bd f906 6bbd dd00 0f3d b620 95bd
00000170: a356 12bd fb5b cabd ef8b 3f3a 72bb bdbd
00000180: 45ea 463b f432 dfbd d949 ee3c ec84 3137
00000190: 1db5 e49e fdcb d5b6 e213 8196 932a 59ba
000001a0: b041 c83a 23a8 3b39 9d88 91b8 98f4 05aa
000001b0: 553a 423e 5ed6 97bd 6d0b 3fbc 3f16 2d3e
000001c0: 2839 033e 976c 053b 8e30 8cbc 328a 853d
000001d0: c385 c13b 77cf 3abd 1e38 f2bc 5aa8 bcbd
000001e0: 3950 203e 990b a03d 81aa 2dbd 3143 bcbd
000001f0: ec1d 25bc 9edb bfbc 483f e5bc 744f 113e
00000200: f4e9 aebd 7247 09bd d25f 4d39 55f1 eb3d
00000210: c716 f3bd bad0 9b3c be06 3abc 061a 951c
00000220: bad8 2130 9aad 0128 a7c0 fe39 3a27 79b6
00000230: d849 a016 5070 0ebb a7f5 9436 5603 9839
00000240: 3093 1e3e 0cf4 4bbd 8f76 9a3d 2872 7d3d
00000250: 2cea 283e e794 ba3d d0b2 14be 1703 013e
00000260: 468e efbc d1af 053e 63ed a03d fd76 293e
00000270: 3ee8 9e3d 4b5e 493d 96e0 3f3e e5cc a4bd
00000280: f642 9f3d 4a2b 4e3d 2d32 f5bd 25f1 97bd
00000290: b6e6 5bbd 67cf 243e 0d42 8bb7 32ab 38be
000002a0: 1c8f 0cbe 8d71 033e 6722 1dbc 0134 1b11
000002b0: cdd4 9b38 d351 3e3a 71ac c333 560c 9730
000002c0: 2255 1fba 0ebd 11b9 a72c 6a39 50d4 8938
000002d0: 4dd7 a9bc e1dc 9c3d c9b0 ed3d ca7a e63d
000002e0: 8b65 123e 0610 c6bb 2e9a c9bd 3fe3 1dbc
000002f0: 07c7 8bbc 206e f6bd 3570 183d 1da9 a1bd
00000300: 950f a5bd 61d6 273e 1eb5 ccbd 5f40 98bd
00000310: b65d 0abe 38b9 99bc d69a 8a3c 855e 8abd
00000320: 5236 cb3c 87da 2cbd eb72 e237 068f a13b
00000330: 3917 a9bd cac9 9fbd 2309 f13d 7fd1 7f9b
00000340: b8cc 333b 734c 2f9f 1a47 1c32 3715 7d3a
00000350: bb0f 819b fff3 9f10 a110 c9ba 80be c012
00000360: 6736 853c 044c 803d 55c9 f43c 54bd ef3b
00000370: d99e 1d3e f2c8 323e b4b8 123e 6b51 91bb
00000380: 0f9f 96bd 1bdd fb3d 6d23 c93d 7c6c 19bd
00000390: 9d6d bc3d 1772 643d ddd8 e13d 93f5 2e3e
000003a0: 5220 ed3d 31a2 edbd 105c 1dbe ad11 f0bd
000003b0: c2b8 1b3e 9b2d 45bd 7ce6 deb7 7c07 28be
000003c0: 5dfa cfbd 70bb d3bd 42a3 2fbd 676c fe3a
000003d0: 1303 5237 6115 e0b8 a53d 6492 a5f7 d007
000003e0: e400 0017 d2ef 3138 b053 333a 4bc2 0728
000003f0: f2f1 133e 586a b83d e1c5 073d 8df1 f03d

conv1.bias f4 [16]
-3.1941243e-05 0.00027355633 1.9562574e-05 8.491348e-05 -0.00015389198 0.00018380424 -6.034736e-05 -0.000116793184
-0.0003158414 -3.7604947e-05 -5.5343062e-05 -0.0012960534 -3.17884e-05 -0.0026423316 -1.1738209e-05 0.0003555873
00000000: a6f8 05b8 1c6c 8f39 4f1a a437 9413 b238
00000010: 105e 21b9 93bb 4039 7c1d 7db8 ddee f4b8
00000020: 8497 a5b9 01ba 1db8 2920 68b8 56e0 a9ba
00000030: 8954 05b8 f82a 2dbb 39ef 44b7 1f6e ba39

bn1.weight f4 [16]
0.99428684 1.0085135 0.9723343 1.0411171 1.0386511 1.0025653 1.0125798 1.0737182
0.971497 0.9846222 0.96638584 0.9815668 0.9564005 0.9964738 0.95237076 1.0060356
00000000: 9589 7e3f f816 813f e7ea 783f 5343 853f
00000010: 85f2 843f 0f54 803f 379c 813f 996f 893f
00000020: 07b4 783f 3310 7c3f 1065 773f f647 7b3f
00000030: aad6 743f e818 7f3f 92ce 733f c6c5 803f

bn1.bias f4 [16]
0.004420647 0.01639722 -0.015583227 0.029561285 -0.0136090275 -0.006243105 -0.029327752 -0.02784378
-0.0074710893 -0.00077294104 -0.0060064397 -0.020880409 -0.048148576 -0.01135476 -0.024461117 -0.006400611
00000000: 13db 903b 7653 863c cb50 7fbc 822a f23c
00000010: 66f8 5ebc f692 ccbb c140 f0bc a418 e4bc
00000020: 0ad0 f4bb 329f 4aba abd1 c4bb 640d abbc
00000030: 7137 45bd 5109 3abc ae62 c8bc 37bc d1bb

bn1.running_mean f4 [16]
0.06133685 -0.0051032864 -0.348956 0.093988456 0.081943765 -0.13730057 -0.20782825 -0.23730977
-0.0754634 0.028385611 0.012158216 -0.4598763 -0.42088154 0.25346044 0.022649322 -0.17201237
00000000: 593c 7b3d 7839 a7bb 5caa b2be 057d c03d
00000010: 22d2 a73d 8598 0cbe eed0 54be 5501 73be
00000020: 8e8c 9abd f188 e83c 4133 473c e874 ebbe
00000030: c97d d7be 91c5 813e 128b b93c 0324 30be

bn1.running_var f4 [16]
0.033252582 0.028411223 0.027402602 0.016933784 0.03492234 0.033002533 0.035842817 0.017247956
0.033853132 0.017132394 0.022608483 0.06254724 0.06294907 0.044921704 0.012827769 0.035635423
00000000: dc33 083d a7be e83c 6c7b e03c b8b8 8a3c
00000010: ba0a 0f3d aa2d 073d ebcf 123d 964b 8d3c
00000020: 95a9 0a3d 3c59 8c3c 6d35 b93c c418 803d
00000030: 71eb 803d d2ff 373d 902b 523c 73f6 113d

conv2.weight f4 [32, 16, 3, 3]
-0.031887714 -0.07132385 0.061302558 -0.018735714 0.076351166 -0.00013791985 -0.05806269 0.04736756
-0.04793101 0.038152006 -0.057988968 0.007749804 -0.0033303017 0.035490643 -0.04291074 -0.06496094
0.025960844 0.04498152 -0.033757724 -0.002704677 -0.033943575 -0.072151184 -0.050571643 -0.075123824
0.0021546779 0.049440995 0.050775878 0.06758357 -0.10730827 -0.054852623 0.074437104 0.060666516
-0.092709735 0.10547458 0.09646914 -0.010938148 0.04176717 -0.034786057 -0.04231573 -0.025461158
-0.093159646 0.019962093 0.011754402 0.046541415 -0.03818989 -0.020782644 0.047938902 0.05922181
0.07644501 -0.008989845 0.10000511 0.084080264 -0.068793625 0.081591375 0.054551866 -0.03697044
0.007126863 -0.06426372 -0.041138846 -0.004949304 -0.021157496 0.036285426 0.039163582 0.074542284
0.078135625 0.055788677 -0.053487305 0.022943024 -0.017651808 0.005027911 0.061499253 -0.049770955
0.050163448 -0.0012829431 0.052578546 -0.021690594 -0.00848835 -0.049155936 -0.0060837534 0.06750082
0.030210273 0.053738955 -0.0009560653 0.050432175 0.0012153193 -0.070307955 -0.009631797 0.07909313
-0.06813297 -0.03142614 0.016368799 0.035275143 0.07606489 0.07240958 0.054406192 0.06261538
0.064887986 0.058003027 0.020902354 -0.025214018 0.111081704 0.10310077 0.01398105 0.021606544
0.012404223 -0.030940091 0.013408271 0.08280239 -0.02740874 -0.04071346 -0.017484104 -0.025566526
0.08533075 0.056999307 0.077930965 -0.082904324 0.034335785 -0.01491188 0.031717 -0.023458654
0.005154718 0.023104815 -0.012997226 -0.043360107 0.0010000321 -0.035861928 -0.011377897 -0.012328575
-0.026305065 0.061137464 -0.025825702 0.000566872 -0.06838072 0.066373065 -0.020174135 0.07209343
-0.022580506 -0.04512099 -0.055041518 0.06784706 -0.038608283 -0.060013644 -0.094106 -0.04241415
-0.05823467 0.03900906 0.04604975 0.048996344 -0.026117038 0.042840935 -0.02264205 0.04151616
0.07556129 -0.009853823 -0.06125316 0.049801826 0.00979992 0.103860214 0.05146863 -0.02362778
-0.035048332 -0.10184349 -0.060845308 0.024240889 -0.008968201 -0.03603937 -0.015319945 -0.058393873
0.054127503 -0.040117357 0.0245559 0.006989472 0.08512336 -0.05249741 0.041269917 0.034485783
-0.010440457 -0.04142609 0.06494025 -0.013131831 0.06736984 -0.08933704 -0.06985554 -0.007995234
0.0025896225 0.03456971 -0.08665389 -0.013360956 -0.028121196 0.021295447 -0.056357708 0.03700606
0.016198015 -0.026826939 0.09508907 -0.048177253 -0.049872722 0.010330845 0.027078645 0.03299877
-0.039685808 0.0071973177 -0.0338684 -0.009854391 -0.014077232 -0.0051006796 -0.0059544193 -0.08850912
-0.0813565 0.071831 -0.009627124 0.1230831 -0.019864151 -0.03314706 0.030532595 0.042332396
-0.021773662 -0.01883754 0.01866324 0.011552304 0.11384195 -0.017859273 0.012816165 0.060239736
-0.0030464842 -0.10250344 -0.0054860115 -0.066827424 -0.03175573 0.009784002 0.003879916 0.007827664
0.0025851007 -0.0017082108 -0.052308697 0.047068413 -0.08654823 -0.056083344 -0.03137833 0.039834503
0.03606256 -0.01987619 0.0048969197 -0.00907134 -0.042114213 0.07910436 -0.02162722 -0.007213313
-0.012016341 0.053996157 -0.08370298 -0.090579204 0.0028870062 -0.03046966 -0.014451852 -0.049925745
00000000: b19c 02bd 3d12 92bd 6418 7b3d a47b 99bc
00000010: 005e 9c3d 949e 10b9 25d3 6dbd 7d04 423d
00000020: 4f53 44bd 4745 1c3d d785 6dbd 11f2 fd3b
00000030: 3141 5abb a35e 113d 2cc3 2fbd 3e0a 85bd
00000040: d6ab d43c 8b3e 383d 8a45 0abd f340 31bb
00000050: 6b08 0bbd 00c4 93bd 3624 4fbd 85da 99bd
00000060: 7f35 0d3b a482 4a3d 5efa 4f3d 4169 8a3d
00000070: 70c4 dbbd 25ad 60bd 7b72 983d 747d 783d
00000080: 9ade bdbd 0e03 d83d 9d91 c53d eb35 33bc
00000090: 0d14 2b3d d37b 0ebd 4253 2dbd eb93 d0bc
000000a0: 7cca bebd 8b87 a33c 8995 403c 36a2 3e3d
000000b0: 016d 1cbd 5d40 aabc 955b 443d 9292 723d
000000c0: 348f 9c3d 254a 13bc 7bcf cc3d 4632 ac3d
000000d0: ace3 8cbd 6119 a73d c771 5f3d 516e 17bd
000000e0: 7688 e93b b29c 83bd 3581 28bd c52d a2bb
000000f0: 7c52 adbc 07a0 143d fe69 203d a0a9 983d
00000100: 9205 a03d ab82 643d 8115 5bbd 02f3 bb3c
00000110: 869a 90bc 2dc1 a43b a4e6 7b3d a1dc 4bbd
00000120: 3078 4d3d 6d28 a8ba 9a5c 573d 79b0 b1bc
00000130: b812 0bbc bc57 49bd 395a c7bb df3d 8a3d
00000140: 897b f73c 611d 5c3d 75a0 7aba f891 4e3d
00000150: 594b 9f3a 9efd 8fbd afce 1dbc 94fb a13d
00000160: 4c89 8bbd b2b8 00bd dc17 863c ab7c 103d
00000170: e9c7 9b3d 794b 943d 07d9 5e3d 7e3c 803d
00000180: fee3 843d 9594 6d3d 6a3b ab3c a18d cebc
00000190: ce7e e33d 7f26 d33d c610 653c 3500 b13c
000001a0: 153b 4b3c 1376 fdbc 5dae 5b3c 4d94 a93d
000001b0: 4b88 e0bc 28c3 26bd d33a 8fbc e470 d1bc
000001c0: e3c1 ae3d 1b78 693d 459a 9f3d bec9 a9bd
000001d0: aea3 0c3d f550 74bc afe9 013d 5d2c c0bc
000001e0: e9e8 a83b 4f46 bd3c 51f2 54bc 5e9a 31bd
000001f0: 8213 833a f5e3 12bd 5c6a 3abc cbfd 49bc
00000200: b87d d7bc 476b 7a3d 6c90 d3bc 239a 143a
00000210: 310b 8cbd 9aee 873d 3a44 a5bc b8a5 933d
00000220: c1fa b8bc cad0 38bd 3773 61bd 66f3 8a3d
00000230: b823 1ebd ded0 75bd a6ba c0bd 76ba 2dbd
00000240: 7a87 6ebd f7c7 1f3d aa9e 3c3d 64b0 483d
00000250: 66f3 d5bc fa79 2f3d d27b b9bc d90c 2a3d
00000260: e1bf 9a3d ee71 21bc 98e4 7abd 00fd 4b3d
00000270: d88f 203c aab4 d43d c5d0 523d 0c8f c1bc
00000280: d78e 0fbd 5293 d0bd ee38 79bd d494 c63c
00000290: 5cef 12bc 059e 13bd 8200 7bbc 6a2e 6fbd
000002a0: cdb4 5d3d 1952 24bd 7429 c93c f107 e53b
000002b0: 2855 ae3d 8607 57bd a50a 293d f740 0d3d
000002c0: 730e 2bbc 67ae 29bd 65ff 843d e426 57bc
000002d0: 33f9 893d 57f6 b6bd 6c10 8fbd 71fe 02bc
000002e0: a8b6 293b f898 0d3d 9877 b1bd e9e7 5abc
000002f0: 6c5e e6bc ca73 ae3c 57d7 66bd ab93 173d
00000300: b3b1 843c 2bc4 dbbc 0fbe c23d 8355 45bd
00000310: 5747 4cbd b442 293c 09d4 dd3c b829 073d
00000320: 968d 22bd 7ad7 eb3b 97b9 0abd 5074 21bc
00000330: 31a4 66bc 9a23 a7bb 4a1d c3bb 4544 b5bd
00000340: 3d9e a6bd 221c 933d 16bb 1dbc fe12 fc3d
00000350: 25ba a2bc 36c5 07bd 7e1f fa3c bc64 2d3d
00000360: ae5e b2bc 2f51 9abc a7e3 983c e045 3d3c
00000370: f825 e93d 9c4d 92bc e4fa 513c f1bd 763d
00000380: 86a7 47bb 53ed d1bd 00c4 b3bb d1dc 88bd
00000390: 4c12 02bd 144d 203c 3046 7e3b 9a3f 003c
000003a0: cb6a 293b 0be6 dfba a541 56bd cfca 403d
000003b0: 3340 b1bd a6b7 65bd 9086 00bd 8129 233d
000003c0: 56b6 133d 64d3 a2bc 5776 a03b f59f 14bc
000003d0: f47f 2cbd 7701 a23d 912b b1bc a85d ecbb
000003e0: 30e0 44bc 132b 5d3d 786c abbd 9781 b9bd
000003f0: ed33 3d3b 829b f9bc 76c7 6cbc f07e 4cbd

conv2.bias f4 [32]
-1.8716806e-05 6.801212e-06 -9.398843e-06 4.1745534e-07 -0.000105961626 -0.00015652117 6.238536e-05 -5.5356204e-06
-9.955288e-06 -1.03462935e-05 1.0445263e-05 7.0237284e-06 2.417718e-06 -1.7174567e-06 1.2405337e-05 1.035854e-05
8.886986e-05 -1.148563e-05 3.9508545e-06 -1.2025689e-05 4.7490357e-06 2.0854754e-06 4.750026e-06 -2.9856636e-05
-1.3217829e-05 -8.4591875e-06 -3.4270436e-06 -1.0981593e-06 3.689033e-06 -8.582296e-05 -1.7735136e-05 -8.849607e-06
00000000: 0902 9db7 f735 e436 b9af 1db7 a01e e034
00000010: b737 deb8 d51f 24b9 e3d4 8238 9ebe b9b6
00000020: a305 27b7 fe94 2db7 103e 2f37 5ead eb36
00000030: 1440 2236 5d83 e6b5 8420 5037 97c9 2d37
00000040: a55f ba38 68b2 40b7 9591 8436 f1c1 49b7
00000050: e859 9f36 32f4 0b36 6a62 9f36 a374 fab7
00000060: 25c2 5db7 efeb 0db7 29fc 65b6 7764 93b5
00000070: 1b91 7736 dafb b3b8 eac5 94b7 c678 14b7

bn2.weight f4 [32]
1.114213 1.1583829 1.1620688 1.1015534 1.096959 1.0970654 1.1356404 1.1098745
1.1089046 1.1164167 1.117189 1.164952 1.0811217 1.126075 1.0780766 1.1484942
1.1605592 1.1184034 1.0675361 1.1190406 1.1097058 1.0894932 1.1371 1.0704238
1.0810057 1.0839247 1.0867205 1.1151271 1.1271349 1.135828 1.0738683 1.1145444
00000000: 889e 8e3f e445 943f acbe 943f b4ff 8c3f
00000010: 2769 8c3f a46c 8c3f aa5c 913f 5e10 8e3f
00000020: 96f0 8d3f bee6 8e3f 0d00 8f3f 261d 953f
00000030: 3262 8a3f 3a23 903f 6afe 893f dc01 933f
00000040: 348d 943f d827 8f3f 06a5 883f b93c 8f3f
00000050: d70a 8e3f 8374 8b3f 7e8c 913f a603 893f
00000060: 655e 8a3f 0bbe 8a3f a819 8b3f 7cbc 8e3f
00000070: f545 903f d062 913f 8474 893f 64a9 8e3f

bn2.bias f4 [32]
0.03742241 0.04291798 0.07142469 0.04753629 0.046539765 0.03713188 0.07100424 0.037834816
0.021197584 0.015922664 0.055312335 0.04568162 0.020668915 0.040244445 0.019949146 0.04920481
0.041155092 0.03693669 0.012604861 0.072734416 0.054665867 0.037275728 0.07564693 0.016785277
0.02745498 0.057515092 0.029650467 0.061511487 0.04403456 0.062182754 0.024675677 0.05670506
00000000: 3e48 193d c4ca 2f3d 1c47 923d 6ab5 423d
00000010: 7ba0 3e3d 9917 183d ac6a 913d aef8 1a3d
00000020: 8ea6 ad3c 3f70 823c 308f 623d a61c 3b3d
00000030: db51 a93c 5cd7 243d 646c a33c fc8a 493d
00000040: 3e92 283d ed4a 173d 9e84 4e3c c8f5 943d
00000050: 51e9 5f3d 6fae 183d c7ec 9a3d 4781 893c
00000060: 44e9 e03c f294 6b3d 89e5 f23c 78f3 7b3d
00000070: 955d 343d 58b3 7e3d a524 ca3c 9143 683d

bn2.running_mean f4 [32]
0.22827806 0.10403055 -0.000699442 -0.24505048 -0.14998175 -0.021961898 -0.12443278 0.042127956
-0.13515127 -0.17935601 -0.26760527 0.019328568 0.1500791 -0.1851959 -0.024552321 -0.04466501
0.034137357 0.041436218 0.46255258 0.13284278 0.14245993 0.02265006 0.075235106 0.13048218
0.2899894 -0.017384037 0.1524835 -0.31982493 0.17361166 -0.13846235 0.13824794 0.19183822
00000000: b9c1 693e f80d d53d c25a 37ba 83ee 7abe
00000010: d194 19be 70e9 b3bc 9dd6 febd 5d8e 2c3d
00000020: 1865 0abe 1aa9 37be 8f03 89be f256 9e3c
00000030: 56ae 193e fea3 3dbe f321 c9bc a8f2 36bd
00000040: 9dd3 0b3d 06b9 293d b1d3 ec3e f007 083e
00000050: 04e1 113e 9e8c b93c dd14 9a3d 1f9d 053e
00000060: 7e79 943e f868 8ebc a224 1c3e 18c0 a3be
00000070: 41c7 313e 13c9 0dbe de90 0d3e 3d71 443e

bn2.running_var f4 [32]
0.1423161 0.06903573 0.12088247 0.0575418 0.062413875 0.08942114 0.063259795 0.08383529
0.083773725 0.060711302 0.065268345 0.09889152 0.09712425 0.08495668 0.05055763 0.09712851
0.10736839 0.073594496 0.10462579 0.11942224 0.081781544 0.10392273 0.11797781 0.10265266
0.060132653 0.083104275 0.14071321 0.1006915 0.06697068 0.09032538 0.099982716 0.064666785
00000000: 50bb 113e 9b62 8d3d 3a91 f73d f3b0 6b3d
00000010: b1a5 7f3d 6e22 b73d 5a8e 813d d6b1 ab3d
00000020: 8f91 ab3d 6aac 783d 69ab 853d a387 ca3d
00000030: 14e9 c63d c5fd ad3d 8415 4f3d 50eb c63d
00000040: f5e3 db3d b6b8 963d 0c46 d63d a693 f43d
00000050: 157d a73d 71d5 d43d 5a9e f13d 8f3b d23d
00000060: a84d 763d 9332 aa3d 2017 103e 5837 ce3d
00000070: ed27 893d 83fc b83d bdc3 cc3d 0570 843d

fc1.weight f4 [128, 800]
0.05133988 0.0043898807 -0.07012281 -0.0015150033 -0.03878148 0.08172472 0.04164188 0.026864082
-0.024935924 0.00789814 -0.039018814 -0.046293646 -0.060537267 -0.049394973 -0.0005342336 -0.009435254
-0.052284084 0.011942405 -0.004263963 -0.00026207406 0.022654774 0.05151387 0.065121815 0.046677683
-0.0057706316 0.006349246 -0.007887145 0.00730232 0.05305366 -0.01845826 0.025165835 -0.073937654
-0.019022875 -0.06368179 -0.014075581 0.019660253 0.031132344 0.04689906 -0.04678302 0.06766116
0.035953943 0.028696368 -0.014027767 0.02171864 0.029603707 -0.017611869 0.021611959 -0.017971385
0.03958802 0.016565483 0.012735797 0.004514284 -0.007961031 0.023006788 -0.06921261 4.3881966e-05
-0.049737353 -0.04797042 0.002947457 -0.01510442 -0.030032871 -0.029476816 -0.04504203 -0.063324615
-0.007270874 -0.06718807 -0.070831195 0.039775833 0.066104546 0.050350253 0.07197432 0.07165221
-0.023175322 0.0064342762 0.029690435 -0.009185336 0.053246003 -0.017479876 0.01743478 -0.00021761544
0.025997605 0.041785035 -0.046231527 0.0023972008 0.014160127 0.0073617646 0.020255262 0.036208265
-0.007465536 -0.04253218 0.010500336 -0.012014795 -0.0096018175 0.017167423 0.04067989 0.028428536
-0.023972182 -0.03224379 0.0030611549 -0.028880326 -0.007637881 -0.010249459 0.005452225 -0.018075988
-0.0041975733 -0.08277198 0.03939918 0.06845336 -0.021629093 0.008665921 0.06098508 0.038003303
0.057377547 0.059143487 -0.04989862 -0.0057586087 0.010978732 0.00136348 0.040188134 -0.0063255
0.024849147 0.01878387 0.046845283 -0.007868201 0.035151534 0.018511843 -0.012033989 -0.011595338
-0.021468278 -0.05421195 0.07243421 0.0702909 -0.058536675 0.054775193 -0.02493898 -0.017330132
-0.03153526 0.009765932 -0.010821427 -0.02326348 -0.033346634 -0.016717957 0.008633671 0.034935668
-0.04453501 0.030280733 -0.009635296 -0.07217061 0.028096799 0.024688143 -0.0010603857 -0.00039915266
-0.023315096 -0.015609644 0.026046945 -0.04126823 0.026698723 -0.010551532 0.013479516 -0.0069769067
0.025026295 -0.004592296 0.04330118 0.022741366 0.017679667 -0.010119689 0.0019281132 -0.0058129425
0.0125114815 -0.0072622257 0.029650837 -0.020740839 0.0028202517 -0.0057512587 0.04398719 0.029199604
0.05417408 0.04159809 -0.0010327853 0.02281968 0.034550413 -0.020432666 -0.033253703 -0.023112465
0.008764554 0.057253152 0.010255189 0.051733747 0.0041431226 0.032002605 -0.010471332 0.018161803
-0.035612386 0.04208616 0.009440967 -0.027302295 -0.03150048 0.03619237 -0.019503608 -0.003433311
0.04779672 0.025786165 -0.073473416 -0.018499983 -0.00937903 -0.029298708 0.044325393 -0.04184229
0.0097348085 -0.02467291 0.027531223 -0.05401039 0.030277265 0.012972059 0.005640811 0.014226288
-0.0038847548 0.013808526 -0.011489965 0.027330207 -0.029366555 -0.020616518 -0.032050595 -0.014295976
-0.015810551 0.07682404 -0.021590225 -0.0003837218 -0.0065814275 0.0052599334 0.0061651557 0.0016655066
-0.025875123 -0.010763955 0.019997621 -0.0020138943 0.028192045 -0.039132886 0.00048803026 -0.019641617
0.030293785 0.004525406 0.03599811 -0.011978289 -0.029309947 0.0074826456 0.028858548 0.01925632
0.007490189 0.01268751 0.0075110514 -0.050007235 0.049419742 0.028145196 -0.014419617 -0.025617892
00000000: c449 523d fdd8 8f3b 8c9c 8fbd 1393 c6ba
00000010: 54d9 1ebd 4a5f a73d ad90 2a3d 1012 dc3c
00000020: 6c46 ccbc 3367 013c 31d2 1fbd 689e 3dbd
00000030: edf5 77bd 6252 4abd cf0b 0cba 5396 1abc
00000040: d627 56bd 14aa 433c b7b8 8bbb fc66 89b9
00000050: 8196 b93c 3500 533d 965e 853d 1931 3f3d
00000060: 9117 bdbb 560d d03b 1539 01bc 4d48 ef3b
00000070: cb4e 593d c735 97bc 9528 ce3c a06c 97bd
00000080: dcd5 9bbc 996b 82bd 449d 66bc 8a0e a13c
00000090: 4209 ff3c 3b19 403d 8d9f 3fbd ef91 8a3d
000000a0: 7144 133d a514 eb3c b8d4 65bc 4aeb b13c
000000b0: 7983 f23c c446 90bc 900b b13c ba38 93bc
000000c0: 0c27 223d 56b4 873c cea9 503c 8fec 933b
000000d0: fc6e 02bc bb78 bc3c 57bf 8dbd e70d 3838
000000e0: 65b9 4bbd a27c 44bd 1f2a 413b 8778 77bc
000000f0: 7f07 f6bc 5d79 f1bc fe7d 38bd 56b0 81bd
00000100: 8340 eebb e699 89bd f20f 91bd fceb 223d
00000110: d261 873d 113c 4e3d 4667 933d 65be 923d
00000120: 2cda bdbc 9fd6 d23b 5b39 f33c 177e 16bc
00000130: 7b18 5a3d f531 8fbc 62d3 8e3c b32f 64b9
00000140: eef8 d43c c926 2b3d 455d 3dbd 5b1a 1d3b
00000150: e1ff 673c f53a f13b 5dee a53c 1e4f 143d
00000160: 74a1 f4bb 3936 2ebd 9a09 2c3c b4d9 44bc
00000170: f150 1dbc b2a2 8c3c f59f 263d f6e2 e83c
00000180: 4f61 c4bc 1012 04bd a89d 483b 6f96 ecbc
00000190: 3147 fabb 59ed 27bc 94a8 b23b 1814 94bc
000001a0: cc8b 89bb 5b84 a9bd 0961 213d 4631 8c3d
000001b0: 7f2f b1bc 82fb 0d3c 7ecb 793d 5aa9 1b3d
000001c0: b804 6b3d 7140 723d 7f62 4cbd b6b2 bcbb
000001d0: 24e0 333c ccb6 b23a 509c 243d 2446 cfbb
000001e0: 7090 cb3c a1e0 993c d7e0 3f3d a0e9 00bc
000001f0: 0efb 0f3d 26a6 973c 352a 45bc 5ffa 3dbc
00000200: 3ede afbc 5a0d 5ebd 6358 943d adf4 8f3d
00000210: 27c4 6fbd f45b 603d d54c ccbc ecf7 8dbc
00000220: 1e2b 01bd 4a01 203c 5b4c 31bc 0e93 bebc
00000230: 7b96 08bd 19f4 88bc 3e74 0d3c b418 0f3d
00000240: 586a 36bd 4d0f f83c 5cdd 1dbc 2fce 93bd
00000250: 422b e63c ca3e ca3c a4fc 8aba 5d45 d1b9
00000260: 4dff bebc 98bf 7fbc 6760 d53c e008 29bd
00000270: 48b7 da3c 55e0 2cbc 30d9 5c3c 899e e4bb
00000280: f203 cd3c f97a 96bb 945c 313d 1a4c ba3c
00000290: f3d4 903c 0dcd 25bc beb8 fc3a 7f7a bebb
000002a0: f5fc 4c3c f7f7 edbb 50e6 f23c b1e8 a9bc
000002b0: f9d3 383b 0e75 bcbb e92b 343d 0234 ef3c
000002c0: a4e5 5d3d c262 2a3d 865e 87ba 56f0 ba3c
000002d0: bc84 0d3d 6862 a7bc 0935 08bd 5a56 bdbc
000002e0: 3499 0f3c 4882 6a3d 6105 283c c4e6 533d
000002f0: 08c3 873b 2a15 033d f38f 2bbc 10c8 943c
00000300: 4bde 11bd 8a62 2c3d 49ae 1a3c 10a9 dfbc
00000310: a606 01bd 733e 143d 08c6 9fbc 6601 61bb
00000320: 7ec6 433d 823d d33c 3b79 96bd 478d 97bc
00000330: 81aa 19bc d803 f0bc 8b8e 353d d262 2bbd
00000340: bf7e 1f3c d81e cabc 2989 e13c 003a 5dbd
00000350: 0708 f83c c288 543c 8dd6 b83b 6015 693c
00000360: 5f97 7ebb 283d 623c 6840 3cbc 99e3 df3c
00000370: 2192 f0bc f9e3 a8bc 7c47 03bd ab39 6abc
00000380: 2185 81bc ec55 9d3d fcdd b0bc 452e c9b9
00000390: 04a9 d7bb 855b ac3b 1305 ca3b 214d da3a
000003a0: 11f8 d3bc 4d5b 30bc 0dd2 a33c 8afb 03bb
000003b0: 01f3 e63c ce49 20bd 50de ff39 75e7 a0bc
000003c0: ac2a f83c db49 943b c172 133d 9640 44bc
000003d0: 6a1b f0bc fb30 f53b c368 ec3c 6ebf 9d3c
000003e0: 4270 f53b 46df 4f3c 441f f63b 63d4 4cbd
000003f0: 5b6c 4a3d c190 e63c 4240 6cbc 9ddc d1bc

fc1.bias f4 [128]
-0.014866105 -0.026256667 -0.028524986 0.0056800125 0.016257249 -0.0004291854 0.02452647 0.0052056937
-0.00936603 -0.020193586 -0.03391731 -0.032826483 0.016099896 0.020094244 -0.020055585 0.0023688374
-0.015622996 -0.030519815 0.006169653 0.02377806 0.025463428 0.008716984 0.028047679 -0.003404943
0.026464539 -0.0030423333 0.030171875 -0.020210102 -0.027557265 0.0019168874 -0.02751044 0.025095178
0.020764835 -0.025857924 0.017593773 0.028572429 0.03171384 -0.02770419 -0.032986928 -0.028695803
-0.015098859 0.031725727 0.010966583 -0.016926317 -0.019381523 -0.0036829992 -0.024677476 -0.033646256
0.017826201 0.023970613 -0.005291344 -0.010124358 0.024813531 -0.028428448 -0.010757714 -0.020104367
-0.009084682 0.032631952 -0.023291402 0.0009402733 0.0005554858 -0.03519055 -0.012882733 -0.011934103
0.003972597 -0.024297483 0.016284276 0.018374523 0.018360425 -0.023476345 -0.011330412 0.032866396
0.0049027717 0.0124394195 -0.007508205 0.014698743 0.031384684 -0.012465727 0.016926078 -0.022300573
-0.036325864 0.003667008 0.014660662 -0.010955843 -0.019704616 0.0030530277 0.029596603 0.026582614
-0.007562406 -0.01114014 0.02006773 0.015719524 0.0062887315 -0.014856301 -0.020259248 -0.0251538
0.029017076 -0.019858958 0.02059939 -0.005591719 0.02661053 0.015986653 0.011368692 -0.034046344
0.004015847 -0.0010900556 -0.030087639 0.022218635 0.02894487 0.008603144 0.016258247 0.019718578
-0.015334651 -0.021667868 -0.0071095517 0.014215854 -0.007418688 -0.021584306 -0.009928448 -0.012056698
-0.01463706 -0.02007696 0.02245273 0.010693405 0.031770345 0.03169243 0.0131354425 -0.020762505
00000000: f790 73bc 3918 d7bc 3bad e9bc 661f ba3b
00000010: ec2d 853c 4a04 e1b9 bceb c83c 8694 aa3b
00000020: fa73 19bc 056d a5bc e1ec 0abd 1075 06bd
00000030: eee3 833c af9c a43c 9c4b a4bc 7f3e 1b3b
00000040: 98f7 7fbc b104 fabc cd2a ca3b 35ca c23c
00000050: ae98 d03c aed1 0e3c 3fc4 e53c 7725 5fbb
00000060: 29cc d83c e261 47bb 022b f73c a88f a5bc
00000070: c6bf e1bc 1140 fb3a 935d e1bc 6794 cd3c
00000080: 041b aa3c ffd3 d3bc d120 903c ba10 ea3c
00000090: 5fe6 013d e6f3 e2bc 4d1d 07bd 7613 ebbc
000000a0: 3461 77bc d6f2 013d 2fad 333c 0fa9 8abc
000000b0: 00c6 9ebc 795e 71bb 6b28 cabc a8d0 09bd
000000c0: 4108 923c 055e c43c 0363 adbb a3e0 25bc
000000d0: bf45 cb3c c7e2 e8bc 1f41 30bc eab1 a4bc
000000e0: ebd7 14bc 15a9 053d 9ccd bebc ac7c 763a
000000f0: 059e 113a f723 10bd 1912 53bc 4287 43bc
00000100: 8f2c 823b 840b c7bc 9a66 853c 2b86 963c
00000110: 9a68 963c 7751 c0bc 31a3 39bc ea9e 063d
00000120: 6ea7 a03b b5ce 4b3c 6307 f6bb ffd2 703c
00000130: 3a8d 003d 0c3d 4cbc 8fa8 8a3c b1af b6bc
00000140: 6eca 14bd 2f52 703b 4633 703c 2380 33bc
00000150: 936b a1bc 4e15 483b 9374 f23c c8c3 d93c
00000160: 0fce f7bb 2285 36bc 1565 a43c 3bc6 803c
00000170: b411 ce3b d867 73bc b9f6 a5bc 580f cebc
00000180: 38b5 ed3c 41af a2bc 0dc0 a83c bd3a b7bb
00000190: 54fe d93c 71f6 823c c043 3a3c 2e74 0bbd
000001a0: 5e97 833b 32e0 8eba 5a7a f6bc db03 b63c
000001b0: cb1d ed3c 34f4 0c3c 0430 853c db88 a13c
000001c0: 303e 7bbc d080 b1bc 3ef7 e8bb 9de9 683c
000001d0: 7718 f3bb 92d1 b0bc eeaa 22bc 7589 45bc
000001e0: 48d0 6fbc 7078 a4bc caee b73c 6433 2f3c
000001f0: 9f21 023d eccf 013d 0a36 573c 2116 aabc

fc_p.weight f4 [26, 128]
0.08965907 -0.14932494 0.11579201 0.006760879 0.09462904 0.033269327 0.081302054 0.011255244
0.058142908 -5.3538933e-08 -0.13146478 0.04456226 -0.033187333 0.07122794 0.06889053 -0.036300104
-0.042591218 -0.057347 0.04207158 -0.18129934 0.0056747794 0.118691646 -0.15658712 -0.012367522
0.0392067 0.06825422 -0.19932911 -0.12136677 0.07233197 0.01606681 0.06639991 -0.004187225
0.1013532 0.07342752 0.08723842 -0.0041090576 0.11626128 -0.036844164 -0.07284693 0.042013597
-0.021929244 -0.0010578563 -0.17089857 1.2432509e-05 0.019964913 -0.1592962 -0.12240907 -0.04274807
0.04613628 0.12309803 -0.025691345 -0.010004001 -0.17058122 -0.23063307 0.0034875444 0.0664083
-0.04942192 0.057643533 0.0055516046 -0.15777153 0.040174063 0.011258825 -0.006449322 0.07535832
0.033484206 0.04381251 0.0072602197 -0.0008698014 -0.101822965 -0.05933206 0.024564866 0.027048036
-0.039935917 -0.13677096 -0.10638826 0.030703636 0.103857815 -0.16434501 0.101691104 0.007999077
-0.06986168 -0.07297032 -0.1046898 -0.06026805 0.015917994 0.07978482 0.0034227944 0.106156945
0.003205179 -0.13765249 0.06611308 -0.047561556 0.028562527 -0.16224182 -0.17077455 0.043383427
-0.07572716 0.08018517 0.05862543 0.020592825 -0.15003851 -0.04803096 0.14344244 0.03531292
-0.11246463 -0.02565577 -0.054966543 -0.13238466 -0.14687224 0.041355617 0.014995829 -0.049775694
0.036226097 -0.1607281 0.0766769 -0.036240965 -0.07157483 -0.001429791 -0.08498582 -0.056397326
0.109063335 0.07468997 -0.018965205 -0.04081605 0.11715331 -0.109650835 -0.06437055 0.12776482
0.039566863 -0.07209165 0.13627271 0.046971664 -0.010394422 -0.00094742904 -0.021582011 0.10163929
5.045238e-05 4.3070688e-23 -0.09858975 -0.019869026 -0.015290605 -0.0616592 -0.034159917 -0.0025595985
-0.033113897 -0.07426141 -0.05892967 -0.14717397 0.12806866 0.04573243 -0.12947857 -0.09382088
0.00556719 -0.17311957 0.0016917338 -0.09447447 -0.12484785 0.04123068 0.06212973 0.02133455
0.112278074 -0.08209443 -0.14301412 -0.08210437 0.075923964 0.02620121 -0.0764796 -0.10194126
-0.05514923 0.050810732 0.09325462 1.0031839e-08 0.12128901 -0.14594656 -0.20162405 -0.036820427
0.07365446 0.038063485 0.05780301 -0.007477201 -0.12290314 0.0483234 -0.02511527 0.12830523
1.1001124e-07 -0.09150313 0.0056185373 -0.12943046 -0.14623265 0.031386863 0.0017216258 0.025123484
-0.023880828 0.044879343 0.009081217 -0.18845792 -0.094299816 0.103921294 0.03714951 0.058274835
-0.049295872 -0.048756044 0.069900535 0.038603093 -0.051557273 -0.16783665 0.1391867 -0.088770635
-0.05352043 0.069950305 0.08543448 0.09872287 0.017670466 -0.0679808 -0.07727344 -0.09280547
0.014074927 0.03398461 0.035369102 -0.09961828 -0.057963353 -0.07752655 0.078891315 0.041827455
-0.019308072 -0.01822616 -0.22727516 0.052576322 -0.09627592 0.042596254 -0.15227917 0.105799295
0.09208024 0.066137746 0.07430987 -0.1597957 0.015494142 0.00700617 0.06851834 0.050710738
-0.17968565 0.014058748 0.09443804 -0.029990287 0.05667487 -0.005132303 -0.12591447 -0.10126195
0.067619264 0.08335389 0.035857763 0.00016816829 -0.067964494 0.0025582758 -0.033619713 -0.06947729
00000000: 2d9f b73d a3e8 18be 5d24 ed3d 5d8a dd3b
00000010: dfcc c13d 6b45 083d b181 a63d ea67 383c
00000020: 4227 6e3d aef2 65b3 b49e 06be eb86 363d
00000030: 71ef 07bd f4df 913d 7a16 8d3d 6baf 14bd
00000040: 2174 2ebd b0e4 6abd 4053 2c3d 89a6 39be
00000050: 80f3 b93b 9b14 f33d 6058 20be 26a1 4abc
00000060: 3497 203d dec8 8b3d ee1c 4cbe 248f f8bd
00000070: c922 943d 8b9e 833c adfc 873d fd34 89bb
00000080: 4492 cf3d 2b61 963d 0faa b23d 46a5 86bb
00000090: 651a ee3d e8e9 16bd c530 95bd 7316 2c3d
000000a0: f5a4 b3bc c4a7 8aba 0900 2fbe 3895 5037
000000b0: 758d a33c 8b1e 23be 9bb1 fabd 9a18 2fbd
000000c0: 65f9 3c3d d21a fc3d a876 d2bc d2e7 23bc
000000d0: d8ac 2ebe 132b 6cbe 498f 643b 1301 883d
000000e0: a46e 4abd a01b 6c3d 3cea b53b dc8e 21be
000000f0: 8f8d 243d ef76 383c d654 d3bb 7655 9a3d
00000100: bc26 093d bf74 333d 23e7 ed3b 6203 64ba
00000110: 8f88 d0bd 2d06 73bd 423c c93c d893 dd3c
00000120: d893 23bd b00d 0cbe 17e2 d9bd 3186 fb3c
00000130: 68b3 d43d 0f4a 28be 6d43 d03d 900e 033c
00000140: a413 8fbd 7771 95bd 9b67 d6bd a1db 76bd
00000150: 7466 823c 3966 a33d f650 603b d068 d93d
00000160: fb0d 523b c6f4 0cbe 4b66 873d e8cf 42bd
00000170: f6fb e93c b822 26be 86df 2ebe d2b2 313d
00000180: d716 9bbd 1f38 a43d 3821 703d 49b2 a83c
00000190: b2a3 19be 1dbc 44bd 93e2 123e 48a4 103d
000001a0: db53 e6bd 0d2c d2bc 9924 61bd d88f 07be
000001b0: ad65 16be 8264 293d 11b1 753c 99e1 4bbd
000001c0: d161 143d e895 24be c708 9d3d 6871 14bd
000001d0: d395 92bd d367 bbba 0c0d aebd e200 67bd
000001e0: 995c df3d 0ef7 983d eb5c 9bbc bb2e 27bd
000001f0: 13ee ef3d 9e90 e0bd b5d4 83bd c8d4 023e
00000200: dd10 223d c9a4 93bd 138b 0b3e 5c65 403d
00000210: 5e4d 2abc e35c 78ba c2cc b0bc 4328 d03d
00000220: d59c 5338 ee46 501a 6ce9 c9bd 5ec4 a2bc
00000230: 7285 7abc 5b8e 7cbd 45eb 0bbd f0be 27bb
00000240: 70a2 07bd 5e16 98bd 3d60 71bd c6b4 16be
00000250: 6e24 033e ee51 3b3d 0896 04be 2925 c0bd
00000260: f96c b63b 4246 31be 2bbd dd3a d57b c1bd
00000270: 3bb0 ffbd 80e1 283d be7b 7e3d cbc5 ae3c
00000280: 0cf2 e53d 2021 a8bd 4b72 12be 5626 a8bd
00000290: 067e 9b3d eca3 d63c 56a1 9cbd 94c6 d0bd
000002a0: 29e4 61bd ea1e 503d 47fc be3d 7f58 2c32
000002b0: 5f66 f83d 0473 15be 8976 4ebe 04d1 16bd
000002c0: 26d8 963d 75e8 1b3d d9c2 6c3d 4f03 f5bb
000002d0: a4b4 fbbd c2ee 453d 8abe cdbc 7262 033e
000002e0: 523f ec33 fe65 bbbd b51b b83b 6b89 04be
000002f0: 03be 15be 838f 003d 2da8 e13a c4cf cd3c
00000300: baa1 c3bc 67d3 373d 63c9 143c 1dfb 40be
00000310: 4320 c1bd b0d4 d43d 162a 183d 98b1 6e3d
00000320: 78ea 49bd 6bb4 47bd 0328 8f3d 471e 1e3d
00000330: b82d 53bd 5fdd 2bbe f586 0e3e 61cd b5bd
00000340: 3d38 5bbd 1b42 8f3d 46f8 ae3d 372f ca3d
00000350: a7c1 903c 8539 8bbd 8a41 9ebd cb10 bebd
00000360: 869a 663c 7233 0b3d 31df 103d ab04 ccbd
00000370: fb6a 6dbd 3dc6 9ebd c591 a13d 4453 2b3d
00000380: f62b 9ebc 074f 95bc d2ba 68be 455a 573d
00000390: 4f2c c5bd 6979 2e3d 12ef 1bbe 4dad d83d
000003a0: 9194 bc3d 3a73 873d c62f 983d 7ca1 23be
000003b0: 24db 7d3c 0494 e53b 5853 8c3d 10b6 4f3d
000003c0: 84ff 37be aa56 663c bb68 c13d 31ae f5bc
000003d0: e923 683d e12c a8bb b9ef 00be 6d62 cfbd
000003e0: f87b 8a3d 72b5 aa3d 97df 123d 5556 3039
000003f0: f830 8bbd bfa8 273b d3b4 09bd 1c4a 8ebd

fc_p.bias f4 [26]
-0.00018244199 0.033206765 0.02178033 -0.01719364 0.027138982 0.031282105 0.042332333 0.009020595
0.0296638 -0.038239338 0.027082076 -0.057316225 -0.054014917 0.013084098 -0.06984261 0.056299463
-0.02799224 -0.005662102 0.09550803 0.07212707 -0.08703548 0.07281318 0.06297638 0.07158142
0.01589035 -0.120046824
00000000: e64d 3fb9 d103 083d aa6c b23c add9 8cbc
00000010: 9252 de3c aa21 003d ab64 2d3d 1ecb 133c
00000020: 7f01 f33c daa0 1cbd 3bdb dd3c 6bc4 6abd
00000030: bf3e 5dbd af5e 563c a409 8fbd 449a 663d
00000040: fb4f e5bc 2789 b9bb b799 c33d 5bb7 933d
00000050: a83f b2bd 141f 953d c3f9 803d 4899 923d
00000060: 7b2c 823c 1cdb f5bd

fc_v.weight f4 [1, 128]
0.00056234846 0.02320208 -0.02884631 0.07207069 0.0030809827 -0.038136028 -0.055707257 0.0025335464
0.010344421 0.0067551523 0.011940118 0.0035041089 0.0418372 -0.044810995 -0.03419176 0.04551774
0.024648128 0.00885578 -0.016030489 -0.0036957394 -0.03983374 -0.044167798 0.052537076 0.04784282
-0.0026589842 -0.00090828637 0.034370035 -0.0009882987 0.0009909554 -0.032783926 -0.029155063 -0.05074532
0.006570187 -0.030616615 0.033966668 0.050926756 -0.011746575 0.06361704 0.01639962 0.0064797318
-0.08340059 0.001959178 0.005613091 0.03582749 0.059385102 0.006652191 0.00070925156 0.08847778
-0.006942419 -0.05693636 -0.048180096 0.028556406 0.023481738 0.027552914 -0.040950507 -0.0063778907
-0.0010929196 -0.018078385 0.0015417457 -0.004817073 -0.009112761 -0.06718669 0.055570763 -0.071617275
0.08785563 -0.019706093 0.090052575 -0.003557671 -0.0022094792 -0.06603579 -0.060607474 -0.06672224
-0.042068254 0.022959203 -0.057905015 0.058611594 -0.00556621 -0.01743549 0.00818733 0.07740968
0.017776743 0.0023736777 -0.018888975 -0.06524535 -0.0048223627 0.016549539 -0.018310916 -0.012151947
0.022082265 -0.021144977 0.031872675 0.028074034 -0.014793279 0.041892912 -0.03971037 -0.004841151
0.007919722 0.04013897 0.013296572 -0.022104772 -0.030971577 0.064060815 -0.04477246 0.004274184
0.05255457 -0.042589612 0.01628646 -0.040914774 0.04341132 0.018705048 0.0032520643 0.00530124
-0.01753359 -0.04419084 -0.021033429 -0.0063579483 0.05843259 -0.010778127 -0.009998178 0.04330772
-0.059219748 -0.033858575 0.0722101 0.021794884 0.020406036 0.012394214 0.01548461 -0.016915921
00000000: 916a 133a 4a12 be3c 194f ecbc cc99 933d
00000010: 50ea 493b 8634 1cbd 4b2d 64bd db09 263b
00000020: a57b 293c 535a dd3b 7ca0 433c 31a5 653b
00000030: 7c5d 2b3d bc8b 37bd a90c 0cbd cf70 3a3d
00000040: dfea c93c d517 113c 5f52 83bc 3834 72bb
00000050: b428 23bd 4be9 34bd 1e31 573d d5f6 433d
00000060: 5a42 2ebb 111a 6eba 98c7 0c3d cd89 81ba
00000070: f2e2 813a 7048 06bd 99d6 eebc 53da 4fbd
00000080: b94a d73b b2cf fabc a220 0b3d 9398 503d
00000090: b574 40bc a749 823d 7f58 863c ee53 d43b
000000a0: eecd aabd 8d65 003b 05ee b73b d9bf 123d
000000b0: cb3d 733d 9ffa d93b 11ed 393a d733 b53d
000000c0: 3b7d e3bb 1a36 69bd 7e58 45bd 20ef e93c
000000d0: c65c c03c a6b6 e13c b8bb 27bd a0fd d0bb
000000e0: 4c40 8fba 1f19 94bc 6714 ca3a 89d8 9dbb
000000f0: b14d 15bc 2d99 89bd 2b9e 633d 14ac 92bd
00000100: a7ed b33d ac6e a1bc 7c6d b83d d127 69bb
00000110: e9cc 10bb c63d 87bd 8b3f 78bd aba5 88bd
00000120: c34f 2cbd f014 bc3c cf2d 6dbd b612 703d
00000130: c164 b6bb dfd4 8ebc 2724 063c f788 9e3d
00000140: 88a0 913c b48f 1b3b 0dbd 9abc 5b9f 85bd
00000150: e904 9ebb e692 873c c600 96bc f618 47bc
00000160: dee5 b43c 3b38 adbc ec8c 023d 84fb e53c
00000170: 825f 72bc e797 2b3d 57a7 22bd 85a2 9ebb
00000180: b9c1 013c c368 243d ddd9 593c 1115 b5bc
00000190: 1bb8 fdbc 5132 833d 5463 37bd 740e 8c3b
000001a0: 7643 573d 7272 2ebd 2f6b 853c 4096 27bd
000001b0: 11d0 313d 543b 993c 9620 553b 06b6 ad3b
000001c0: 9aa2 8fbc 7401 35bd 4c4e acbc 5656 d0bb
000001d0: 0357 6f3d be96 30bc 66cf 23bc 7063 313d
000001e0: 6890 72bd 4aaf 0abd e4e2 933d 2f8b b23c
000001f0: 8f2a a73c 1a11 4b3c 29b3 7d3c 4293 8abc
