hw22/293Iters/modelx_288.pth (torch, 452322 bytes, 17 tensors)

conv1.weight f4 [16, 4, 3, 3]
000000 29 ff 85 bd d9 32 1d be 37 bc 0c bd 66 46 9b bb
       -0.065428086 -0.15351428 -0.034359183 -0.0047386168
000010 04 2a f4 bd 3c cb 97 3d 61 7d 69 bd 31 d0 0f 3e
       -0.11922076 0.07411811 -0.057004336 0.14044262
000020 32 f1 c0 bd 95 24 ff bd 37 f3 17 be 69 d2 d4 3d
       -0.09421004 -0.12458149 -0.14838873 0.10391695
000030 bb 69 d2 bd e7 b0 13 3e 5b f3 6e 3d 41 cd a4 bd
       -0.10274073 0.14422952 0.05833755 -0.080469616
000040 1b a0 37 3d d7 59 1d 3e d0 67 91 bd d3 56 10 3e
       0.044830423 0.15366302 -0.07099879 0.14095621
000050 c2 14 12 3d 57 da 6a 3d 3a 6f bd b7 23 66 2b 3d
       0.035664327 0.05733713 -2.258235e-05 0.041845452
000060 b2 ee 19 bc e9 ea fc bd 75 65 03 3d 96 9b 17 92
       -0.009395288 -0.12349493 0.03207918 -4.7838973e-28
000070 f8 e5 0d b5 4f 3d 69 30 f7 e4 aa 11 ee 92 60 a9
       -5.286124e-07 8.485203e-10 2.6962381e-28 -4.9865433e-14
000080 6e 4a bd 39 35 d8 3b 33 5b 10 68 2e 83 d9 f0 37
       0.00036104344 4.373597e-08 5.276522e-11 2.8711516e-05
000090 25 04 01 3e 8a 69 17 be d3 ef e9 bd 1d e6 15 3e
       0.12599237 -0.14786354 -0.11422696 0.14638563
0000a0 5b 82 bc bc 29 de ec bc c3 38 c6 3c 56 85 fd bd
       -0.023011377 -0.028914528 0.024196988 -0.123789474
0000b0 93 7e 38 bd 95 51 a6 3d 8c 26 8a bd 21 1a b5 bd
       -0.045042586 0.08121029 -0.067456335 -0.08842874
0000c0 29 ee 3b bd a1 fe 4f 3d f3 6c 04 be 53 32 21 3b
       -0.045881424 0.050779942 -0.12932186 0.0024596646
0000d0 9f f4 7f 3d 44 6b b7 bd c6 a5 fc 3d c8 86 8e bd
       0.06248915 -0.08956006 0.12336306 -0.06959301
0000e0 77 f3 aa 3d 35 f5 c4 3d ac d9 d5 3a 88 23 91 bd
       0.083472185 0.09617082 0.0016315482 -0.07086855
0000f0 45 db 50 3c 54 2f 04 be b5 8f b9 3d a0 46 b9 a7
       0.01274759 -0.12908679 0.09060613 -5.1424387e-15
000100 70 2c 07 aa 83 e6 93 b9 8e 4e e8 39 22 72 5f 1e
       -1.2005826e-13 -0.0002820977 0.00044309016 1.1829124e-20
000110 c7 43 2f b4 1d 87 85 ba 45 62 88 3a 08 d3 08 a9
       -1.6322802e-07 -0.0010187362 0.0010405263 -3.0381107e-14
000120 5c 1d 04 3b df b8 5c 3e ff c0 58 be 72 1c 76 bd
       0.00201591 0.21554898 -0.21167372 -0.06008572
000130 1d 72 b1 bd f3 16 8e bd 2a 10 e9 3d 2d 11 50 bd
       -0.086643435 -0.06937971 0.11380036 -0.05079763
000140 9e f6 69 bd d8 43 41 bc 6d 67 9e 3d e5 44 35 be
       -0.057119958 -0.01179596 0.07734571 -0.17702062
000150 53 4a fc bc 58 65 e1 3d 46 29 c4 bc c4 99 e7 bd
       -0.03079716 0.11005658 -0.023945462 -0.11308625
000160 81 c0 53 bd 54 f9 66 bd 2b bb 0d 3d d6 b2 97 bd
       -0.051697258 -0.05639012 0.034602325 -0.07407157
000170 0a c7 14 bd 5a db c8 bd fc c4 63 37 0a ce bb bd
       -0.03632263 -0.09807463 1.3576118e-05 -0.09170158
000180 62 c1 37 3b f4 0c e2 bd 8e d5 ed 3c 53 d5 31 37
       0.002803885 -0.11037627 0.029032495 1.05996905e-05
000190 db 20 e7 9e dc 31 d6 b6 09 30 8a 96 bc 60 59 ba
       -2.4471665e-20 -6.3835014e-06 -2.2325417e-25 -0.00082923076
0001a0 ec 6d c8 3a 57 e4 3b 39 c0 bd 91 b8 88 b8 06 aa
       0.0015291548 0.00017918773 -6.9494825e-05 -1.1965613e-13
0001b0 5d af 40 3e 71 e4 9c bd 70 ac 4b bc 5a 68 2c 3e
       0.18816896 -0.07660759 -0.012431249 0.16836682
0001c0 15 80 01 3e 3a 2e d0 39 d9 83 7d bc f1 b4 8a 3d
       0.12646516 0.00039707293 -0.015473329 0.06772793
0001d0 c4 26 8c 3b ec 2c 38 bd d1 e1 f5 bc 31 a2 bf bd
       0.004277082 -0.044964716 -0.030014904 -0.093571074
0001e0 ca cb 22 3e ee 8d 9e 3d 32 77 2d bd 24 8b be bd
       0.15898052 0.07741915 -0.04235 -0.09303883
0001f0 07 9f 4c bc 58 88 c9 bc bc d2 ef bc 23 0d 0e 3e
       -0.012489087 -0.024601147 -0.02927529 0.13872199
000200 00 ae b3 bd ee 23 06 bd 07 e5 0d 39 8c ca ec 3d
       -0.08773422 -0.03274911 0.00013532127 0.1156207
000210 0e 1f f1 bd 0e 34 a4 3c 60 56 29 bc 6a 67 97 1c
       -0.11773501 0.020044353 -0.010335535 1.0019074e-21
000220 eb 66 22 30 66 86 02 28 82 06 ff 39 37 a4 79 b6
       5.908151e-10 7.245593e-15 0.0004864224 -3.7199477e-06
000230 ee 09 9f 16 6e 8d 0e bb 22 3f 95 36 ad 30 98 39
       2.5694102e-25 -0.002175178 4.4478957e-06 0.00029027966
000240 a4 f2 1d 3e f2 d4 49 bd 25 72 9f 3d 92 fd 79 3d
       0.15424591 -0.049275346 0.07785443 0.06103284
000250 59 a7 2a 3e 56 05 bd 3d ff 62 15 be 42 87 01 3e
       0.166654 0.092295334 -0.14588545 0.12649253
000260 45 a6 e5 bc 20 35 06 3e 2a ea a2 3d 20 fb 29 3e
       -0.028033385 0.13106203 0.079548195 0.16599703
000270 f3 ad 9e 3d 11 3c 46 3d dc a3 40 3e 37 87 a7 bd
       0.07748022 0.048397128 0.18812507 -0.08180087
000280 d1 4e 99 3d a1 a3 44 3d e5 9a f4 bd c1 85 96 bd
       0.07485736 0.04800761 -0.11943606 -0.0734973
000290 28 d8 56 bd df b7 22 3e b5 9c a7 37 66 b7 35 be
       -0.052452236 0.15890454 1.9980924e-05 -0.17745742
0002a0 51 1c 0e be 71 cc 03 3e 35 a3 dd bb 8a d0 17 11
       -0.1387799 0.12870957 -0.0067638406 1.1976061e-28
0002b0 32 0d 9c 38 75 82 3e 3a b4 2f c4 33 8d 8d 97 30
       7.4411175e-05 0.00072673644 9.1356384e-08 1.1026927e-09
0002c0 2a 7f 1f ba 86 ed 11 b9 5d 75 6a 39 fb 06 8a 38
       -0.00060843176 -0.00013916762 0.000223597 6.581653e-05
0002d0 c1 db af bc 30 c2 9b 3d 8c 9c eb 3d eb 4e e5 3d
       -0.021467092 0.07605398 0.11504468 0.11196693
0002e0 98 a2 11 3e d6 d6 01 bc c9 7e c9 bd 7d d4 1a bc
       0.14222181 -0.007924756 -0.098386355 -0.009450075
0002f0 22 ed 8d bc 73 64 f6 bd 3a 84 18 3d 39 c8 a3 bd
       -0.017324988 -0.12030878 0.037235476 -0.07997174
000300 6e 64 a9 bd c2 91 26 3e 02 20 d1 bd e3 65 9d bd
       -0.082711086 0.1626654 -0.10211183 -0.07685449
000310 26 54 0a be 0b 81 a5 bc 42 8c 86 3c b4 31 8b bd
       -0.13508663 -0.020203134 0.016424302 -0.067965895
000320 f5 e1 c7 3c ce f6 2d bd 52 d7 3c b9 66 ac aa 3b
       0.024399737 -0.0424717 -0.0001800929 0.00520854
000330 d3 e9 a8 bd 03 03 a0 bd 67 1b f1 3d 9d 3e 82 9b
       -0.082477234 -0.078130744 0.11772805 -2.154716e-22
000340 86 ef 33 3b 64 36 31 9f 8b bf 1c 32 85 52 7d 3a
       0.0027456 -3.75262e-20 9.123947e-09 0.00096634805
000350 e8 74 83 9b 31 1c 98 10 00 3d c9 ba d3 0a bd 12
       -2.174768e-22 5.9996865e-29 -0.0015353262 1.1930245e-27
000360 38 9f 80 3c 2e 95 7d 3d 4e 41 ec 3c 89 72 ee 3b
       0.015700921 0.061909847 0.028839733 0.0072768372
000370 20 80 1f 3e 28 a4 35 3e f6 39 12 3e 0c 7b 82 bb
       0.1557622 0.17738402 0.14279923 -0.0039819535
000380 56 4e 93 bd 3c 4b fd 3d be bc ca 3d 32 cd 15 bd
       -0.07192676 0.123678654 0.09899281 -0.036572643
000390 d0 5f b8 3d 76 d1 69 3d 0b 5f df 3d 51 38 2d 3e
       0.0900265 0.057084523 0.109068 0.16916014
0003a0 cd 41 e8 3d 38 35 f0 bd a1 52 1d be 0b 04 f1 bd
       0.113406755 -0.11728901 -0.15363552 -0.11768349
0003b0 50 94 1a 3e 51 ba 46 bd fc 7f 93 39 2c 26 28 be
       0.15095639 -0.04851753 0.0002813338 -0.16420811
0003c0 03 1d d1 bd e7 26 d5 bd b7 fe 30 bd c2 a1 fe 3a
       -0.10210612 -0.10407811 -0.043211665 0.001942687
0003d0 8c 60 52 37 aa 62 e0 b8 e3 ae 5b 92 9e 02 ca 07
       1.25394545e-05 -0.0001069953 -6.931978e-28 3.039512e-34
0003e0 0f 2d fe 16 de 34 32 38 02 82 33 3a d4 a4 08 28
       4.106435e-25 4.2487743e-05 0.0006847681 7.585258e-15
0003f0 bc c3 14 3e 4a df b6 3d d9 35 0f 3d 32 92 f4 3d
       0.14527792 0.08929308 0.034963463 0.11941947

conv1.bias f4 [16]
000000 87 3c ec b7 fb 29 8f 39 b7 c1 dd b6 d0 16 fd 37
       -2.8161578e-05 0.00027306363 -6.6088646e-06 3.0170573e-05
000010 57 a6 aa b8 26 a3 36 39 69 a6 20 39 a2 62 0c b9
       -8.137215e-05 0.0001741765 0.00015320782 -0.00013388184
000020 15 60 a5 b9 99 62 61 b8 11 f8 34 b8 07 1b ab ba
       -0.0003154284 -5.3736007e-05 -4.3146374e-05 -0.001305432
000030 ab b4 1a 38 e6 cc 2d bb cb 8e 60 b8 07 60 b4 39
       3.688472e-05 -0.0026519834 -5.3538748e-05 0.0003440382

bn1.weight f4 [16]
000000 7e 89 7e 3f 10 0d 81 3f d6 38 78 3f 59 1f 85 3f
       0.99428546 1.0082111 0.96961725 1.0400192
000010 bf fa 84 3f f7 5e 80 3f 1d 87 81 3f e2 59 89 3f
       1.0389022 1.0028981 1.0119358 1.0730555
000020 04 a9 78 3f 93 48 7c 3f b2 8f 77 3f 0e 35 7b 3f
       0.971329 0.9854824 0.96703637 0.9812783
000030 e4 03 75 3f 55 e7 7e 3f 2b 23 74 3f 82 1e 81 3f
       0.9570906 0.99571735 0.9536616 1.0087435

bn1.bias f4 [16]
000000 a6 16 85 3b 82 0f 7c 3c c8 a6 83 bc 62 49 f1 3c
       0.004061538 0.015384557 -0.016070738 0.029453937
000010 2c f5 4b bc 8b 52 ad bb f1 25 f3 bc 9d 45 df bc
       -0.01244859 -0.005289381 -0.029681178 -0.027254874
000020 a8 47 f5 bb a9 a4 18 ba d0 e5 c0 bb 70 b1 ac bc
       -0.0074853487 -0.0005822876 -0.005886771 -0.021080703
000030 96 c0 41 bd 9e 9b 51 bc 30 bc ba bc 61 8c a1 bb
       -0.047302805 -0.01279345 -0.022794813 -0.0049300645

bn1.running_mean f4 [16]
000000 b7 af 91 3c 4b 44 02 bd 4f 68 bf be aa db 17 3e
       0.017783983 -0.03180341 -0.3738427 0.14829889
000010 c4 d3 0f 3e 0f d5 bf bd bc d5 14 be 4d 3a 6c be
       0.14045626 -0.093668096 -0.14534658 -0.23069115
000020 83 05 a6 bc 43 dd b0 3c 1d 3a ec 3c da 42 cd be
       -0.0202663 0.02158988 0.028836304 -0.40090066
000030 9a 90 e6 be 89 7f 48 3e c8 30 ed 3c 58 b7 7d be
       -0.45032197 0.19579901 0.028953925 -0.24776971

bn1.running_var f4 [16]
000000 18 c2 07 3d 0d d4 0d 3d 2b 1f 04 3d 57 de a8 3c
       0.033144087 0.034626056 0.032256287 0.020613832
000010 19 8d e2 3c 6b 2d 1c 3d 8b 75 d4 3c 4d 44 69 3c
       0.027655171 0.03812925 0.025934955 0.014237476
000020 d8 9f 3d 3d 23 9c 84 3c 94 7f af 3c 19 00 99 3d
       0.046295017 0.016187733 0.021423139 0.07470722
000030 4a e7 8a 3d ab 6c 5b 3d 28 97 35 3c 38 9a 75 3d
       0.06782396 0.05357043 0.011083402 0.059961528

conv2.weight f4 [32, 16, 3, 3]
000000 4e 6f 02 bd 8e b3 91 bd 3c 55 7f 3d 52 4e 9e bc
       -0.03184443 -0.071143255 0.062337145 -0.019324455
000010 ed bc 9b 3d aa 6f a8 ba 02 42 70 bd 0c e4 41 3d
       0.07604394 -0.0012850661 -0.0586567 0.047336623
000020 d8 d6 44 bd 01 19 1c 3d a7 84 73 bd da 8c 08 3c
       -0.048056453 0.038109783 -0.05945268 0.008334363
000030 eb 5d 5b bb fd 43 0e 3d 82 61 31 bd 0c 3d 85 bd
       -0.0033472728 0.034732807 -0.04330588 -0.065057844
000040 a2 b8 db 3c 5f 90 37 3d a3 33 09 bd 65 6f 17 bb
       0.026821438 0.044815417 -0.03349651 -0.0023107168
000050 46 52 07 bd 0c 13 90 bd 33 75 52 bd 41 c1 98 bd
       -0.033037446 -0.07034883 -0.0513813 -0.07458735
000060 ce 41 5b 3b f1 57 4d 3d bc f6 53 3d d8 b8 85 3d
       0.003345597 0.050132696 0.051748976 0.06529397
000070 c2 03 e1 bd 58 01 6a bd 80 0e 94 3d 0b 29 73 3d
       -0.10987045 -0.057130188 0.07229328 0.059365314
000080 22 74 c0 bd f8 97 d8 3d 31 7f c6 3d c0 1c 54 bc
       -0.093971506 0.10575861 0.096922286 -0.012946308
000090 74 bf 25 3d 3d 01 16 bd ca e7 35 bd 38 8a d1 bc
       0.040465787 -0.036622275 -0.044410504 -0.025578603
0000a0 57 58 c0 bd 8f 4f 96 3c b7 1e 3b 3c 9f 22 3d 3d
       -0.093918495 0.018348483 0.011420897 0.046175595
0000b0 d6 ce 24 bd 31 1f b1 bc f8 2a 37 3d 50 d0 6f 3d
       -0.040236317 -0.021621319 0.044718713 0.05854827
0000c0 06 56 9b 3d 90 7a 23 bc 15 79 cd 3d 41 89 a9 3d
       0.07584767 -0.009977952 0.1003286 0.08278132
0000d0 f7 b9 8d bd 1f 0a a5 3d f0 3c 5b 3d 96 c2 1d bd
       -0.069202356 0.08058571 0.05352491 -0.03851565
0000e0 1a dc d0 3b 63 ac 84 bd 05 dc 2a bd 50 8d bf bb
       0.0063738944 -0.06478193 -0.041713733 -0.005845703
0000f0 a6 16 ac bc b9 37 0d 3d 25 6f 1f 3d 86 9e 9b 3d
       -0.021006893 0.03447697 0.038924355 0.07598595
000100 f3 70 a0 3d b3 0e 5f 3d fd ed 60 bd dc ca b0 3c
       0.07834043 0.054457378 -0.054914463 0.021581106
000110 45 42 a5 bc 75 47 9e 3b 07 a8 79 3d 2f a5 53 bd
       -0.020173201 0.0048302957 0.06095126 -0.051671203
000120 4e 14 46 3d 21 f8 32 bb d6 a7 4e 3d 29 e8 bd bc
       0.048359208 -0.002730854 0.05045303 -0.023181992
000130 67 66 fd bb b9 16 50 bd 2b 7f d5 bb 69 b2 8b 3d
       -0.0077331546 -0.05080292 -0.0065154037 0.068211384
000140 1f 77 fb 3c 42 45 5a 3d 61 cd 90 ba be a9 50 3d
       0.03069645 0.053288706 -0.0011047536 0.05094313
000150 60 1c e7 3a 0d cc 8b bd 48 1e fc bb 16 6e a3 3d
       0.0017632358 -0.06826029 -0.0076940395 0.079799816
000160 29 8d 86 bd 8b a6 f8 bc 82 d9 7d 3c 40 f6 0b 3d
       -0.06569893 -0.030352851 0.015493752 0.03417039
000170 1f 6a 9b 3d 44 9e 95 3d 52 56 62 3d 7c 32 80 3d
       0.075886 0.073055774 0.055258103 0.06259629
000180 17 8f 85 3d 51 36 70 3d 10 ec b5 3c bb 41 d3 bc
       0.06521433 0.05864555 0.02220729 -0.025788179
000190 03 8b e2 3d a5 33 d1 3d 72 cb 60 3c 80 4c ae 3c
       0.11061671 0.102149285 0.01372038 0.021276712
0001a0 d0 49 56 3c 3c 18 f1 bc e9 ca 6b 3c 06 59 ac 3d
       0.013079122 -0.029430501 0.014391639 0.084154174
0001b0 88 26 d7 bc 83 67 22 bd c4 56 81 bc 30 8b c8 bc
       -0.02626349 -0.039649498 -0.015788443 -0.024480432
0001c0 15 60 ae 3d 16 e5 6a 3d 0b ce a2 3d 49 25 a5 bd
       0.0851442 0.05734738 0.07949456 -0.08063752
0001d0 42 ca 11 3d 52 69 5b bc 26 01 fa 3c a4 05 c6 bc
       0.03559328 -0.01339181 0.030518126 -0.024172612
0001e0 cd c9 a4 3b 81 49 ba 3c cb 7b 54 bc 86 31 36 bd
       0.0050289393 0.022740128 -0.012968968 -0.044480823
0001f0 9f f0 c1 3a 60 7d 17 bd 29 e0 42 bc 92 d8 51 bc
       0.0014796442 -0.0369848 -0.011894264 -0.012807982
000200 16 22 e4 bc 13 b9 76 3d ee 9f d8 bc 99 62 1c bb
       -0.027848285 0.060235094 -0.026443448 -0.002386248
000210 b6 40 8f bd 02 e9 85 3d b4 32 bb bc 44 47 95 3d
       -0.069947645 0.06538583 -0.022851326 0.072889835
000220 76 1a b6 bc 41 29 39 bd f7 46 5e bd 3d cc 8a 3d
       -0.022229414 -0.04520536 -0.054266896 0.067772366
000230 7e 45 1b bd b4 e9 6d bd 12 a6 c1 bd ef 27 28 bd
       -0.03790807 -0.058084205 -0.094555035 -0.04105371
000240 6e 4f 6d bd de dd 1e 3d aa dd 39 3d d2 45 42 3d
       -0.05793708 0.038785808 0.04537741 0.047429867
000250 3e 47 d8 bc f1 18 34 3d 60 77 b5 bc c7 d2 2c 3d
       -0.026401158 0.0439691 -0.022151649 0.0421932
000260 83 31 97 3d 4f 9a 4d bc 73 cc 7d bd 97 c7 4c 3d
       0.073824905 -0.012548997 -0.061962556 0.04999503
000270 29 c6 f7 3b aa 71 d4 3d 49 58 48 3d 55 f9 b6 bc
       0.0075614643 0.10373242 0.04891232 -0.022335688
000280 6d 2b 0b bd 99 d2 d1 bd 51 37 80 bd db 7b b5 3c
       -0.03397696 -0.102452464 -0.06260551 0.022153785
000290 b7 ad 0e bc 20 80 0b bd 5b 24 87 bc 39 43 67 bd
       -0.008708409 -0.034057736 -0.016496828 -0.056460593
0002a0 06 2c 64 3d 82 f5 2a bd cc cb cd 3c 06 f9 e1 3b
       0.055706047 -0.04173804 0.025121592 0.006896141
0002b0 1c 4d ae 3d c7 f0 53 bd e7 86 28 3d c5 ec 10 3d
       0.08510801 -0.051743295 0.041144278 0.03538205
0002c0 d1 0a 34 bc 39 5e 23 bd b7 af 8a 3d ec fa 6a bc
       -0.010988907 -0.03988478 0.06771796 -0.014342051
0002d0 4b 23 8b 3d bc 5b b5 bd 0f 2e 8b bd 09 19 e4 bb
       0.06793841 -0.088553876 -0.06795894 -0.0069609922
0002e0 06 31 3f 3b 4c c3 0d 3d 6a 85 ae bd 46 10 35 bc
       0.0029173507 0.034610078 -0.085215405 -0.011051243
0002f0 d5 f2 d9 bc 85 0f b4 3c 41 c9 6a bd 04 0a 19 3d
       -0.02660505 0.021980057 -0.057320837 0.037363067
000300 67 a8 7e 3c f3 f3 e1 bc 53 70 c3 3d a6 62 45 bd
       0.01554308 -0.027582144 0.095429085 -0.04818978
000310 a5 75 55 bd 58 d9 17 3c a6 06 e2 3c 45 b6 06 3d
       -0.052114148 0.009268127 0.02759106 0.03288867
000320 bd 35 19 bd 1a e2 f7 3b 44 22 08 bd 66 cd 29 bc
       -0.037404764 0.007564795 -0.033235803 -0.010363912
000330 de 25 53 bc 3d bf 94 bb aa 91 7e bb 3f 6b bb bd
       -0.012887446 -0.004539399 -0.0038844147 -0.09151315
000340 ac 51 a3 bd 87 87 91 3d 04 f2 13 bc 74 e7 fa 3d
       -0.07974562 0.07105928 -0.009029869 0.122511774
000350 d1 25 a1 bc 31 3b 07 bd 61 7f 02 3d b1 21 2d 3d
       -0.019671353 -0.033015434 0.03185976 0.04226846
000360 ee ff ae bc 46 c3 8b bc 4e c9 a3 3c ac bc 42 3c
       -0.021362271 -0.017060887 0.01999345 0.011885803
000370 78 d6 ea 3d c9 fa 96 bc a6 58 5c 3c b5 22 7b 3d
       0.11466688 -0.01843013 0.01344887 0.061312396
000380 b0 1b 26 bb 56 c2 d4 bd e4 1d c1 bb 21 bf 8a bd
       -0.0025346093 -0.10388629 -0.005893456 -0.06774736
000390 0f 3a 01 bd f7 d6 3d 3c fb bf 28 3b 38 de 03 3c
       -0.03154951 0.011586896 0.0025749195 0.008048587
0003a0 c0 0c 0d 3a 50 35 22 bb d6 03 57 bd e6 33 43 3d
       0.0005380623 -0.0024751015 -0.052493893 0.047656916
0003b0 e8 47 ad bd 31 08 66 bd cb 2e 01 bd 03 1c 24 3d
       -0.08460981 -0.056160156 -0.031538766 0.040065777
0003c0 9e 8b 17 3d 6c df 95 bc 23 53 dd 3b 6c d5 1b bc
       0.036998384 -0.018295012 0.0067542954 -0.009511333
0003d0 50 81 25 bd e8 17 a5 3d 23 72 b2 bc 2f 1e f1 bb
       -0.040406525 0.080612004 -0.02178294 -0.0073583345
0003e0 87 e2 44 bc 34 21 61 3d 5c a5 aa bd a0 47 b6 bd
       -0.012016899 0.054963306 -0.08332321 -0.0890038
0003f0 ae 87 52 3b cb a7 f7 bc 61 6b 43 bc 49 34 56 bd
       0.0032124328 -0.030231377 -0.011927457 -0.052295957

conv2.bias f4 [32]
000000 8a 95 03 b8 09 42 6e 35 9e bd 04 b7 a6 8e 85 b7
       -3.1372103e-05 8.8758003e-07 -7.911962e-06 -1.5921261e-05
000010 82 fe a1 b7 52 d2 16 b8 f9 de bf 36 05 60 cb b7
       -1.931121e-05 -3.5958663e-05 5.718201e-06 -2.4244198e-05
000020 77 8b 56 b5 d4 dd cd b4 3a 13 51 37 54 d8 02 b8
       -7.992416e-07 -3.8345627e-07 1.2461847e-05 -3.1195887e-05
000030 94 d5 95 37 dc 50 3d b7 69 c4 a1 b6 0f 6f 6a 37
       1.786164e-05 -1.1284104e-05 -4.821039e-06 1.3973345e-05
000040 06 85 16 38 04 51 e0 b7 b7 7c 1b 35 6a a2 7e b7
       3.5886675e-05 -2.6740607e-05 5.7923484e-07 -1.5177395e-05
000050 59 0d 27 36 a0 2c 47 35 25 33 3d b7 ba 42 fe b7
       2.4892709e-06 7.4198215e-07 -1.1277186e-05 -3.0310232e-05
000060 ad 5f 2a b7 9a dc 42 b6 3b 0f 4c 36 7b 00 c2 37
       -1.0155066e-05 -2.903666e-06 3.0407234e-06 2.3126826e-05
000070 76 17 0e 37 7a 0e 78 38 3f 76 9a b7 c9 f7 0e b7
       8.469322e-06 5.914129e-05 -1.8413293e-05 -8.5215515e-06

bn2.weight f4 [32]
000000 33 92 8e 3f 1d 76 94 3f 68 cd 94 3f b1 ed 8c 3f
       1.1138366 1.1598545 1.1625185 1.1010038
000010 b0 62 8c 3f 70 5b 8c 3f 17 1d 91 3f 4f 41 8e 3f
       1.0967617 1.0965405 1.1337003 1.1113681
000020 7c fb 8d 3f 1c d4 8e 3f 44 db 8e 3f 8c 1c 95 3f
       1.1092372 1.1158481 1.1160665 1.1649337
000030 96 40 8a 3f 1f e8 8f 3f 61 04 8a 3f a1 c3 92 3f
       1.080096 1.1242713 1.0782586 1.1465951
000040 e3 58 94 3f 73 3f 8f 3f e9 9a 88 3f 4e 2e 8f 3f
       1.1589626 1.1191238 1.0672275 1.1186006
000050 c5 fe 8d 3f 58 67 8b 3f b1 6b 91 3f 70 f1 88 3f
       1.1093374 1.0890913 1.136099 1.0698681
000060 42 43 8a 3f 5c c4 8a 3f 6a 10 8b 3f 13 ae 8e 3f
       1.0801775 1.0841174 1.0864384 1.1146873
000070 8e 27 90 3f bb 53 91 3f 42 62 89 3f 76 b0 8e 3f
       1.1262071 1.1353678 1.0733111 1.1147602

bn2.bias f4 [32]
000000 e4 33 18 3d 23 eb 34 3d 4e 01 95 3d 98 8b 41 3d
       0.03715886 0.044169556 0.072756395 0.047252268
000010 c8 22 3e 3d d0 b1 15 3d 07 52 8e 3d 02 ad 20 3d
       0.04641989 0.03654653 0.06949239 0.039227493
000020 4e f1 b0 3c d7 1c 86 3c c6 1e 61 3d f0 86 3b 3d
       0.021599438 0.016371174 0.05496099 0.045782983
000030 64 5c a0 3c af 09 20 3d d1 b4 a3 3c 6d f9 4b 3d
       0.019575305 0.039071735 0.01998368 0.049798418
000040 85 99 26 3d a2 14 1a 3d 75 a3 45 3c 49 fb 95 3d
       0.04067375 0.037617333 0.012062897 0.073233195
000050 e5 a7 5f 3d 40 84 16 3d 13 6d 98 3d 56 09 8b 3c
       0.054603476 0.036747217 0.07442679 0.016972225
000060 99 d0 dc 3c 79 5f 6d 3d a9 6c ee 3c e6 58 80 3d
       0.026954936 0.057952378 0.029104548 0.06266956
000070 f1 36 36 3d 6e 2e 7d 3d ad d3 c7 3c d3 11 68 3d
       0.04448599 0.061811857 0.024392927 0.056657623

bn2.running_mean f4 [32]
000000 a6 36 78 3e 1c 54 d7 3d 6d c2 03 3c a5 8e 8a be
       0.24239597 0.105140895 0.00804196 -0.27061954
000010 89 56 30 be f1 85 09 bd e5 02 fb bd 39 d2 94 3b
       -0.1722051 -0.033575002 -0.122564115 0.004541662
000020 f8 e4 19 be 40 5f 35 be 1a 19 8e be 24 ee 5c 3c
       -0.15028751 -0.17712116 -0.27753526 0.0134845115
000030 90 61 16 3e 9f 01 41 be 39 c1 99 bc c5 6b 67 bd
       0.14685655 -0.18848275 -0.018768894 -0.05649926
000040 1d 21 df 3c 81 8d 56 3d 7e bc e8 3e 4a 25 08 3e
       0.02723747 0.052381042 0.45456308 0.13295475
000050 91 a0 01 3e bb 06 74 3c 67 5d c8 3d a5 ee f2 3d
       0.12658907 0.014894183 0.0978344 0.11861924
000060 91 e1 89 3e b9 c5 7d bc ff 4b 2a 3e 8d b3 a3 be
       0.26929906 -0.015489035 0.16630553 -0.31972924
000070 5c 91 1c 3e 63 78 2c be e9 54 26 3e 7c 49 47 3e
       0.15289825 -0.16842799 0.16243328 0.19461626

bn2.running_var f4 [32]
000000 59 cb 21 3e 00 d1 98 3d c6 6f cc 3d db 91 83 3d
       0.15800227 0.074617386 0.099822566 0.06424304
000010 1e ae 95 3d 72 11 a0 3d 23 0d 94 3d a8 eb a3 3d
       0.07308601 0.078158274 0.07229068 0.08003932
000020 24 bb b0 3d 7a 75 b4 3d b6 28 81 3d 7e 32 ae 3d
       0.08629444 0.088114694 0.06306593 0.08505724
000030 ea eb 95 3d 71 91 8e 3d d1 16 33 3d a7 8a b9 3d
       0.07320388 0.069613345 0.04372293 0.09059649
000040 bc f4 cf 3d 4b bf 61 3d 60 44 c1 3d e4 ea c3 3d
       0.10154101 0.05511407 0.094368696 0.09566286
000050 db 8b c1 3d 93 60 b1 3d 0d 60 1e 3e 64 d8 b7 3d
       0.094505034 0.08660998 0.15466328 0.0897682
000060 ea ef 75 3d 96 c6 89 3d 39 36 bf 3d 1b 77 c4 3d
       0.060043253 0.067273304 0.09336514 0.0959303
000070 cb 4f 6e 3d 69 57 9b 3d 9a 03 d5 3d 61 35 92 3d
       0.058181565 0.075850315 0.104010776 0.071390875

fc1.weight f4 [128, 800]
000000 75 83 53 3d f8 5f 99 3b ae 36 90 bd 1b 06 ae ba
       0.05163904 0.00468063 -0.07041679 -0.0013276966
000010 5e f0 1a bd 34 43 a7 3d 5b 5c 2a 3d 22 ec da 3c
       -0.03782689 0.08167115 0.041591983 0.026723925
000020 a4 b1 ca bc 73 9b 00 3c 57 fc 24 bd 7b 81 3a bd
       -0.024742909 0.007849562 -0.040279713 -0.04553364
000030 ad 74 7a bd 41 c4 4d bd e0 c3 46 ba 42 4f 2b bc
       -0.061146427 -0.05023599 -0.0007582288 -0.010455908
000040 ec 07 51 bd 58 53 31 3c 37 aa 8b bb 90 54 ce b9
       -0.051032946 0.010823093 -0.0042622345 -0.00039354386
000050 cf fe b4 3c 18 1e 5b 3d 5e db 85 3d fb 42 3b 3d
       0.022094158 0.053495497 0.065359816 0.045718174
000060 ad da 86 bb aa ae ba 3b c9 ea 23 bc f5 b8 c4 3b
       -0.0041154237 0.005697091 -0.010004708 0.006003494
000070 94 64 51 3d f2 bd 86 bc be 55 d5 3c e0 bb 97 bd
       0.05112131 -0.016447995 0.026041862 -0.07408881
000080 3e 8b aa bc b1 e2 84 bd 96 96 5e bc ab a7 96 3c
       -0.020818349 -0.064885505 -0.013585707 0.018390497
000090 90 6f f5 3c 31 e3 3e 3d 1b 17 3c bd c4 b7 8b 3d
       0.029960424 0.046603385 -0.045920473 0.0682216
0000a0 94 74 0e 3d e1 37 f0 3c f0 f1 5d bc 04 52 b5 3c
       0.034779146 0.02932352 -0.013546452 0.022133835
0000b0 c9 49 e8 3c d0 a4 87 bc 42 67 c0 3c a9 44 9b bc
       0.028355496 -0.01655808 0.023486737 -0.018953638
0000c0 97 ac 24 3d 6c e2 79 3c 5a 5f 38 3c 9d 8c ea 3a
       0.040203657 0.015251737 0.011253202 0.0017894689
0000d0 8a 1e 0f bc d9 c8 b1 3c 5e e3 8d bd a0 02 3a ba
       -0.008735308 0.021702217 -0.069281325 -0.0007095728
0000e0 6f d6 53 bd 75 57 4b bd 22 d1 1a 3b ab 46 6e bc
       -0.05171817 -0.049643952 0.0023623188 -0.014543216
0000f0 e2 8a f7 bc 8a a3 ef bc 0a 1f 35 bd 04 2f 83 bd
       -0.030217592 -0.029252786 -0.044219054 -0.06405452
000100 4a c1 e6 bb 97 58 8a bd b3 c5 90 bd a9 c9 1e 3d
       -0.007042085 -0.067551784 -0.07068958 0.038766537
000110 14 c3 85 3d 94 5d 49 3d 05 81 92 3d 2c 74 94 3d
       0.06531349 0.04916151 0.07153515 0.072487205
000120 16 95 bd bc 59 4f f1 3b 60 39 f7 3c 1c 6a 12 bc
       -0.023142379 0.0073641953 0.030178726 -0.008936431
000130 f9 ee 51 3d 45 5b 87 bc 64 81 8c 3c e0 10 84 ba
       0.051253293 -0.016523013 0.017151542 -0.001007583
000140 da 48 df 3c aa 6b 2d 3d ce ff 39 bd 46 af 47 3b
       0.027256418 0.042339005 -0.04540997 0.0030469461
000150 52 0f 5b 3c 49 e1 f5 3b bc aa a0 3c 72 ad 12 3d
       0.013370352 0.0075036627 0.019612662 0.03580994
000160 3f c9 fd bb 63 42 2c bd d2 92 24 3c 65 92 6d bc
       -0.0077449377 -0.0420555 0.01004477 -0.014500235
000170 93 31 18 bc a3 4a 8c 3c b3 62 29 3d a0 c7 d4 3c
       -0.009289163 0.017125433 0.041353893 0.025974095
000180 3a 2b bf bc 4b d2 02 bd 3b 0c 15 3b db 6f f5 bc
       -0.023336042 -0.031938832 0.0022742886 -0.029960563
000190 7d b3 0c bc 4f e6 36 bc 63 87 97 3b 1b 64 93 bc
       -0.008587715 -0.011163308 0.0046242937 -0.01799207
0001a0 70 1e 90 bb 34 88 a7 bd ad 19 26 3d 7a d9 8c 3d
       -0.0043981597 -0.081802756 0.04055183 0.06877418
0001b0 5f 7e b7 bc a2 34 04 3c ff 95 7a 3d b1 aa 1e 3d
       -0.022399126 0.008069189 0.061178204 0.038737003
0001c0 b8 e0 6c 3d 1d 58 6e 3d b5 a4 4b bd 7a b7 b0 bb
       0.057831496 0.0581895 -0.049717624 -0.005392966
0001d0 45 c3 26 3c 88 9e 33 3a 32 35 23 3d 94 44 a5 bb
       0.010178392 0.0006851931 0.039845653 -0.0050435755
0001e0 6e 24 ca 3c 5b e5 95 3c d8 c0 3f 3d 86 4e fb bb
       0.024675574 0.018297842 0.04681477 -0.007669273
0001f0 b6 70 0a 3d 45 c3 93 3c cd ea 44 bc eb 64 43 bc
       0.033798896 0.018037448 -0.0120188715 -0.011925916
000200 5e 68 af bc 44 76 5c bd 51 5a 94 3d 06 ec 8d 3d
       -0.02141207 -0.053823724 0.07243789 0.069297835
000210 6c 38 6e bd da 1d 60 3d d1 aa d7 bc 60 ec 96 bc
       -0.058159277 0.05471597 -0.026326569 -0.01842326
000220 e1 74 04 bd 4a 99 00 3c 88 8c 16 bc 22 3e c0 bc
       -0.032338027 0.007849047 -0.009188779 -0.023467127
000230 ac ad 0f bd d7 e9 89 bc 56 39 1d 3c 7d ed 0e 3d
       -0.035077736 -0.016835136 0.0095961895 0.034894455
000240 4b 99 36 bd cb 1f f8 3c f9 e8 2b bc 19 7d 93 bd
       -0.044579785 0.030288598 -0.010492557 -0.07201595
000250 1c 44 dc 3c 9d a8 c7 3c 4a 5b 12 bb 1a de 83 ba
       0.026887946 0.024372393 -0.0022332245 -0.0010060698
000260 bd c9 c3 bc 16 b6 83 bc b7 ba d5 3c 69 0c 2d bd
       -0.023899907 -0.016078036 0.02609001 -0.042248163
000270 d1 32 cf 3c 60 d1 2a bc d9 c3 47 3c 1a 2a ed bb
       0.025292786 -0.010425895 0.01219269 -0.007237685
000280 1e eb d2 3c 06 a0 98 bb 41 6b 2e 3d 4c 44 b6 3c
       0.025746878 -0.004657748 0.042582754 0.022249363
000290 71 b6 8f 3c e1 4d 1e bc dd ad f9 3a 62 23 b7 bb
       0.01754305 -0.0096621225 0.0019049008 -0.0055889348
0002a0 06 34 46 3c de 5c ff bb 0f 1e f8 3c 5b d0 a3 bc
       0.012097364 -0.007793053 0.03028777 -0.019996813
0002b0 d0 06 31 3b 70 af ba bb e4 62 34 3d 94 f8 d7 3c
       0.0027012117 -0.0056971833 0.044039622 0.026363648
0002c0 f1 c6 5b 3d 01 d4 25 3d 7c 5e db ba df d8 bd 3c
       0.053656522 0.040485386 -0.0016736533 0.023174701
0002d0 3a ec 0d 3d 2d 97 af bc 3f 8b 0f bd 4e 3d c1 bc
       0.03464911 -0.02143439 -0.035044905 -0.023588803
0002e0 25 5e 21 3c eb 0a 66 3d 6b 72 07 3c b2 f3 52 3d
       0.009849106 0.056162756 0.008267025 0.051501937
0002f0 21 36 69 3b cb b6 00 3d 99 67 50 bc 7f 99 94 3c
       0.0035585242 0.031424325 -0.012720012 0.018139599
000300 97 aa 0d bd a2 18 2e 3d e0 63 04 3c dd 0e e0 bc
       -0.034586515 0.04250396 0.008080453 -0.027350837
000310 1f 60 03 bd eb 2d 14 3d 00 f2 a3 bc 08 b3 b2 bb
       -0.03207409 0.036176603 -0.020012856 -0.005453471
000320 0c 98 39 3d db 84 d3 3c 14 bb 99 bd 9f 9a 8c bc
       0.04531102 0.025820186 -0.075063854 -0.017163573
000330 94 51 20 bc 2e 45 ee bc 5c db 34 3d 37 a3 2a bd
       -0.009785075 -0.029085722 0.04415451 -0.04165956
000340 04 d6 1f 3c c7 21 d3 bc c5 be db 3c 55 9b 59 bd
       0.009755615 -0.025772942 0.026824364 -0.05312665
000350 81 c0 ef 3c 85 48 52 3c e3 85 b5 3b bd 1e 6e 3c
       0.029266598 0.012834673 0.005539642 0.014533696
000360 cb da 90 bb 08 67 5b 3c 71 d3 4c bc 11 17 e0 3c
       -0.0044206134 0.013391264 -0.012501583 0.027354749
000370 ec e0 ee bc e7 bb af bc 8e 26 02 bd 95 ee 80 bc
       -0.029159985 -0.021451904 -0.03177505 -0.015738765
000380 d9 de 75 bc 10 e1 97 3d bb 0f b0 bc 47 55 18 bb
       -0.015006744 0.07415974 -0.021491876 -0.0023244189
000390 da 8c cf bb 34 16 9f 3b 91 9d c0 3b e3 b8 81 3a
       -0.0063339295 0.0048549417 0.0058781584 0.000989702
0003a0 9c cc e2 bc 90 dc 23 bc 57 a8 a6 3c f6 32 6e bb
       -0.027685456 -0.010001317 0.020343943 -0.0036346293
0003b0 3b 72 eb 3c c5 fc 1e bd 6e 7c 5f 39 24 14 9d bc
       0.028740993 -0.03881528 0.00021313291 -0.019174643
0003c0 6f 10 fc 3c 7c 9d 9c 3b b7 7d 10 3d bd 03 49 bc
       0.030769555 0.004779516 0.03527614 -0.012268958
0003d0 28 98 f5 bc 06 3c 05 3c 8b d2 f3 3c 3e 6a 9c 3c
       -0.02997978 0.0081319865 0.02976348 0.019093629
0003e0 ce 34 c6 3b c7 45 6e 3c 29 69 ef 3b 63 95 4e bd
       0.0060487753 0.014543003 0.0073062372 -0.050435435
0003f0 fd ee 48 3d 52 99 e3 3c b5 d2 81 bc 0e 0d cf bc
       0.049056042 0.02778307 -0.015847543 -0.02527478

fc1.bias f4 [128]
000000 7f b2 73 bc 14 fd db bc d1 97 f3 bc b6 9d b5 3b
       -0.0148741 -0.026854075 -0.029735478 0.0055424822
000010 e6 45 70 3c fc 04 e1 b9 2d c7 cf 3c 56 f8 8d 3b
       0.014665103 -0.00042919058 0.02536353 0.0043325825
000020 15 75 19 bc ce 6e a5 bc 1f c0 05 bd 8d 75 06 bd
       -0.009366293 -0.020194437 -0.032653924 -0.03282695
000030 a5 02 7f 3c 5f f9 b2 3c 5e 21 a5 bc 15 3f 1b 3b
       0.015564595 0.021847425 -0.020157512 0.0023688723
000040 53 a2 6d bc 43 05 fa bc f9 37 99 3b 8c 96 cb 3c
       -0.014504033 -0.030520087 0.004675862 0.02485206
000050 02 9c b1 3c 0c 3f 1a 3c 32 bf e8 3c a8 22 bd bb
       0.021680836 0.009414446 0.028411482 -0.0057719536
000060 f1 cc d8 3c 2f c5 07 bb 3a 18 f9 3c cc 35 b8 bc
       0.026464911 -0.0020716896 0.03040706 -0.02248659
000070 a5 44 de bc bb 63 f7 3a 91 a0 e5 bc fd 3a c8 3c
       -0.027132342 0.0018874326 -0.028030666 0.02444219
000080 6e 1e b1 3c b2 85 d5 bc 44 d3 87 3c f8 a7 ea 3c
       0.021620955 -0.026064727 0.016580231 0.028644547
000090 d8 b1 f5 3c 7d f4 e2 bc 7c 23 07 bd 32 79 e0 bc
       0.02999203 -0.027704472 -0.032992825 -0.02740154
0000a0 76 61 77 bc e8 a9 02 3d a1 96 21 3c ea aa 8a bc
       -0.01509892 0.031900316 0.009862573 -0.016927201
0000b0 70 21 97 bc 8e d5 bd ba 8e 8e d3 bc cb 56 0b bd
       -0.018448561 -0.00144832 -0.025824811 -0.03401832
0000c0 0b 0e 85 3c b6 a3 c8 3c 21 ab b4 bb 0d e3 25 bc
       0.016242048 0.024492126 -0.005513564 -0.010124934
0000d0 d2 65 ca 3c 0e b6 ed bc 7e 41 30 bc 6c 57 a7 bc
       0.024706755 -0.029017475 -0.010757802 -0.020427428
0000e0 d4 db 14 bc 94 87 01 3d 38 cf be bc db 58 84 3a
       -0.009085614 0.031623438 -0.023292169 0.0010097282
0000f0 5b ba 05 3a 7c 24 10 bd 46 12 53 bc 58 87 43 bc
       0.00051013165 -0.035191044 -0.012882775 -0.011934124
000100 59 74 8b 3b 15 0d c7 bc 78 a9 83 3c f3 72 9b 3c
       0.004255813 -0.02429823 0.01607202 0.01897571
000110 b8 b3 9a 3c bd ef c0 bc 6f a3 39 bc d9 34 ff 3c
       0.018884525 -0.023551816 -0.0113304695 0.03115313
000120 4c 23 8e 3b fe 93 58 3c af a7 f9 bb 91 c5 70 3c
       0.004337704 0.013218878 -0.0076188664 0.014695541
000130 47 cc ef 3c 6f 3c 2a bc 7a d2 90 3c 19 12 af bc
       0.029272212 -0.010390385 0.017678488 -0.021370934
000140 f2 ca 14 bd 39 7d 7b 3b 72 1d 83 3c d0 0d 4d bc
       -0.036326356 0.00383742 0.016005252 -0.0125155
000150 f8 ea a3 bc 2a 13 48 3b 55 48 f0 3c ae 2e d9 3c
       -0.020009503 0.0030529 0.029331366 0.026511516
000160 c8 0b f9 bb 96 ac 2a bc 44 17 aa 3c 8d 8c 7b 3c
       -0.0076002814 -0.010417124 0.020763047 0.015353334
000170 aa 58 d0 3b 12 11 80 bc 6d 9a 9d bc 9b aa d2 bc
       0.006358226 -0.01563314 -0.019238675 -0.025716117
000180 7a c1 f5 3c 0f f4 a2 bc e0 55 b2 3c b6 fc fa bb
       0.029999483 -0.019891767 0.021769464 -0.00765952
000190 89 2b e0 3c b7 f6 82 3c d6 eb 46 3c 92 23 11 bd
       0.02736451 0.015986783 0.012141189 -0.035434313
0001a0 ae 2d 5b 3b 60 a7 13 3a 76 ca ef bc de 80 bc 3c
       0.0033443975 0.0005632546 -0.029271346 0.023010667
0001b0 7b e9 ec 3c 5d f4 0c 3c 40 c0 8e 3c 34 89 a1 3c
       0.028919926 0.008603183 0.017425656 0.019718744
0001c0 ac ca 81 bc 14 d2 ab bc bf bf 0a bc d7 ea 68 3c
       -0.015843712 -0.020974196 -0.008468567 0.014216146
0001d0 90 18 f3 bb 42 55 bb bc 01 00 32 bc 0e 28 47 bc
       -0.0074186996 -0.022867803 -0.010864259 -0.012155546
0001e0 88 fd 7b bc 11 00 b0 bc 22 a6 b8 3c 90 7c 53 3c
       -0.015380271 -0.021484407 0.022540156 0.012908116
0001f0 26 51 07 3d ed 58 04 3d d3 98 42 3c 92 3a ad bc
       0.033036374 0.03231137 0.011877256 -0.021146093

fc_p.weight f4 [26, 128]
000000 67 a0 b8 3d 48 7b 18 be 47 17 f0 3d ec ba df 3b
       0.09014969 -0.14890778 0.1172319 0.0068277027
000010 9e a3 c3 3d e6 45 08 3d be db a4 3d 06 c1 3b 3c
       0.09552692 0.033269785 0.08049725 0.011459595
000020 6d 29 6e 3d 64 92 66 b3 b2 8a 06 be 5a 89 36 3d
       0.058144975 -5.368419e-08 -0.13138846 0.044564582
000030 16 25 07 bd 0e 0d 92 3d f0 7f 89 3d b3 b2 14 bd
       -0.032994352 0.07131396 0.06713855 -0.036303233
000040 5b 88 29 bd 20 e5 6a bd c8 02 2f 3d 9b 53 39 be
       -0.041389804 -0.057347417 0.04272726 -0.18098299
000050 77 78 c7 3b e7 3d f2 3d 5f 00 20 be ce 7f 5b bc
       0.0060873586 0.11828213 -0.15625142 -0.01339717
000060 e2 97 20 3d 1b 54 8e 3d 80 a5 4c be eb 11 fa bd
       0.039207347 0.069496356 -0.19985008 -0.12210449
000070 13 f3 95 3d 74 7d 71 3c 1d 6c 88 3d 7b 21 ea bb
       0.07321753 0.014739383 0.06661246 -0.0071451045
000080 07 b1 cf 3d a7 5a 94 3d f1 2d b5 3d 28 f1 93 bb
       0.10141187 0.07243853 0.08846653 -0.004514832
000090 40 64 f1 3d 09 ec 16 bd 03 18 97 bd cd eb 2a 3d
       0.11786699 -0.036846194 -0.07377627 0.041728783
0000a0 49 a5 b3 bc c7 15 e5 ba e8 85 30 be 2a f1 50 37
       -0.0219294 -0.0017477804 -0.17238581 1.24539165e-05
0000b0 7c 3f ac 3c d5 7a 23 be 55 7f fa bd b2 49 30 bd
       0.021026365 -0.15964825 -0.12231318 -0.04303903
0000c0 3d 76 41 3d f8 da f7 3d 32 77 d2 bc c8 f6 23 bc
       0.0472319 0.12102312 -0.025691602 -0.010007568
0000d0 14 51 2e be 26 63 6b be d5 91 64 3b 84 63 89 3d
       -0.17023116 -0.22987041 0.0034876962 0.06708434
0000e0 28 72 4a bd f9 00 6f 3d b9 02 b6 3b 24 af 21 be
       -0.049425274 0.058350537 0.005554524 -0.15789467
0000f0 65 46 29 3d 78 85 38 3c 9c 55 d3 bb ed 55 9a 3d
       0.0413269 0.01126229 -0.0064494144 0.0753592
000100 58 d6 08 3d 80 78 33 3d 95 e5 fb 3b fc 5d 01 ba
       0.03340754 0.04381609 0.0076872804 -0.0004934964
000110 9e 4e d0 bd a0 bc 77 bd a0 3d c9 3c ba f0 e0 3c
       -0.10171245 -0.06048262 0.024565518 0.027458537
000120 0a 3b 23 bd 0e 21 0c be 0c 77 da bd d8 79 fb 3c
       -0.039851226 -0.13684484 -0.10667238 0.030697748
000130 b5 f1 d6 3d 11 4e 2a be 74 a1 cc 3d 34 0c 07 3c
       0.10495321 -0.16631342 0.09991732 0.008242656
000140 76 14 8f bd ad d5 94 bd f5 a3 d8 bd a2 6d 70 bd
       -0.069863245 -0.07267318 -0.10578147 -0.058698304
000150 a2 64 8a 3c 78 66 a3 3d fa 04 39 3b d1 e8 da 3d
       0.016893689 0.07978529 0.0028231726 0.106889375
000160 b0 0b 52 3b c4 0f 0e be 17 89 87 3d 34 3f 44 bd
       0.0032050423 -0.13873202 0.06617945 -0.047911838
000170 dd f9 e7 3c b3 b6 26 be ee 12 31 be 47 09 30 3d
       0.028317386 -0.16280632 -0.17292377 0.042977598
000180 02 60 9c bd d3 54 a4 3d d4 a3 74 3d 63 0d b1 3c
       -0.076354995 0.080239914 0.05972655 0.021612829
000190 16 3f 19 be 1e bd 44 bd 41 fe 12 3e d8 84 13 3d
       -0.14965472 -0.04803192 0.14354803 0.03601536
0001a0 48 1c e7 bd c6 58 d8 bc 7b e9 5f bd df bb 07 be
       -0.11284691 -0.026409518 -0.054666024 -0.13255261
0001b0 69 0d 15 be e1 64 29 3d 68 26 69 3c 3b e2 4b bd
       -0.14555897 0.04135597 0.014230348 -0.049776297
0001c0 d3 ed 0d 3d 2d 89 25 be bd 41 9e 3d 8e 73 14 bd
       0.034650635 -0.1616561 0.07727382 -0.036243014
0001d0 df 95 92 bd d3 23 c6 ba db 81 ac bd 55 65 64 bd
       -0.07157492 -0.0015116878 -0.084232055 -0.0557607
0001e0 ea 16 de 3d 9a 12 98 3d ad e2 9a bc 4d d7 20 bd
       0.10844214 0.07425423 -0.018906916 -0.039267827
0001f0 5f 6e ef 3d ae c6 df bd 1f ed 83 bd 18 d6 03 3e
       0.116909735 -0.10926567 -0.06441712 0.12874639
000200 1c d5 22 3d 10 c5 92 bd 98 9c 0a 3e 4f 70 40 3d
       0.03975402 -0.07166493 0.13536298 0.046982106
000210 a0 3c 2d bc 73 5e 78 ba 62 d1 b2 bc 81 6f cf 3d
       -0.010573536 -0.0009474523 -0.021828357 0.101286896
000220 fb 9e 53 38 ea 11 4d 1a d6 9e c7 bd 3f c7 a2 bc
       5.0454382e-05 4.2407477e-23 -0.097470924 -0.019870399
000230 38 95 79 bc fd 3e 7f bd c1 ad 0e bd 7e c3 27 bb
       -0.01523333 -0.06231593 -0.034833673 -0.00255987
000240 a8 83 08 bd 0c 17 98 bd 5b d0 70 bd f3 4e 16 be
       -0.033328682 -0.07426271 -0.058792453 -0.14678554
000250 b0 04 03 3e b6 13 3c 3d 97 90 04 be f3 1e c0 bd
       0.12794757 0.045917235 -0.12945782 -0.09380903
000260 d4 6e b6 3b c0 d2 31 be 6f 38 0c 3a b9 9b c4 bd
       0.005567411 -0.17365551 0.00053489854 -0.09600014
000270 db 04 00 be ca 81 29 3d 4c 7b 7f 3d b1 96 b4 3c
       -0.12501852 0.041383542 0.062373444 0.022044512
000280 c4 43 e5 3d 25 15 a8 bd 1c 4e 12 be e6 83 a7 bd
       0.11194566 -0.08207158 -0.14287609 -0.081794545
000290 5f 38 9c 3d cf ad d6 3c ab c2 9f bd af 85 d2 bd
       0.076279394 0.026205925 -0.07800802 -0.10279404
0002a0 ca e4 61 bd 1b 07 4e 3d 5b 9a bd 3d f1 db 2c 32
       -0.05514983 0.050299745 0.092579566 1.0061727e-08
0002b0 1f 8d f7 3d fc 60 15 be 41 8c 4e be 4a 7f 18 bd
       0.120874636 -0.14587778 -0.2017069 -0.037230767
0002c0 cd 68 95 3d 40 08 1a 3d 22 c4 6c 3d 45 1a f5 bb
       0.0729538 0.037605524 0.057804234 -0.007479938
0002d0 f3 3b fc bd 1a df 3f 3d 02 bf cd bc e0 a2 03 3e
       -0.12316122 0.046843626 -0.025115494 0.128551
0002e0 ec 9d ec 33 37 76 bb bd 3f 34 b8 3b a8 d5 03 be
       1.1018332e-07 -0.09153407 0.0056214626 -0.12874472
0002f0 7e cb 15 be 65 90 00 3d 36 a9 e1 3a c3 d0 cd 3c
       -0.14628407 0.031387705 0.0017216566 0.02512396
000300 f5 e0 c6 bc e6 d7 37 3d 6b 1f 16 3c 3a b5 40 be
       -0.02427719 0.04488363 0.009162764 -0.18819132
000310 e9 74 c2 bd 02 cf d2 3d 9a 2a 18 3d bc 20 6c 3d
       -0.09494955 0.1029339 0.037150003 0.057648405
000320 0d ab 4b bd ac 40 4c bd 21 86 8e 3d 56 1d 1e 3d
       -0.049723674 -0.049866363 0.06959177 0.038602196
000330 8f 0f 56 bd 86 ae 2c be af fa 0e 3e a1 40 b7 bd
       -0.05226093 -0.1686345 0.13962816 -0.08947874
000340 97 39 5b bd 10 98 8e 3d 3e 40 ac 3d 50 ac c8 3d
       -0.05352172 0.06962597 0.08410691 0.09798491
000350 63 86 93 3c bc 39 8b bd 46 fd 9f bd 66 a8 bd bd
       0.018008417 -0.06798121 -0.0781198 -0.09260635
000360 aa 9a 66 3c b8 ef 02 3d c0 81 0d 3d bb d9 cb bd
       0.014074961 0.031966895 0.034547567 -0.09953638
000370 f7 b9 6c bd 72 c2 9e bd b7 70 9f 3d 9a 84 2c 3d
       -0.057794537 -0.07751931 0.077851705 0.042118646
000380 1a 62 a2 bc f2 6c 94 bc 1a c4 68 be 8e 0d 50 3d
       -0.01982217 -0.018118355 -0.22731057 0.050794177
000390 73 9a c4 bd 51 7b 2e 3d 50 d7 1b be b9 ef d5 3d
       -0.09599771 0.042598072 -0.15218854 0.10446114
0003a0 20 54 bc 3d a6 6e 8a 3d 27 59 97 3d a6 b3 23 be
       0.09195733 0.06759386 0.07390051 -0.15986499
0003b0 3a e4 56 3c c2 94 e5 3b 91 cd 8b 3d dc b6 4f 3d
       0.013115937 0.0070062587 0.06826318 0.050711498
0003c0 8e 22 38 be ac ba 68 3c 9a 99 c1 3d 44 b1 f5 bc
       -0.17981932 0.014204662 0.09453125 -0.029991753
0003d0 51 24 68 3d fd a8 a8 bb e0 03 01 be 8b 8b cf bd
       0.05667526 -0.005147098 -0.12599134 -0.101340376
0003e0 ae 5d 89 3d f9 a2 a9 3d 5c 49 11 3d ad 0a b9 ba
       0.06707321 0.08283038 0.03547035 -0.0014117562
0003f0 a6 14 8a bd 3d e0 2c 3b f8 ee 07 bd a5 6d 8f bd
       -0.067422196 0.0026378774 -0.033186883 -0.07003335

fc_p.bias f4 [26]
000000 00 42 1f 3a da c6 05 3d 2f f4 ba 3c 64 17 90 bc
       0.00060752034 0.032660343 0.022821514 -0.017589279
000010 e4 7c f2 3c f8 fe ed 3c ca c2 2a 3d ab 59 03 3c
       0.029600568 0.029052243 0.04168967 0.008016984
000020 a1 81 fc 3c 9a 9b 1d bd 28 45 e4 3c 9d dc 69 bd
       0.03082353 -0.03847847 0.027865008 -0.05709516
000030 01 36 65 bd 58 e1 3c 3c d7 7f 8f bd 0f 45 63 3d
       -0.055959705 0.0115283355 -0.070068054 0.05548578
000040 71 45 dc bc 5d 36 d2 bb a7 c4 c0 3d f9 ec 91 3d
       -0.026888581 -0.006415172 0.094125085 0.07125277
000050 50 18 b0 bd aa b8 98 3d 29 16 83 3d 00 3f 93 3d
       -0.08598387 0.07457097 0.06400711 0.07189751
000060 2d e6 89 3c a6 84 f6 bd
       0.01683339 -0.120370194

fc_v.weight f4 [1, 128]
000000 68 12 71 3a 94 c9 bc 3c 1b b3 e5 bc 3f 6f 93 3d
       0.0009196163 0.023045339 -0.028039506 0.07198953
000010 5f b1 36 3b 9b 34 1c bd c5 d6 68 bd fc 06 9b b8
       0.0027876718 -0.038136106 -0.056845445 -7.392277e-05
000020 ce 7b 29 3c 50 75 dd 3b 7c 6b 31 3c 45 a5 65 3b
       0.010344459 0.0067583695 0.010828849 0.0035041135
000030 0d 34 1b 3d 94 db 3c bd aa 54 0a bd ff 70 3a 3d
       0.037891436 -0.046107844 -0.03377215 0.045517918
000040 5d a4 cd 3c e0 17 11 3c 39 7d 80 bc 9b 82 83 bb
       0.025102789 0.00885579 -0.01568471 -0.004013372
000050 39 8e 1c bd 28 c2 30 bd 3d 66 54 3d 45 6e 3d 3d
       -0.03822157 -0.04315391 0.051855315 0.04624774
000060 85 42 2e bb 7c 5d da 38 d3 26 06 3d 26 cf 25 bb
       -0.0026589942 0.00010412463 0.03275187 -0.0025300472
000070 ee fe a6 3a ae b9 03 bd ea 3d f3 bc 3b 41 50 bd
       0.001274077 -0.0321595 -0.029692609 -0.05084346
000080 bc f4 04 3c e7 42 f2 bc 7c a7 06 3d b3 8d 4e 3d
       0.00811499 -0.029572917 0.03287457 0.050428104
000090 3d 65 1c bc c0 49 82 3d b1 f4 7a 3c 1c bf a4 3b
       -0.009545621 0.06361723 0.015317128 0.005027665
0000a0 05 ce aa bd db 08 ea 3a d3 be a5 3b 84 c3 12 3d
       -0.08340076 0.0017855422 0.0050581484 0.03583099
0000b0 f4 39 7d 3d dc 32 f3 3b 4f 53 90 ba 84 43 b3 3d
       0.061822847 0.0074218344 -0.0011011156 0.08753112
0000c0 f8 5c f0 bb 0a ee 6c bd c5 55 45 bd 15 f0 e9 3c
       -0.0073353015 -0.0578442 -0.0481775 0.028556863
0000d0 7a bf b6 3c 83 70 d9 3c e3 bb 27 bd af d6 93 bb
       0.0223081 0.026542908 -0.040950667 -0.0045116763
0000e0 49 41 8f ba f2 3c 8c bc b3 18 ca 3a 69 1a c2 bb
       -0.0010929491 -0.017118905 0.0015418738 -0.0059235585
0000f0 0d a2 29 bc 86 99 89 bd 37 9e 63 3d 14 ac 92 bd
       -0.010353577 -0.067187354 0.055570807 -0.071617275
000100 6d 67 b5 3d 0b 6f a1 bc 71 9f b6 3d 4f 91 a6 bb
       0.088576175 -0.01970627 0.0891713 -0.00508324
000110 c6 fe dc ba 35 43 88 bd a9 3f 78 bd c4 b9 87 bd
       -0.0016860596 -0.06653444 -0.060607586 -0.06627229
000120 8b 72 31 bd 42 a7 ad 3c cc b8 67 bd 91 1a 70 3d
       -0.043322127 0.021197919 -0.05657272 0.058619086
000130 b5 fa bc bb dd 57 a1 bc 9b 4d e9 3b 85 db 9d 3d
       -0.0057671913 -0.019695217 0.007119847 0.07707886
000140 97 a0 91 3c 93 78 24 3b a2 b2 92 bc e1 88 82 bd
       0.01777677 0.0025096282 -0.017907444 -0.06373764
000150 33 47 64 bb ff 92 87 3c 4e 0f a4 bc fb 3b 4a bc
       -0.0034832477 0.016549585 -0.02002683 -0.012343402
000160 2f da b4 3c 47 44 ad bc 7b c0 0e 3d e5 d2 db 3c
       0.022076694 -0.021150721 0.034851532 0.02683396
000170 f8 d4 84 bc cd ae 24 3d a8 04 20 bd 7a 60 b0 bb
       -0.016214833 0.040205766 -0.03906694 -0.0053825947
000180 2a e4 04 3c e4 f1 27 3d 6d b3 75 3c fb 65 af bc
       0.008111039 0.04100217 0.014996392 -0.021410933
000190 f0 e2 02 bd 5f 32 83 3d 66 80 3a bd e0 d1 a5 3b
       -0.031954706 0.06406092 -0.045532607 0.0050604194
0001a0 5c 32 4d 3d 49 fd 32 bd a4 75 91 3c 2f 5f 2d bd
       0.050096855 -0.043698583 0.01775629 -0.042327102
0001b0 af 5f 29 3d 59 3b 99 3c 08 e4 c5 3a 0d b6 ad 3b
       0.041351017 0.018705057 0.0015097866 0.005301243
0001c0 c8 74 90 bc 93 a5 37 bd 4e e8 95 bc f1 56 d0 bb
       -0.01763381 -0.04483564 -0.018299248 -0.0063580205
0001d0 03 57 6f 3d b6 0f 1e bc 5e 22 20 bc 8f 61 33 3d
       0.05843259 -0.0096473005 -0.009773819 0.04379421
0001e0 ef 2a 6e bd f6 56 0b bd e6 10 92 3d 04 2f b4 3c
       -0.058146413 -0.03401848 0.07132129 0.021995075
0001f0 12 57 a5 3c e9 75 43 3c e9 85 76 3c 5b f8 85 bc
       0.02018312 0.011929967 0.015046575 -0.016353777
